study20/tuidui25.pth (torch, 587527 bytes, 10 tensors)

weight f4 [32, 3, 5, 5]
0	0xbd8e153f	-0.06937646
1	0xbd14a446	-0.036289476
2	0xbd509d38	-0.050931185
3	0x3b5ff614	0.0034173774
4	0xbc5702e9	-0.013123252
5	0x3e3da7b3	0.18521003
6	0x3e3e45e9	0.18581356
7	0x3e4076a1	0.18795253
8	0xbd89cf29	-0.06728966
9	0xbcede2c1	-0.029038789
10	0xbdbe645e	-0.09296487
11	0xbdc80888	-0.09767252
12	0xbded2e88	-0.11581141
13	0xbeb4a84b	-0.35284647
14	0xbe547e7e	-0.20751378
15	0xbdeba853	-0.11506715
16	0xbe944616	-0.2895972
17	0xbe0c3732	-0.1369293
18	0xbd333a9a	-0.04375706
19	0x3dba883b	0.09108015
20	0x3dc74ab1	0.09731043
21	0x3d1e03f2	0.03857798
22	0x3e523348	0.20527375
23	0x3c7475d6	0.014920672
24	0x3e7a4056	0.24438605
25	0xbe36689d	-0.17813344
26	0x3e09eb38	0.13468635
27	0xbd7c7daa	-0.06164328
28	0xbd94d3f5	-0.0726699
29	0x3d967d43	0.073481105
30	0x3e372882	0.17886546
31	0x3e8cd2dc	0.27504623
32	0x3e140a1b	0.1445698
33	0xbe087384	-0.13325316
34	0x3e0f55d4	0.13997585
35	0xbe169218	-0.14704168
36	0x3d35531e	0.04426872
37	0xbe2c9af2	-0.16855982
38	0xbe855c71	-0.2604709
39	0x3cf1862d	0.029482925
40	0xbe461888	-0.19345295
41	0xbda5ad27	-0.08089667
42	0xbe3cd7a2	-0.18441632
43	0xbe0c2ffd	-0.13690181
44	0x3df0fb41	0.11766673
45	0x3d919b38	0.07109684
46	0x3da9c08b	0.08288678
47	0x3e9946b5	0.29936758
48	0x3e7bcc94	0.24589759
49	0x3e521aec	0.20518082
50	0xbe171484	-0.1475392
51	0xbcf8f630	-0.030390829
52	0x3dcd293b	0.1001763
53	0xbc1c97e7	-0.009557701
54	0x3d8feb66	0.070273206
55	0x3e2bc5ac	0.16774625
56	0x3e2fbfb6	0.17162976
57	0x3ddaaef1	0.10677899
58	0xbdbd65bf	-0.09247922
59	0x3e2e8a65	0.17044981
60	0xbd4137e7	-0.047172453
61	0xbd6b9007	-0.057510402
62	0xbe2a9229	-0.16657318
63	0xbe7edbbb	-0.24888508
64	0x3cb69542	0.022287969
65	0xbe110973	-0.14163761
66	0xbe64bf7d	-0.22338672
67	0xbdd235cb	-0.102641664
68	0xbd00a0fe	-0.031403534
69	0x3d9185ae	0.071055755
70	0x3d98ba6d	0.07457433
71	0x3e113e61	0.14183952
72	0x3e8c7693	0.27434215
73	0x3e5bef2f	0.2147796
74	0x3df2c654	0.11854234
75	0xbd1ed8b3	-0.03878088
76	0x3e5d2cab	0.2159907
77	0xbc41fb97	-0.011839769
78	0x3d99d574	0.07511416
79	0xbd779995	-0.0604492
80	0x3e71b5e3	0.2360454
81	0x3d914176	0.07092564
82	0x3d909cee	0.07061182
83	0x3cfff815	0.031246224
84	0x3df9e2d3	0.122014664
85	0x3e0703f8	0.13185108
86	0xbc86ab22	-0.016439024
87	0xbd21c934	-0.039498523
88	0x3ce4bcd7	0.027922077
89	0x3e5831d5	0.2111276
90	0x3d624ba2	0.05524791
91	0x3db3d1fa	0.08780284
92	0x3dc86d4a	0.0978647
93	0x3e33799b	0.17526858
94	0x3d9a122e	0.07522999
95	0xbdd0413f	-0.10168695
96	0xbdb739ea	-0.08946593
97	0x3d9228bc	0.07136676
98	0x3e24a964	0.16080242
99	0x3dcedb85	0.10100464
100	0x3de78a1a	0.11305638
101	0x3d2d5549	0.042317662
102	0xbe426d7a	-0.18987074
103	0xbe577daf	-0.21044038
104	0xbe0b7e62	-0.1362243
105	0x3e062b66	0.13102493
106	0xbd32f860	-0.0436939
107	0xbdfc4168	-0.12317163
108	0xbcab5482	-0.02091432
109	0x38f128d8	0.00011499383
110	0x3befe54b	0.007321035
111	0x3c5829b7	0.013193539
112	0xbe7bb99a	-0.2458252
113	0xbd40e0dc	-0.047089443
114	0xbcf925d8	-0.030413553
115	0xbe3eb4be	-0.18623635
116	0xbe3224ad	-0.17396803
117	0xbe80a7eb	-0.2512811
118	0xbe093a00	-0.13401031
119	0xbe2f985d	-0.17147966
120	0xbe42f5ae	-0.19039032
121	0xbe85bd65	-0.2612106
122	0xbe590fad	-0.21197386
123	0xbc6a8ba9	-0.014315524
124	0xbe03120f	-0.12799858
125	0x3e275770	0.16341949
126	0x3b013ea4	0.0019721175
127	0x3b86ec5d	0.004117532
128	0x3d8035d8	0.0626027
129	0xbdda62fd	-0.10663412
130	0x3e4a235a	0.19740048
131	0x3e2944aa	0.165301
132	0xbd947922	-0.07249667
133	0x3dc14aee	0.0943812
134	0x3c1f7f8a	0.0097349975
135	0x3c9f4533	0.019442176
136	0x3d68a6b3	0.0567996
137	0x3d6b457a	0.057439305
138	0x3db9c4ac	0.09070715
139	0x3c9d6701	0.019214155
140	0x3df8bf46	0.121458575
141	0xbe19b199	-0.15009154
142	0xbe1a146b	-0.15046851
143	0x3dbdcab1	0.09267176
144	0xbd3f3074	-0.046677068
145	0xbcd04d95	-0.025427619
146	0x3d26e9ca	0.040750302
147	0xbd2c370d	-0.042044688
148	0xbc2058a5	-0.0097867595
149	0x3e2fbda9	0.17162193
150	0x3e164d9a	0.1467804
151	0x3d98ed8c	0.074671835
152	0x3e88a5cb	0.2668899
153	0x3e3378f9	0.17526616
154	0x3debc157	0.11511486
155	0x3dfb48df	0.122697584
156	0x3df46035	0.119324125
157	0xbc6a8b97	-0.014315507
158	0x3d83bae2	0.064321294
159	0x3e0a79e6	0.13523063
160	0x3e807312	0.25087792
161	0xbdd89c75	-0.10576717
162	0xbd153cb8	-0.03643486
163	0xbddea5c8	-0.10871464
164	0x3e616907	0.22012721
165	0x3d4e3048	0.050339013
166	0xbd854f01	-0.065092094
167	0xbdd03f38	-0.10168308
168	0xbdbf92f3	-0.093542
169	0x3c83e857	0.016102
170	0x3d3cfe8f	0.046141203
171	0xbd930988	-0.07179552
172	0xbdd4f7ca	-0.103988245
173	0xbe0213c0	-0.12702847
174	0xbd85df28	-0.06536704
175	0xbdc579d1	-0.09642375
176	0xbe087163	-0.13324504
177	0xbd61061e	-0.054937474
178	0xbdfd3cd2	-0.12365116
179	0xbdf3e436	-0.11908762
180	0xbe1435d2	-0.14473656
181	0xbe0ea9b4	-0.13931924
182	0xbe5e8c33	-0.2173317
183	0xbcf55528	-0.029947832
184	0x3d2ff894	0.042961672
185	0x3d391995	0.045190413
186	0xbe4b6b17	-0.1986507
187	0xbe8cc11d	-0.27491084
188	0xbd944c2a	-0.0724109
189	0xbd84a7bb	-0.064773045
190	0x3d3f3117	0.046677675
191	0xbe22ee81	-0.15911295
192	0xbe815d60	-0.25266552
193	0xbe4454fb	-0.19173042
194	0x3a09af3c	0.0005252247
195	0x3e1f02f2	0.15528467
196	0x3dd7a299	0.1052906
197	0xbe128e2f	-0.14312051
198	0xbd3f755f	-0.046742793
199	0xbde9501f	-0.11392235
200	0xbd682cc3	-0.056683313
201	0xbd8c90e6	-0.06863575
202	0x3b3ad9df	0.002851121
203	0xbcaa8e91	-0.020819934
204	0x3c8d37ff	0.017238615
205	0x3da9026b	0.08252414
206	0xbdd3e377	-0.1034612
207	0xbe18401c	-0.14868206
208	0x3d183c65	0.03716697
209	0xbd9b1e35	-0.07574121
210	0x3e17ce4b	0.14824788
211	0xbd5761ab	-0.052583378
212	0xbdc01885	-0.09379677
213	0xbe0805a7	-0.13283406
214	0x3d3870f2	0.045029588
215	0x3e89d5d7	0.2692096
216	0xbd319aaf	-0.04336041
217	0xbdf57811	-0.119857915
218	0xbe0b5e95	-0.13610299
219	0x3bb5556a	0.005533864
220	0x3e83855e	0.2568769
221	0x3e2eb3d0	0.1706078
222	0xbce4d270	-0.027932376
223	0xbd2c99b9	-0.04213879
224	0xbda56547	-0.08075958
225	0xbe137d18	-0.14403188
226	0xbd4c5ab7	-0.0498912
227	0xbcd0e3ff	-0.025499342
228	0x3dde66ff	0.10859489
229	0xbcc0bc51	-0.023527296
230	0x3dd74a32	0.105121985
231	0xbae03c54	-0.0017107823
232	0xbdf01eb1	-0.11724604
233	0xbe130fca	-0.14361492
234	0xbd73efb2	-0.059554763
235	0xbd6c606c	-0.057709143
236	0xba83aab8	-0.0010045385
237	0x3d902cfb	0.07039829
238	0x3ab6aa51	0.0013936256
239	0xbdf5ace9	-0.119958706
240	0xbdb1adec	-0.08675751
241	0xbe044a18	-0.1291889
242	0x3d1d5162	0.03840769
243	0x3dfd0e53	0.12356248
244	0xbdf81ae9	-0.12114508
245	0xbdfdaecb	-0.12386855
246	0xbd8e1b60	-0.06938815
247	0x3da35e5f	0.07976984
248	0xbdd72bf3	-0.105064295
249	0xbe1a90a1	-0.15094234
250	0x3e2052da	0.15656605
251	0xbd37e844	-0.04489924
252	0xbcd98cf1	-0.026556464
253	0xbcbfb148	-0.023399964
254	0x3de6add1	0.112636216
255	0x3d87f9e7	0.06639462

bias f4 [32]
0	0xbe6a9ca5	-0.22911318
1	0xbdb28cc6	-0.08718257
2	0x3edab00a	0.42712432
3	0x3e874824	0.26422226
4	0x3e47cf40	0.19512653
5	0xbe0388c0	-0.12845135
6	0x3ea7fec4	0.32811558
7	0xbe204598	-0.15651548
8	0x3e21e544	0.15810114
9	0x3e2e5a12	0.17026547
10	0x3d933f1c	0.071897715
11	0xbe8418d5	-0.25800195
12	0xbe9c9d46	-0.3058874
13	0x3d56b61a	0.05241976
14	0x3dab1801	0.08354188
15	0xbe8c5225	-0.2740642
16	0xbc93ee77	-0.018058045
17	0x3cb97455	0.02263848
18	0xbe286669	-0.16445316
19	0x3dbbe58f	0.09174644
20	0xbd70ca6d	-0.0587868
21	0xbcc7242e	-0.024309244
22	0xbdebe655	-0.11518542
23	0xbe5fec5b	-0.21867506
24	0xbe1e404b	-0.15454213
25	0xbeaa389c	-0.33246315
26	0xbcce32d3	-0.02517072
27	0xbd129ea6	-0.03579583
28	0x3cb6e711	0.022326978
29	0xbdfcff11	-0.123533376
30	0x3e972e3a	0.29527456
31	0xb9892a35	-0.00026162123

weight f4 [32, 32, 5, 5]
0	0x3ae7e048	0.0017690742
1	0x3ad1a87e	0.0015995649
2	0x3d53b788	0.0516887
3	0x3d075a08	0.033044845
4	0xbd374e8d	-0.044752646
5	0x3cb2d09c	0.021827988
6	0x3d81ecb9	0.063439794
7	0x3d153e2d	0.03643625
8	0xbc9358f8	-0.01798676
9	0x3d1bdb4d	0.03805094
10	0x3c9f6c7c	0.019460909
11	0xbc86f6c9	-0.016475098
12	0x3d0c48d5	0.034249146
13	0x3d384e60	0.04499662
14	0x3d10cca9	0.03535143
15	0x3cd3b11e	0.025841292
16	0x3cd8386a	0.026394088
17	0x3d3b54a4	0.045735016
18	0x3c2620d8	0.0101396665
19	0x3bedfb94	0.0072626565
20	0xbbe9bbfb	-0.0071330047
21	0xbc6416f1	-0.013921485
22	0xbb2ca7b2	-0.0026345071
23	0xbd52d220	-0.051469922
24	0xbd47fac7	-0.048823144
25	0xbd4492ce	-0.047991566
26	0xbc44128b	-0.011967312
27	0xbcd8a41b	-0.02644544
28	0xbb291aa7	-0.002580324
29	0xbd34f190	-0.044175684
30	0x3c7f87cc	0.015596341
31	0x3d4cee7f	0.050032135
32	0x3d44f759	0.04808745
33	0x3d00a1fe	0.031404488
34	0xbc735a68	-0.0148530975
35	0x3ca63344	0.020288117
36	0x3d70714c	0.0587018
37	0x3cfefd7b	0.031126728
38	0xbbde87a8	-0.006791074
39	0xbc4b1754	-0.012395699
40	0x3d0dba79	0.034601662
41	0xbc96dc47	-0.018415583
42	0x3cea1ca3	0.028578108
43	0xbcdf9334	-0.027291872
44	0xbd23efa6	-0.04002347
45	0xbd18feee	-0.037352495
46	0xbb472ced	-0.0030391768
47	0xbc250f19	-0.0100744
48	0xbd3234e5	-0.043507475
49	0xbc550098	-0.01300063
50	0x3c0e0cbb	0.008670027
51	0x3d50901e	0.05091869
52	0x3d6cbc43	0.057796728
53	0x3c796f16	0.015224239
54	0xbcf7e29b	-0.030259421
55	0x3c69cfc9	0.014270731
56	0x3d90a309	0.070623465
57	0x3d7ca174	0.06167741
58	0x3ca961d7	0.020676536
59	0xbd0694ef	-0.032856878
60	0xbb9ee349	-0.004848872
61	0x3d0dc247	0.034609105
62	0x3a4f460b	0.00079068606
63	0xbd238b1f	-0.039927598
64	0xbca3105c	-0.019905262
65	0x3bffc9fe	0.0078060618
66	0x3d49bfed	0.0492553
67	0xbca34130	-0.019928545
68	0xbbf770b1	-0.0075512757
69	0xbdbd47e5	-0.092422284
70	0x3ce4755f	0.027887998
71	0x3d081ced	0.03323071
72	0xbb9b16b3	-0.0047329306
73	0xbcd3d39f	-0.025857745
74	0xbcec4845	-0.028843055
75	0x3d39b1e5	0.04533567
76	0x3be16239	0.006878164
77	0xbce63b83	-0.02810455
78	0xbd0e1dd7	-0.034696426
79	0xbd4e6cfa	-0.050396897
80	0x3d45b5e5	0.04826917
81	0xbbbd7e61	-0.005782888
82	0xbc83550b	-0.016031763
83	0x3c136ebb	0.008998568
84	0xbd54684d	-0.05185728
85	0xbc80f346	-0.015741002
86	0x3cf03b0c	0.02932503
87	0x3c42c91a	0.011888767
88	0xbb287f37	-0.0025710592
89	0xbd0f6eab	-0.03501765
90	0xbc674dc5	-0.014117663
91	0xbd4800de	-0.048828952
92	0xbd491a20	-0.04909718
93	0xbd3b9f72	-0.045806356
94	0xbd9620f2	-0.073305026
95	0xbd53a3a0	-0.051669717
96	0xbbec9a5f	-0.007220551
97	0x3bc01849	0.00586227
98	0xbd026eeb	-0.03184406
99	0xbd74285e	-0.05960881
100	0xbd0dd1be	-0.034623854
101	0x3cd72863	0.026264375
102	0x3d2568c8	0.04038313
103	0x3cf9380d	0.030422235
104	0xbc98890d	-0.018620038
105	0x3b9b22cb	0.0047343723
106	0x3d0af21d	0.033922303
107	0xbc82c7be	-0.015964385
108	0x3c80488c	0.015659593
109	0xbd15808d	-0.03649955
110	0x3c8ce9ed	0.017201388
111	0x3d1a6a24	0.03769888
112	0xbc3708d1	-0.011171536
113	0x3cea4ea3	0.02860195
114	0xbaee6493	-0.0018187932
115	0xbd15c0d1	-0.036560837
116	0xbcbba182	-0.022904161
117	0x3abdbcff	0.0014475881
118	0x3c6bd3f7	0.014393798
119	0x3be25940	0.006907612
120	0xbb673767	-0.0035280825
121	0xbb386c05	-0.0028140557
122	0xbd63d420	-0.05562222
123	0xbcff6580	-0.031176329
124	0xbd8f2ff5	-0.06991569
125	0x3a245a77	0.0006269584
126	0x3be2c38f	0.006920285
127	0x3d35244f	0.04422408
128	0xbc8aec00	-0.016958237
129	0x3ccb0a2d	0.024785126
130	0x3cae4188	0.021271482
131	0xbd0ee808	-0.03488925
132	0xbbbf8be4	-0.0058455337
133	0x3d49835a	0.049197532
134	0xbc660b76	-0.014040818
135	0xbc8a8c63	-0.016912645
136	0xbc9df769	-0.019283013
137	0x3bb487bb	0.0055093444
138	0xba80f367	-0.0009838165
139	0x3c76bc2a	0.01505951
140	0xbd0275d0	-0.031850636
141	0xbcfb33ba	-0.030664314
142	0x3aecd33e	0.0018068326
143	0x3cb89301	0.022531034
144	0xbba77feb	-0.0051116846
145	0xbd2979fc	-0.0413761
146	0x3c0069fc	0.007837769
147	0xbbd29a36	-0.006427075
148	0xbcdb5374	-0.026773192
149	0xbbdf664c	-0.0068176147
150	0x3d0c6720	0.034278035
151	0xbbca6ac2	-0.0061772773
152	0xbc062fdf	-0.008190124
153	0x3d924a87	0.07143121
154	0x3d84e27d	0.06488512
155	0xbbddb87f	-0.0067663784
156	0xb9880e56	-0.00025950623
157	0x3da90a1e	0.08253883
158	0x3ce7501b	0.02823644
159	0xbc889cd8	-0.016676351
160	0x3b8b98db	0.004260165
161	0x3bb91bb3	0.005649054
162	0x3d9662eb	0.07343086
163	0xbc2d3ba2	-0.0105733
164	0x3ceb6d09	0.028738515
165	0x3d3c99d5	0.046045143
166	0xbca12cb8	-0.019674644
167	0x3c10299b	0.008798982
168	0x3d6c5760	0.057700515
169	0xbcf145d0	-0.029452235
170	0x3c0859a0	0.0083221495
171	0xbb9c6988	-0.0047733225
172	0x3cae4335	0.021272281
173	0x3c991e33	0.018691158
174	0xbd5a1674	-0.05324407
175	0x3bc85b3b	0.006114391
176	0xbcf1f619	-0.029536294
177	0x3c81d2e6	0.015847635
178	0x3c6e289f	0.014536052
179	0x3b871435	0.004122282
180	0x3b8b2f81	0.0042476063
181	0x3c81de10	0.015852958
182	0xbd146ae8	-0.036234766
183	0xba368324	-0.00069622905
184	0xbcb223e8	-0.021745637
185	0x3d1f3891	0.038872305
186	0xbd2e5b26	-0.042567395
187	0xbb93cbf0	-0.004510395
188	0x3bd93937	0.006629135
189	0xbbc01ff0	-0.0058631822
190	0xbcecea6d	-0.028920377
191	0xbc490885	-0.012270098
192	0x3c4da85e	0.012552349
193	0x3bce7c73	0.0063014566
194	0xbd17de10	-0.03707701
195	0xbd1ba65f	-0.03800046
196	0x3cd6057b	0.02612566
197	0x3d3c5314	0.045977667
198	0xbbf27965	-0.0073997253
199	0x3d299e81	0.041410927
200	0xbbaf109f	-0.0053425576
201	0x3c49da1e	0.01232007
202	0x3cc963be	0.024583694
203	0xbcf31a53	-0.029675638
204	0xba98a722	-0.0011646489
205	0x3d215ff5	0.039398152
206	0x3d3a5a7c	0.04549645
207	0x3c9dc1f8	0.01925753
208	0xbcb436c6	-0.021998774
209	0x3d24504e	0.040115647
210	0x3c819b78	0.015821204
211	0x3cea99d6	0.028637808
212	0x3d83d1bc	0.06436488
213	0x3d542d9b	0.051801305
214	0xbb64d028	-0.003491411
215	0x3cb175a9	0.02166255
216	0x3d7ce609	0.061742816
217	0xbc0f297e	-0.00873792
218	0x3ca8ab73	0.020589566
219	0xbcef8104	-0.029236324
220	0xbc26727e	-0.010159133
221	0xbc9fcc23	-0.01950652
222	0xbc221199	-0.009891891
223	0xbd26fc57	-0.040767994
224	0xbccfc349	-0.025361674
225	0x3cc20168	0.023682311
226	0x3d16f18f	0.036851462
227	0x3c841dcc	0.01612749
228	0xb7d29d9e	-2.5107347e-05
229	0xbd2818f8	-0.041039437
230	0x3cd957cc	0.026531123
231	0x3c82db69	0.015973764
232	0x3cdf88c0	0.027286887
233	0x3d5900dd	0.05297934
234	0xbd5c6105	-0.053803463
235	0xbc9695df	-0.018382011
236	0x3cfcaa38	0.030842885
237	0x3c92900a	0.017890949
238	0x3c1419fe	0.0090394
239	0xbd303d5d	-0.04302727
240	0xbc9a5d46	-0.018843304
241	0xbd1506da	-0.036383487
242	0xbcc12997	-0.023579402
243	0xbd483779	-0.048881028
244	0xbca6e25f	-0.020371614
245	0x3c7bf7f3	0.01537894
246	0xbb5830b8	-0.0032988023
247	0x3b96fb07	0.0046075615
248	0xbbdb938b	-0.006700938
249	0xbb82e634	-0.0039947275
250	0x3d652ca8	0.05595079
251	0x3c918253	0.017762339
252	0x3d3f8ad7	0.046763267
253	0x3b27227e	0.0025502737
254	0x3cddb676	0.027064543
255	0x3b9ac067	0.004722643

bias f4 [32]
0	0xbc1154f4	-0.008870352
1	0xbe1e8659	-0.15480937
2	0x3b3aa411	0.002847914
3	0xbe2f3660	-0.17110586
4	0xbdc168fa	-0.09443851
5	0x3c5d3e10	0.013503566
6	0x3d89e0ef	0.06732356
7	0xbdb3a9e3	-0.08772638
8	0xbe059c8a	-0.13047996
9	0x3c190d69	0.009341576
10	0xbe1ecc90	-0.15507722
11	0x3d86c45f	0.065804236
12	0xbdb3ff39	-0.08788914
13	0xbd03b3eb	-0.032154005
14	0xbc1f0fa4	-0.009708319
15	0xbd9d104e	-0.076691255
16	0xbe0e371a	-0.13888207
17	0xbe57e49e	-0.21083304
18	0xbda36610	-0.07978451
19	0xbe524d75	-0.2053736
20	0xbd5f3c36	-0.05450078
21	0xbd30aca4	-0.043133393
22	0xbd85f52b	-0.06540903
23	0xbd8027b8	-0.06257576
24	0xbccf49f2	-0.025303815
25	0xbe74b08f	-0.23895477
26	0xbdcaf7bd	-0.099105336
27	0xbde38f7d	-0.111113526
28	0xbe18a795	-0.14907677
29	0xbe2bcd3f	-0.16777514
30	0xbdfa1c3c	-0.122124165
31	0xbdd97758	-0.10618466

weight f4 [64, 32, 5, 5]
0	0xbc5634ef	-0.013074144
1	0x3d1632eb	0.036669653
2	0x3d0b413e	0.033997767
3	0xbc48b1be	-0.012249408
4	0xbc4545ff	-0.012040614
5	0x3bcd5b3f	0.006266981
6	0x3bafb6d9	0.0053623733
7	0xbd3daf32	-0.046309657
8	0xbcf65baa	-0.030073006
9	0x3acab197	0.0015464303
10	0x3c9ad4f9	0.018900381
11	0xbd027eec	-0.031859323
12	0xbd7f4a9a	-0.062327005
13	0x3d197eda	0.03747449
14	0xbb7a5cb9	-0.003820224
15	0xbb474afc	-0.0030409684
16	0x3cb51418	0.022104308
17	0xbcded1f0	-0.027199715
18	0x3cbd5615	0.023112336
19	0xbb86c547	-0.0041128728
20	0xbc1f4887	-0.009721882
21	0xba13a3ba	-0.0005632002
22	0x3c437211	0.011929051
23	0xbcc572eb	-0.024102649
24	0xbceaa96d	-0.028645242
25	0xbd13ee97	-0.03611621
26	0xbca0a0f9	-0.019608008
27	0xbc48807e	-0.012237666
28	0x3ca09661	0.019602956
29	0x3bfba134	0.007679129
30	0x3ca8d03e	0.02060711
31	0xbd4338c2	-0.04766155
32	0x3cb598f3	0.022167658
33	0x3aaa84d8	0.0013009561
34	0x3d5325bc	0.05154966
35	0x3c89fff6	0.016845684
36	0xbd09a6d8	-0.03360638
37	0x3a94ef64	0.0011362848
38	0x3caa6777	0.020801289
39	0x3c41fd9b	0.011840249
40	0xbd528dc5	-0.051404733
41	0x3cb2fb0e	0.021848228
42	0x3a8f5efb	0.001093834
43	0x3c8ed612	0.017436061
44	0xbc29479d	-0.010332015
45	0xbcbe82b1	-0.023255678
46	0x3c69fb6d	0.014281136
47	0x3cf708ff	0.030155657
48	0x3c66ef1c	0.014095094
49	0x3c3931e3	0.011303398
50	0x3c09530c	0.008381616
51	0x3b5a2221	0.0033284503
52	0x3cfc6200	0.030808449
53	0xbac3dc7c	-0.0014943029
54	0x3c8bca39	0.0170642
55	0x3d11697f	0.035501
56	0xbcf50d9f	-0.029913722
57	0xbd719f42	-0.05898977
58	0xbc070a20	-0.00824216
59	0xbc8951e3	-0.01676268
60	0xbc55fde4	-0.0130610205
61	0xbd12774d	-0.035758305
62	0xbda9d0fd	-0.082918145
63	0xbd028047	-0.031860616
64	0xbcf95f74	-0.030441023
65	0xbc88ad58	-0.01668422
66	0xbd0b3c8e	-0.033993296
67	0x3c1c2cfd	0.00953221
68	0x3c29645b	0.010338868
69	0xbcd4a4b6	-0.025957447
70	0xbbcbd70f	-0.0062207053
71	0x3d58e48c	0.052952334
72	0x3c91a5f6	0.017779332
73	0xbd1e5414	-0.038654402
74	0xbd3e53f4	-0.046466783
75	0xbc057dbb	-0.008147652
76	0xbd33ebce	-0.043926053
77	0xbc4623fa	-0.012093538
78	0xbc2e8bc4	-0.01065344
79	0xbb90c9eb	-0.0044186017
80	0x3b6066ce	0.0034240964
81	0x3d4fab83	0.050700676
82	0x3c370475	0.011170496
83	0x3c7cbc53	0.015425759
84	0x3d1cc285	0.038271446
85	0x3d6a27f9	0.057167027
86	0x3deee9f9	0.116657205
87	0x3d970407	0.07373815
88	0x3bfb7634	0.007674003
89	0x3d4ab39b	0.04948769
90	0x3d7243b8	0.059146613
91	0xbc32c6ba	-0.010911638
92	0x3d1884a3	0.037235867
93	0x3ada3a3a	0.0016649433
94	0xbd1a79b4	-0.03771372
95	0x3d3e6135	0.046479423
96	0xb9766d12	-0.0002350102
97	0xbd326fe6	-0.043563746
98	0xbd7d9b00	-0.061915398
99	0xbc418359	-0.011811101
100	0x3bb48f78	0.005510267
101	0x3cf22a28	0.029561117
102	0x3d4a193d	0.049340475
103	0x3d0dd1e1	0.034623984
104	0xbd18fb08	-0.037348777
105	0xbbdb7188	-0.0066968836
106	0xbba89508	-0.005144719
107	0xbc2c1ebd	-0.010505375
108	0x3c9ac4cd	0.01889267
109	0x3dbc84cc	0.092050165
110	0x3d05194e	0.032494836
111	0x3c052db4	0.008128572
112	0x3c85e886	0.016346227
113	0xbc87e200	-0.016587257
114	0x3cfecc31	0.031103225
115	0x3d3e5646	0.046468996
116	0x3d26b2bb	0.040697794
117	0x3c80da8b	0.01572921
118	0x3c813736	0.015773397
119	0xba7351c0	-0.0009281896
120	0xbb8fd78a	-0.004389708
121	0xbcb23ecc	-0.02175846
122	0xbcb0e925	-0.021595547
123	0x3a49b57d	0.00076945854
124	0xbc5b17c2	-0.0133723635
125	0x3d9b7200	0.07590103
126	0x3d5c19d0	0.053735554
127	0x3d412d8a	0.04716257
128	0x3d15520e	0.036455207
129	0x3d0774f2	0.033070512
130	0xbc8665e6	-0.01640601
131	0x3d0fcecc	0.035109326
132	0xbccdb924	-0.025112696
133	0x3b92e180	0.004482448
134	0x3d464631	0.048406783
135	0x38b33a02	8.54619e-05
136	0xbd703b42	-0.058650263
137	0xbd92d4eb	-0.07169517
138	0xbd4493e6	-0.04799261
139	0xbcace5f3	-0.021105742
140	0xbb870d21	-0.004121438
141	0x3c350bea	0.011050204
142	0x3c49caec	0.012316447
143	0xbd25be9d	-0.040464986
144	0xbc4fed67	-0.0126908785
145	0x3cbc8ce3	0.023016399
146	0xbced1aab	-0.02894338
147	0x3ca6fa92	0.020383153
148	0xbd2eb7f4	-0.0426559
149	0xbcd1c0ed	-0.02560469
150	0x3b63060f	0.0034641062
151	0x3c001f45	0.007819955
152	0x3d2a4610	0.041570723
153	0x3c8e7598	0.017390057
154	0x3c556d00	0.013026476
155	0xbaa2a01e	-0.0012407338
156	0x3da1b7c7	0.07896381
157	0x3d93b399	0.0721199
158	0x3cb11a34	0.02161894
159	0x3c251baf	0.010077401
160	0xbc2981e5	-0.010345911
161	0x3c99b841	0.018764617
162	0x3d2395d6	0.039937817
163	0xbcdd31bf	-0.02700126
164	0x3c71da2e	0.014761491
165	0xbd64aea6	-0.05583062
166	0xbd3f1b2e	-0.04665678
167	0xbce0de7e	-0.027449843
168	0xbd86e7cb	-0.0658718
169	0xbd2a981b	-0.041648965
170	0x3c52c88c	0.012865197
171	0x3c43ead8	0.011957847
172	0x3c1863bb	0.009301121
173	0x3a81a884	0.000989214
174	0xbc06d99c	-0.008230593
175	0x3bcc8414	0.006241331
176	0x3d3fa97f	0.046792503
177	0xbd0c35e7	-0.034231093
178	0xbd28100d	-0.041030932
179	0x3831b154	4.236524e-05
180	0xbd57d38f	-0.052691992
181	0x3c6bbb72	0.014387952
182	0xbc5c08d0	-0.013429835
183	0x3c626207	0.013817317
184	0xbc4a5c43	-0.0123510985
185	0x3cd93d1c	0.026518397
186	0xbc25b1f5	-0.010113229
187	0xbc873f28	-0.016509607
188	0xbd00f208	-0.03148082
189	0x382aa5d3	4.0685594e-05
190	0x3ce51ef2	0.027968857
191	0x3d11e872	0.035622068
192	0xbd31e539	-0.043431494
193	0xbc608e88	-0.013705857
194	0xbcb5a953	-0.022175467
195	0xbaa908ec	-0.0012896336
196	0x3cd3bcbb	0.02584683
197	0xbc9a8e79	-0.018866764
198	0x3d4aa6da	0.04947553
199	0x3d44ea40	0.04807496
200	0xbcc1179b	-0.023570826
201	0x3cee3ac4	0.029080756
202	0x3c776b1a	0.015101219
203	0x3cf6d5a9	0.030131178
204	0x3ca4352f	0.020044891
205	0xbc201b34	-0.009772111
206	0x3d21722d	0.039415527
207	0xbb6e35ca	-0.0036347979
208	0x3cab7365	0.020929048
209	0x3cd1ac20	0.02559477
210	0x3d919346	0.07108168
211	0x3d604580	0.05475378
212	0x3d293c65	0.041317362
213	0x3a8aa55f	0.0010577849
214	0xbb28ef07	-0.0025777237
215	0x3d48dbf4	0.04903789
216	0x3d6d1676	0.05788275
217	0x3d3a607d	0.045502175
218	0x3d6718fb	0.056420308
219	0xbbce6799	-0.006298971
220	0x3cd9bc14	0.02657894
221	0xbabfa77f	-0.0014622061
222	0xbd0372f1	-0.03209204
223	0xbc24201e	-0.010017423
224	0xbc9f2f42	-0.019431714
225	0xbb85abcd	-0.004079318
226	0xbd15ee04	-0.036603943
227	0x3d14834b	0.036258023
228	0xbc97a7e5	-0.018512676
229	0x3bdf07ce	0.0068063503
230	0x3d3fd5b6	0.04683467
231	0xbc05f155	-0.008175214
232	0xbc087dd6	-0.008330783
233	0x3d091ef7	0.033476796
234	0xbc0170d1	-0.007900433
235	0xbd6beb11	-0.057597224
236	0x3b12cd36	0.0022400147
237	0xbcb310d4	-0.02185861
238	0xbced6071	-0.02897665
239	0x3a2844e3	0.00064189563
240	0xbd3f163a	-0.046652056
241	0xbd27a3da	-0.040927745
242	0xbd1aad7f	-0.037763115
243	0xbd62878b	-0.055305045
244	0xbbcd005a	-0.0062561454
245	0xbcfa0ab0	-0.030522674
246	0xbcad0718	-0.021121547
247	0xbba786b7	-0.005112495
248	0xbd03a2e6	-0.032137774
249	0x3bb27dda	0.0054471316
250	0xbc3e463e	-0.011613427
251	0x3d577e51	0.0526107
252	0x3cacfe55	0.021117369
253	0x3d0af448	0.03392437
254	0x3d1c8f27	0.03822246
255	0xbbb63387	-0.0055603418

bias f4 [64]
0	0xbdc6af5b	-0.09701415
1	0xbd6cecb7	-0.057842936
2	0xbd9d1788	-0.07670504
3	0x3b21d100	0.0024691224
4	0x3ba37e52	0.004989424
5	0xbd7e643e	-0.062107317
6	0xbd400805	-0.046882648
7	0xbde6cd28	-0.11269599
8	0xbd33b684	-0.043875232
9	0xbd6cfea2	-0.057860024
10	0xbca74241	-0.020417335
11	0xbdc11e4f	-0.09429609
12	0xbbde17ec	-0.006777754
13	0x3b8f1f6d	0.00436776
14	0xbd9cd870	-0.0765847
15	0xbd672471	-0.056431238
16	0xbc8c21c2	-0.01710594
17	0xbd4a934b	-0.049456876
18	0xbda0db8b	-0.078543745
19	0xbd9354c1	-0.071939
20	0xbcdbefb9	-0.026847707
21	0xbdec5d14	-0.11541191
22	0xbd1dbdba	-0.038511015
23	0xbda6cca1	-0.081444986
24	0xbc4c8974	-0.012483943
25	0xbd928b9d	-0.07155535
26	0xbc73291d	-0.014841345
27	0xbd933984	-0.071887046
28	0xbc8b1b69	-0.016980844
29	0xbd8933c1	-0.066993244
30	0xbdc88b80	-0.097922325
31	0xbd4621b3	-0.04837198
32	0xbdab128c	-0.08353147
33	0xbdea24eb	-0.11432823
34	0xbdcee1c9	-0.10101659
35	0xbdbae779	-0.09126181
36	0xbcb8a50f	-0.022539644
37	0xbd1d0c22	-0.03834165
38	0xbd2f9a63	-0.042871844
39	0xbd2dbac9	-0.04241446
40	0xbb6b15c0	-0.0035871118
41	0xbdf15412	-0.11783613
42	0xbd44974e	-0.047995858
43	0xbd1092a5	-0.0352961
44	0xbdc3aee5	-0.09554843
45	0xbdb58036	-0.08862345
46	0xbdd4545f	-0.10367655
47	0xbce22cfc	-0.02760934
48	0xbd5b8a8b	-0.05359892
49	0xbd3a102a	-0.04542557
50	0xbc396346	-0.011315173
51	0xbd5cff16	-0.053954206
52	0x3b77288a	0.0037713372
53	0xbdb06daa	-0.08614667
54	0xbd979846	-0.07402091
55	0xbd68bdc8	-0.056821615
56	0xbd689476	-0.05678221
57	0xbdfac4ea	-0.122445896
58	0xbd2a218a	-0.04153589
59	0xbd0de531	-0.034642402
60	0xbdee9b5b	-0.116507255
61	0xbce452ba	-0.027871478
62	0xbd0d1563	-0.034444224
63	0xbdb42cb0	-0.08797586

weight f4 [64, 1024]
0	0xbcc9c01f	-0.024627743
1	0xbcef70a0	-0.029228508
2	0x3d004db6	0.03132411
3	0x3d248649	0.040167127
4	0xb8373d28	-4.3687556e-05
5	0x3c2878ac	0.010282677
6	0x3d237128	0.039902836
7	0xbb4ae2ee	-0.0030958015
8	0x3912ea62	0.0001401096
9	0x3d571002	0.0525055
10	0x3da498ce	0.08036958
11	0x3d1690d3	0.03675921
12	0xbcb54439	-0.022127258
13	0x3d0ad146	0.033890985
14	0xbc9140f1	-0.017731162
15	0x3ba9fd41	0.005187661
16	0xbc7c6f04	-0.015407328
17	0xbd0f5d49	-0.035001073
18	0xbbc9e35c	-0.0061611366
19	0xbc1821e8	-0.009285428
20	0xbc4e278f	-0.012582674
21	0xbd65217d	-0.05594014
22	0x3c6295e7	0.013829685
23	0x3c968fe3	0.018379157
24	0xbc1a27e1	-0.009408922
25	0x3c06b5f3	0.008222091
26	0x3d87a381	0.06622983
27	0x3b8dd207	0.0043280157
28	0xbd073797	-0.033012
29	0xbd18c215	-0.037294466
30	0x3d011807	0.031517055
31	0x3c8fe4e6	0.017565202
32	0x3cd97f74	0.026550032
33	0xbc87f0aa	-0.01659425
34	0xbc856bce	-0.016286757
35	0x3cf30336	0.029664617
36	0xbcb6a536	-0.022295576
37	0x3c9da92b	0.019245705
38	0x3d0082d4	0.031374767
39	0x39d86acb	0.00041278297
40	0x3d0296fd	0.031882275
41	0xbd17edd7	-0.037092056
42	0x3c853a95	0.016263286
43	0xbd1f1027	-0.038833763
44	0xbc591c7c	-0.01325142
45	0xbb7f6316	-0.0038968972
46	0xbc4a75b2	-0.012357162
47	0x3c36c596	0.011155507
48	0xbc93f5b4	-0.018061496
49	0xbb215e7b	-0.0024622965
50	0x3c823c2c	0.015897833
51	0xbc448373	-0.011994231
52	0x3cebf8ff	0.028805254
53	0xbbae397a	-0.0053169103
54	0xbba21288	-0.0049460568
55	0xbd3a662e	-0.045507602
56	0xbc6d6b1c	-0.014490869
57	0xbd04718a	-0.03233484
58	0xbcb9fb0a	-0.022702713
59	0xbd3d0aa6	-0.046152733
60	0x3d98b3af	0.07456147
61	0x3be9a464	0.0071301926
62	0x3bd4a49a	0.0064893486
63	0xbcdb044f	-0.026735453
64	0xbc31e2de	-0.010857312
65	0xbd2ec53d	-0.04266857
66	0xbcf8d224	-0.03037364
67	0xbbdad0e1	-0.0066777323
68	0xbc5c7d0d	-0.013457549
69	0xbc97f6b0	-0.018550247
70	0x3c933d07	0.017973436
71	0xbd88f150	-0.06686652
72	0x3c64999f	0.013952642
73	0x3cc6a8c8	0.024250403
74	0x3d3859f6	0.04500767
75	0x3d5d54c9	0.054035936
76	0x3d05a076	0.03262373
77	0x3d10b49d	0.035328496
78	0x3cad8f5a	0.02118652
79	0x3c2ce3ec	0.010552388
80	0xbcb94e01	-0.022620203
81	0xbd46ac26	-0.048504017
82	0x3c045774	0.008077491
83	0xbb5bb86a	-0.0033526667
84	0xbc269e68	-0.010169603
85	0xbcbc6aab	-0.023000082
86	0x3c2b9af5	0.010473956
87	0x3c5a3959	0.013319337
88	0xbc60ded2	-0.0137249995
89	0xbcfbf1a5	-0.030754874
90	0xbd90b11e	-0.070650324
91	0xbceaa5d4	-0.028643526
92	0x3cf4e9e1	0.029896678
93	0x3c9eaa5d	0.019368345
94	0xbc866ca6	-0.01640923
95	0x3bf0a0b6	0.007343377
96	0xbba317dc	-0.0049772095
97	0xbd0ecfab	-0.034866016
98	0xbc018a8d	-0.007906568
99	0x3b336960	0.002737604
100	0x3d2afe9a	0.041746713
101	0xbd2fea3a	-0.042947985
102	0xbc978378	-0.018495306
103	0xbcfedf4e	-0.03111234
104	0x3c99b17d	0.01876139
105	0xbb72c781	-0.0037045183
106	0x3cae667a	0.021289099
107	0xb9c15254	-0.00036873168
108	0xbcfc9eed	-0.0308375
109	0xbd77d76f	-0.060508188
110	0xbced84fd	-0.028994078
111	0xbcb26f79	-0.02178167
112	0x3c4197a1	0.011815936
113	0x3c09f3f7	0.008419982
114	0xb8ef8342	-0.00011420857
115	0x3ad5fd8d	0.0016326174
116	0xbd5114d5	-0.051045258
117	0xbca393f4	-0.01996801
118	0x3c519f0e	0.012794269
119	0xbc7f9f48	-0.01560194
120	0xbd5ffa71	-0.0546822
121	0xbc17c3e9	-0.009263017
122	0xbd455856	-0.048179947
123	0x3d2fc860	0.042915702
124	0xbc969099	-0.018379496
125	0xba950e04	-0.0011371975
126	0xbd00bf4c	-0.031432435
127	0x3c874902	0.016514305
128	0x3c56f838	0.013120703
129	0xba0965f9	-0.00052413304
130	0xbbd91c5e	-0.006625696
131	0xbc8406a8	-0.016116455
132	0xbd0ce795	-0.03440054
133	0xbc8161ec	-0.015793763
134	0x3d40e6fd	0.047095288
135	0x3cdb0f62	0.026740734
136	0x3cecbd33	0.028898811
137	0x3a44cd6e	0.0007507418
138	0x3cc8c76e	0.024509158
139	0xbd10d05a	-0.03535495
140	0x3b8096ba	0.003924218
141	0x3d01b43a	0.031666018
142	0x3cf7f890	0.030269891
143	0xbc2bcd12	-0.010485904
144	0xbbadc407	-0.0053029093
145	0xbd021e3a	-0.031767108
146	0x3c10c882	0.008836867
147	0xbd0bd20b	-0.03413586
148	0x3da3c432	0.07996406
149	0xbbdff17c	-0.006834207
150	0x3d79cf03	0.060988437
151	0x3ca993a0	0.020700276
152	0xbd0ea2f3	-0.03482337
153	0xbbea285a	-0.0071459236
154	0x3ce44db8	0.02786909
155	0xbd2b4861	-0.041817073
156	0x3c2845b2	0.010270523
157	0x3c3c7375	0.0115021365
158	0x3c1229d6	0.008921107
159	0xbd220243	-0.03955294
160	0x3c165188	0.009174712
161	0x3c9d428b	0.01919677
162	0xb94f9c79	-0.00019799349
163	0x3cb3b639	0.021937476
164	0xbce183fc	-0.027528755
165	0xbadc859f	-0.001682449
166	0xbb05ee0d	-0.0020436079
167	0x3c14786b	0.009061913
168	0xbc39aa92	-0.011332171
169	0x3c95645a	0.018236328
170	0x3d0ebe7e	0.034849636
171	0xbc3525f8	-0.011056416
172	0xbc68c488	-0.014207013
173	0x3cd1603d	0.025558585
174	0x3d19f2f6	0.03758522
175	0x3d1eb4a8	0.038746506
176	0x3d2bcefd	0.041945446
177	0x3c9be095	0.019027987
178	0xbc958304	-0.01825095
179	0xbd3cdd7d	-0.046109665
180	0x3cdc54f0	0.02689597
181	0xbae48b39	-0.0017436511
182	0xbc1677ee	-0.009183867
183	0xbb884660	-0.00415878
184	0xbd00e170	-0.031464994
185	0xbca8eddf	-0.020621238
186	0xbb9aaf60	-0.0047206134
187	0xbceaad42	-0.028647069
188	0x3c18bf22	0.009322913
189	0xbb637c16	-0.0034711412
190	0xbbeedf9b	-0.0072898394
191	0x3bcb0990	0.0061962083
192	0xbd27764e	-0.04088431
193	0x3ca04b53	0.019567167
194	0x3ccfac4e	0.025350716
195	0x3cbb22ff	0.022843836
196	0x3d18f835	0.037346084
197	0x3d17e742	0.03708578
198	0x3cd47097	0.025932593
199	0xbb82ad0e	-0.003987915
200	0x3be7b9ba	0.007071701
201	0x3c58e456	0.013238033
202	0x3c471239	0.012150341
203	0x3cf268df	0.029591022
204	0xbd90f72c	-0.07078394
205	0x3b5a7abc	0.0033337316
206	0xbd355a46	-0.044275545
207	0xbd0db791	-0.03459889
208	0xbc07b8e0	-0.008283824
209	0xbbe74616	-0.0070579154
210	0xbc355b50	-0.011069134
211	0xbcdd9e8e	-0.027053144
212	0xbb9d0441	-0.004791767
213	0x3d284610	0.04108244
214	0x3c702cfc	0.014659163
215	0x3cb47982	0.022030596
216	0x3a35c15c	0.0006933415
217	0xbcac10d4	-0.021004118
218	0xbd4c8e5b	-0.04994045
219	0x3d37531d	0.044756997
220	0xba76c37b	-0.0009413284
221	0xbb319559	-0.0027097075
222	0x3d64bc8b	0.05584387
223	0x3d8386ac	0.06422171
224	0x3c81b183	0.015831714
225	0x3c9c7b17	0.019101663
226	0xbc16384d	-0.009168697
227	0x3c39a3b8	0.0113305375
228	0x3cc7f59a	0.024409104
229	0x3d05a4dd	0.03262793
230	0x3c9aaddd	0.018881733
231	0x3d9a795a	0.07542677
232	0xbd2fe903	-0.042946827
233	0x3d72c27b	0.059267502
234	0xbae9e766	-0.0017845451
235	0xbcb21dd2	-0.021742735
236	0xbc812815	-0.015766183
237	0x3c6b7d9a	0.014373207
238	0x3c84cd5a	0.0162112
239	0x3c2e48a1	0.010637433
240	0x3d1e6e04	0.038679138
241	0x3d4c2e40	0.049848795
242	0x3cbc6c83	0.023000961
243	0x3ccf680a	0.025318164
244	0xbc56ed3d	-0.013118085
245	0x3cf7b346	0.030236851
246	0xbb80da48	-0.003932271
247	0x3bc89938	0.0061217807
248	0xbcd6fa0e	-0.026242282
249	0xbc0ef30b	-0.008724938
250	0xbd096875	-0.033546884
251	0xbc55ff26	-0.01306132
252	0x3be6a4a5	0.00703867
253	0xbc74f8db	-0.01495191
254	0x3c98aeee	0.0186381
255	0x3cb81a39	0.022473441

bias f4 [64]
0	0xbce03bbd	-0.027372235
1	0x3b6f6630	0.0036529414
2	0x3c1b4353	0.009476501
3	0x3c879635	0.016551116
4	0x3d01bcdd	0.031674255
5	0x3b05abbe	0.0020396556
6	0x3b8b8a9a	0.004258466
7	0x3c506d0b	0.01272131
8	0x3b28be66	0.0025748252
9	0x3cef4e6d	0.029212201
10	0x3cdb04a9	0.02673562
11	0xbd5568bf	-0.052101847
12	0x3cf66c94	0.030081071
13	0x3d53fcbf	0.05175471
14	0x3c33f06a	0.010982612
15	0x3d0e4347	0.03473213
16	0x3cc0940c	0.023508094
17	0x3d1c9717	0.038230028
18	0x3c1f850a	0.009736309
19	0xbb39e0d7	-0.0028362775
20	0x3d5a652f	0.053319152
21	0xbbcd3f67	-0.0062636617
22	0x3d019643	0.03163744
23	0x3a9c419b	0.0011921407
24	0x3b863292	0.004095384
25	0x3d8138f9	0.06309695
26	0x3c0d347f	0.008618473
27	0x3cd633a1	0.026147665
28	0x3d5c4323	0.053774964
29	0x3d5a2ce0	0.053265452
30	0x3cf38938	0.029728517
31	0x3ce19b95	0.027540008
32	0x3c4ffa26	0.012693917
33	0x3cedec76	0.029043417
34	0xbd1c6b20	-0.0381881
35	0xbc323343	-0.01087648
36	0x3b3c0759	0.0028690903
37	0x3d28feec	0.041258737
38	0x3cdd7622	0.02703387
39	0x3c7aec76	0.015315166
40	0xbcc93bae	-0.02456459
41	0x37770f76	1.4725947e-05
42	0xbbeb7ae5	-0.007186281
43	0x3afefc29	0.0019453812
44	0xbb4d2d1a	-0.00313074
45	0x3cab852c	0.020937525
46	0xbca527f5	-0.020160655
47	0x3d8eedb9	0.06978936
48	0xbd5cb258	-0.05388102
49	0xbd3c3ef3	-0.04595847
50	0xbd392514	-0.045201376
51	0xbd2079f2	-0.039178796
52	0x3bc2b103	0.0059415116
53	0xbbd1ed3b	-0.006406454
54	0xbcb1a8fe	-0.021687027
55	0xbd8578ae	-0.065171584
56	0x3d1a4571	0.03766388
57	0x3d813579	0.06309027
58	0x3cd8da59	0.026471304
59	0x3c8d08da	0.017216135
60	0xbd9f0d3a	-0.07766195
61	0xbc500f7f	-0.012699007
62	0x3aa075b0	0.0012242105
63	0xbcb1d590	-0.02170828

weight f4 [10, 64]
0	0x3d3a26a9	0.045447025
1	0x3e0eba80	0.13938332
2	0x3e2f2c9b	0.1710686
3	0xbde01803	-0.1094208
4	0xbe4207eb	-0.18948333
5	0x3e01bca4	0.12669617
6	0xbe2e027d	-0.16993137
7	0x3befd7a4	0.0073194075
8	0x3d6821a5	0.05667271
9	0xbe397ae9	-0.18113293
10	0x3e283400	0.16426086
11	0x3e7ef0ac	0.24896497
12	0xbd019dd1	-0.031644646
13	0xbe5b4b6e	-0.21415493
14	0x3db5f477	0.088845186
15	0xbe947712	-0.28997093
16	0x3dbe826b	0.09302219
17	0x3cb97cef	0.02264258
18	0x3d339a80	0.043848515
19	0x3e6037ba	0.21896258
20	0xbe6db13d	-0.23212142
21	0x3c9b2339	0.018937694
22	0x3e802977	0.25031635
23	0x3d9f8d30	0.07790601
24	0xbda899ef	-0.082324855
25	0xbca29b99	-0.019849585
26	0x3d651a37	0.055933204
27	0xbd2e0786	-0.042487644
28	0xbdb02010	-0.085998654
29	0xbe0d67b1	-0.13809086
30	0x3e45b237	0.19306265
31	0x3d68b72b	0.056815308
32	0x3cb7fd37	0.02245961
33	0x3e987a1c	0.29780662
34	0x3e729951	0.23691298
35	0xbdf7630e	-0.1207944
36	0xbe5bba22	-0.21457723
37	0xbe5d72d8	-0.2162584
38	0xbe2f6e60	-0.17131948
39	0x3e42f470	0.19038558
40	0x3d036277	0.032076325
41	0xbcbb3a7a	-0.022855032
42	0x3dcbcfb2	0.09951724
43	0x3d452f26	0.048140667
44	0xbe239224	-0.15973717
45	0xbe7c7ecd	-0.24657746
46	0xbd83480c	-0.06410226
47	0xbb25fd07	-0.0025327818
48	0x3dee447a	0.116341546
49	0xbde4dd6d	-0.11175046
50	0x3ba8b166	0.0051481007
51	0x3df4aef5	0.11947433
52	0xbdcd4788	-0.10023409
53	0xbe6c4b30	-0.23075557
54	0x3e50234e	0.20325968
55	0xbb013a78	-0.0019718688
56	0xbebb6647	-0.3660147
57	0xbeb8e3a4	-0.36111176
58	0x3d828577	0.06373113
59	0x3d6f01a7	0.058351185
60	0x3e874eee	0.26427406
61	0xbcec0cfc	-0.028814785
62	0xbe6d931d	-0.2320065
63	0x3e41d557	0.18929039
64	0x3eaeba05	0.34126297
65	0xbec91fb6	-0.39282006
66	0xbe7f4106	-0.24927148
67	0xbe9f20a2	-0.31079584
68	0x3e16e95f	0.14737462
69	0xbe707348	-0.23481476
70	0xbda59947	-0.08085876
71	0x3eb81f74	0.35961497
72	0xbe99f172	-0.3006702
73	0xbe99209c	-0.2990769
74	0xbe42886e	-0.18997356
75	0xbe873007	-0.2640383
76	0x3e29f326	0.1659666
77	0x3e726335	0.23670657
78	0x3d407c4f	0.04699355
79	0xbc38f7d5	-0.0112895565
80	0xbe2f46e2	-0.17116883
81	0xbdb79a55	-0.089649834
82	0xbe65c092	-0.22436741
83	0x3dd7d11a	0.1053793
84	0xbd8cd8d8	-0.06877297
85	0xbe5b0b7c	-0.213911
86	0xbe8e2dc8	-0.27769303
87	0xbe50887c	-0.20364565
88	0xbc51b0be	-0.012798486
89	0x3bdb240f	0.006687648
90	0x3e5a457d	0.2131557
91	0x3e1448e8	0.14480937
92	0xbe824e80	-0.25450516
93	0x3e19bc94	0.15013343
94	0xbe3e5461	-0.18586875
95	0xbd624658	-0.055242866
96	0xbd569ba0	-0.05239451
97	0x3e205d50	0.15660596
98	0x3e05eb59	0.1307806
99	0x3da12b70	0.07869613
100	0x3c3db978	0.011579864
101	0xbe16be62	-0.14721063
102	0xbe0c0da8	-0.13677084
103	0x3d7c72fc	0.061633095
104	0xbdfa128e	-0.1221057
105	0xbe704782	-0.23464778
106	0xbe0f48dd	-0.13992639
107	0x3eb339f9	0.35005167
108	0x3e7e2e7d	0.24822421
109	0x3dbc997b	0.092089616
110	0x3dac1af8	0.084035814
111	0xbea37533	-0.31925353
112	0x3e5e5647	0.217126
113	0xbe507a7b	-0.20359223
114	0xbdb1eafd	-0.086873986
115	0x3dd9cb93	0.10634532
116	0x3d62b981	0.05535269
117	0xbe01bfb3	-0.12670784
118	0x3e7a0c86	0.2441884
119	0x3d22607a	0.03964279
120	0xbe1d498c	-0.15360087
121	0x3e31323c	0.17304319
122	0x3e089d4d	0.13341255
123	0x3d1b2293	0.03787477
124	0xbc395dd6	-0.011313876
125	0x3d1f698f	0.038919028
126	0x3e4be117	0.19910084
127	0xbe377be2	-0.17918351
128	0x3d4b534a	0.049639978
129	0x3e320b07	0.17387019
130	0x3e83caef	0.25740764
131	0x3db79b5d	0.0896518
132	0x3ced806a	0.028991897
133	0xbd11ccaf	-0.035595592
134	0xbde42374	-0.11139575
135	0xbe89f38d	-0.26943627
136	0x3e639903	0.22226338
137	0x3e5b4a32	0.21415022
138	0x3d2f6212	0.042818137
139	0xbd07d767	-0.033164408
140	0x3d8c9578	0.068644464
141	0xbe352a13	-0.17691831
142	0xbcb67b3b	-0.022275558
143	0xbe1913ac	-0.1494891
144	0x3ca47305	0.020074377
145	0xbe1fe8f4	-0.15616208
146	0x3d59e9f8	0.053201646
147	0x3d079d81	0.03310919
148	0xbc440bb3	-0.01196568
149	0xbe77ecc3	-0.24211411
150	0x3e142d5c	0.14470428
151	0xbe1d70bd	-0.15375037
152	0x3e06d676	0.13167748
153	0x3da453c7	0.08023792
154	0xbe82c801	-0.25543216
155	0x3ea7722a	0.32704288
156	0x3ec1e4ea	0.3786996
157	0x3deb4218	0.11487216
158	0xbdf1707c	-0.11789033
159	0x3e6623b3	0.22474556
160	0xbdeaca73	-0.114643954
161	0xbe060914	-0.130894
162	0x3d77e6cb	0.060522836
163	0xbe09853b	-0.1342973
164	0xbe224437	-0.15846334
165	0x3e52c2de	0.20582148
166	0x3e0c62df	0.13709591
167	0x3e24f10f	0.16107582
168	0x3cd3aecf	0.025840191
169	0x3db1e4b8	0.08686203
170	0xbe26d5be	-0.16292474
171	0xbd948e56	-0.07253711
172	0xbdd38e79	-0.10329909
173	0x3e9851a3	0.29749784
174	0x3dfc38e9	0.12315542
175	0xbdd0d2f8	-0.10196489
176	0xbe419685	-0.18905075
177	0xbe38a578	-0.18031871
178	0xbe3a914a	-0.18219486
179	0x3e0036d2	0.12520912
180	0xbd4582b1	-0.04822034
181	0x3ea0f779	0.31438807
182	0x3e623cad	0.22093458
183	0x3e10c031	0.14135815
184	0xbd78bed8	-0.060728878
185	0xbe508e40	-0.20366764
186	0xbe07c378	-0.13258159
187	0xbe50d2eb	-0.20392959
188	0x3e23a745	0.15981777
189	0x3e164191	0.14673449
190	0xbe30f2d4	-0.17280132
191	0xbd85b6f5	-0.06529037
192	0xbe2f209f	-0.17102288
193	0x3e2693b6	0.16267285
194	0x3dce9d46	0.10088591
195	0xbcffd3bf	-0.031228898
196	0x3dd6bf12	0.104856625
197	0xbce5a7f9	-0.028034197
198	0x3dba5d65	0.09099845
199	0x3e8038a6	0.2504322
200	0xbd64d456	-0.05586656
201	0xbe317b0b	-0.17332093
202	0x3e272223	0.16321616
203	0x3dc489a5	0.09596566
204	0x3dc3ad95	0.095545925
205	0xbe4494cd	-0.19197388
206	0x3cb5027e	0.022095915
207	0x3ce07690	0.027400285
208	0x3c9736e2	0.018458787
209	0xbd49bf1c	-0.04925452
210	0x3e35c090	0.17749238
211	0x3d7fa28d	0.06241088
212	0xbdb2caf6	-0.08730118
213	0xbe56a9f3	-0.20963268
214	0xbe5baf0d	-0.21453495
215	0x3c8beac8	0.017079726
216	0xbe436d14	-0.19084579
217	0x3da561e0	0.08075309
218	0x3e0f3737	0.13985907
219	0x3b1f61a6	0.0024319678
220	0xbe22376e	-0.15841457
221	0xbe2cc353	-0.16871385
222	0xbdd58bec	-0.104270786
223	0x3dd8c878	0.105851114
224	0x3e22f471	0.1591356
225	0xbe5d0177	-0.2158259
226	0xbb96cb8e	-0.0046019023
227	0x3d0e149f	0.034687635
228	0x3de7fc8a	0.11327465
229	0x3dea4d71	0.11440552
230	0x3e110d2d	0.14165182
231	0x3d3b1b4d	0.045680333
232	0xbe35d7be	-0.1775808
233	0x3dec79dd	0.11546681
234	0xbdcd400c	-0.100219816
235	0xbe8571f0	-0.2606349
236	0x3d94ea3a	0.07271238
237	0xbe0f3ed9	-0.13988818
238	0x3cbe347d	0.023218388
239	0x3e71c43e	0.23610017
240	0x3d18be1b	0.037290674
241	0x3c8f3a57	0.017483873
242	0x3e2a6817	0.1664127
243	0x3da4e6d9	0.08051843
244	0xbe4893a7	-0.19587575
245	0x3e337d23	0.17528205
246	0xbdd3cfd6	-0.10342376
247	0xbd79ef65	-0.06101932
248	0x3e70f9af	0.23532747
249	0x3e67d710	0.22640634
250	0xbd6ce6bc	-0.057837233
251	0xbe3e7f9f	-0.18603371
252	0xbe09c70a	-0.13454834
253	0x3d0348df	0.032051917
254	0xbcda4cb2	-0.0266479
255	0xbd9bb4a7	-0.07602816

bias f4 [10]
0	0xbd945604	-0.07242969
1	0xbd35c44f	-0.044376668
2	0x3d0e7533	0.03477974
3	0x3d9efd18	0.077631176
4	0x3e62ba7d	0.22141452
5	0xbe189682	-0.14901164
6	0x3e507a55	0.20359166
7	0xbdce76be	-0.10081242
8	0xbb609f65	-0.0034274694
9	0xbc90b4e2	-0.017664377
