study19/tuidui15.pth (torch, 587527 bytes, 10 tensors)

weight f4 [32, 3, 5, 5]
0	0xbe3787b1	-0.17922856
1	0xbe3f8948	-0.18704712
2	0xbe25c4dd	-0.16188379
3	0xbe885387	-0.26626226
4	0xbe462ba2	-0.19352582
5	0xbe110e04	-0.14165503
6	0xbdb578a2	-0.088608995
7	0xbe217ec6	-0.15771016
8	0xbe79a8be	-0.24380776
9	0xbe0cc8f0	-0.13748527
10	0xbc8d5760	-0.017253578
11	0x3e006b55	0.12540944
12	0xbc289cfe	-0.010291336
13	0x3d9a6b2e	0.07539974
14	0x3dc2364a	0.09483011
15	0x3ddfbba1	0.10924459
16	0x3dc7a131	0.09747542
17	0x3e3b2dc9	0.18279184
18	0x3e47cf81	0.1951275
19	0x3bf6eeb6	0.007535781
20	0x3e3f0cb0	0.18657184
21	0x3e151776	0.14559731
22	0x3dc54f88	0.0963431
23	0x3e140453	0.14454775
24	0x3ddd0518	0.10791987
25	0xbddeaef5	-0.10873214
26	0xbe5373f6	-0.20649704
27	0xbe5b47e6	-0.21414146
28	0xbd8addce	-0.06780587
29	0xbe20e0e4	-0.15710789
30	0x3d5357ca	0.051597394
31	0xbe3d2ec2	-0.18474868
32	0xbe05f565	-0.13081892
33	0xbd5a6055	-0.053314526
34	0xbe0f92b3	-0.14020805
35	0x3dc24e9d	0.094876505
36	0xbcb9a2f8	-0.022660717
37	0xbc6197e9	-0.013769128
38	0xbdd01002	-0.10159303
39	0xbd713d53	-0.058896374
40	0x3cb75ac2	0.022382144
41	0xbd17b35e	-0.037036292
42	0x3db95f51	0.09051383
43	0xbd7e54b7	-0.06209251
44	0x3dc49a17	0.09599703
45	0x3d684d6f	0.05671447
46	0x3e13bd50	0.14427686
47	0x3d3ac03a	0.045593478
48	0x3da43df9	0.08019633
49	0xbce97b69	-0.02850123
50	0xbd4f961e	-0.050680272
51	0x3d8cf455	0.0688254
52	0xbddd854f	-0.10816442
53	0x3d9076d0	0.07053912
54	0x3b826827	0.003979701
55	0x3d29dd91	0.041471068
56	0x3d19ac07	0.037517574
57	0x3baf725d	0.0053542093
58	0x3d16e9d9	0.03684411
59	0xbd7b12ca	-0.061297216
60	0xbc543c1c	-0.012953784
61	0x3d938b45	0.07204298
62	0x3e3a3cf8	0.1818732
63	0x3cf837ee	0.030300107
64	0x3e16d052	0.14727905
65	0x3d308d5b	0.043103557
66	0x3e0e4c40	0.13896275
67	0x3e34969e	0.17635581
68	0x3defe3a6	0.11713342
69	0x3d92063f	0.071300976
70	0x3c22c300	0.009934187
71	0x3e0eda56	0.13950476
72	0x3e5d1c28	0.21592772
73	0x3e0c5b08	0.137066
74	0x3d0d705f	0.034530994
75	0xbdc2d971	-0.0951413
76	0xbe0a382a	-0.13497987
77	0x3ccfd53b	0.02537023
78	0xbdac67fc	-0.08418271
79	0xbd396b8a	-0.045268573
80	0xbd834136	-0.064089224
81	0xbe2daba2	-0.16960004
82	0xbb998b88	-0.004685823
83	0x3d59bc66	0.053158186
84	0xbd1241ab	-0.035707157
85	0x3d04bd63	0.032407176
86	0xbdbb7fe3	-0.09155252
87	0x3de912eb	0.113805614
88	0x3dbc2fa6	0.09188776
89	0xbd58303d	-0.05278038
90	0x3cbd58f2	0.023113701
91	0xbdf57e43	-0.11986973
92	0x3d883870	0.066513896
93	0x3d3d92f6	0.04628273
94	0xbd418cc8	-0.0472534
95	0x3d190a19	0.037363146
96	0x3dabef98	0.08395308
97	0xbcc438ac	-0.023952805
98	0x3b21788e	0.0024638507
99	0xbd4dfaa2	-0.05028785
100	0xbe066751	-0.1312535
101	0x3cae8d98	0.021307752
102	0x3e1df73f	0.15426348
103	0x3d42cabb	0.04755662
104	0x3ddebc5d	0.10875771
105	0x3d1bbc9b	0.038021665
106	0xbd99b394	-0.07504955
107	0x3e0da56f	0.13832639
108	0xbd0d5e52	-0.03451378
109	0xbd832681	-0.064038284
110	0x3cc9d621	0.024638237
111	0x3c1e7c42	0.00967318
112	0x3d60e362	0.05490435
113	0x3e2a9e04	0.1666184
114	0x3dc2ecbf	0.09517812
115	0xbd6af31c	-0.057360753
116	0x3e01baa2	0.12668851
117	0xbd174ae2	-0.03693665
118	0x3dea332c	0.114355415
119	0xbd49dd8f	-0.04928356
120	0x3d5e5c29	0.05428711
121	0x3dacd214	0.08438507
122	0x3d6d6c9a	0.0579649
123	0x3d82657d	0.063670136
124	0xbded50d9	-0.11587686
125	0xbe34a618	-0.17641485
126	0xbc34ac44	-0.011027399
127	0x3c912d77	0.017721875
128	0xbd2c86db	-0.042120796
129	0x3c83b617	0.016078038
130	0xbd65f9e6	-0.056146525
131	0x3d7f986e	0.062401228
132	0x3dcd59c4	0.10026887
133	0xbbdf6cac	-0.0068183746
134	0xbcea697f	-0.028614758
135	0xbe15fbf7	-0.14646898
136	0xbe167d52	-0.14696243
137	0x3dea707e	0.114472374
138	0x3dfdb45a	0.12387915
139	0x3db79fa8	0.08965999
140	0x3ca9da95	0.02073411
141	0xbce2b6ac	-0.027674995
142	0x3dab4ec5	0.083646335
143	0x3e040889	0.12893881
144	0x3cf651ab	0.03006824
145	0xbd7764bf	-0.060398813
146	0xbcd7c397	-0.026338382
147	0xbd946881	-0.07246495
148	0x3d8968ac	0.06709418
149	0x3a812992	0.0009854308
150	0x3e005d97	0.12535702
151	0x3dbb793c	0.09153983
152	0xbc913d58	-0.017729446
153	0x3a9dcd2b	0.0012039294
154	0x3c021567	0.007939673
155	0x3dd7e0f2	0.10540952
156	0x3dfb9fd6	0.12286346
157	0x3e11102e	0.14166328
158	0x3df3640b	0.11884316
159	0x3c0e1a46	0.008673256
160	0x3db9b305	0.090673484
161	0x3e1dfaee	0.15427753
162	0x3d19377a	0.037406422
163	0x3e30203c	0.17199796
164	0x3d6431bb	0.05571149
165	0xbe108da7	-0.14116536
166	0xbe10714d	-0.14105721
167	0x3ab4e99a	0.0013802529
168	0x3d83b24a	0.0643049
169	0x3b59f737	0.0033258924
170	0xbc122216	-0.0089192595
171	0xbe23557a	-0.15950575
172	0xbe1f4f8b	-0.15557687
173	0xbd4362cc	-0.047701642
174	0x3dcec03c	0.100952595
175	0x3d2f08a0	0.042732835
176	0x3d001c98	0.03127727
177	0xbdcaafa4	-0.09896782
178	0xbe18f088	-0.14935505
179	0xbd2322c1	-0.039828066
180	0x3df8f65f	0.121563666
181	0x3d40a792	0.047034808
182	0x3d90a0d6	0.07061927
183	0x3d917d18	0.07103938
184	0xbe12d9ed	-0.14340945
185	0xbdf33bdf	-0.11876654
186	0xbbcc7f78	-0.0062407814
187	0x3c317711	0.01083161
188	0x3cf009ea	0.029301602
189	0xbb760ae0	-0.0037543103
190	0xbcd98b03	-0.026555544
191	0xbd495c6a	-0.0491604
192	0xbca706db	-0.020389011
193	0xbe2549a9	-0.1614138
194	0xbcb9fae6	-0.022702646
195	0xbe15cd0d	-0.14629002
196	0xbe1634de	-0.14668605
197	0xbe0940e9	-0.13403668
198	0xbe1c9cec	-0.15294236
199	0x3cc0a6fc	0.023517124
200	0x3cc37025	0.023857186
201	0x3d4b0714	0.049567297
202	0x3dd0379f	0.10166859
203	0xbdbd9c51	-0.092583306
204	0xbd21f7c4	-0.03954293
205	0x3d5c2f7c	0.053756222
206	0xbba1d1d7	-0.004938345
207	0x3e5e85a4	0.21730667
208	0x3e0c16b8	0.13680542
209	0x3d102932	0.035195537
210	0xbd858ca6	-0.06520967
211	0x3d9e680f	0.07734691
212	0x3d4b56d3	0.04964335
213	0x3d9fc7c6	0.07801776
214	0x3e2a9803	0.1665955
215	0xbd470b2b	-0.048594635
216	0x3de795b6	0.11307852
217	0x3d62c80f	0.055366572
218	0x3c500a92	0.012697833
219	0xbc41e840	-0.011835158
220	0x3db1b171	0.086764224
221	0xbdd834ad	-0.10556922
222	0x3d4da9da	0.05021081
223	0x3d61c2ab	0.05511729
224	0x3bb2d902	0.0054579983
225	0x3d9db2a9	0.07700092
226	0xbca180d3	-0.019714748
227	0x3e0a84c6	0.13527212
228	0x3dbb34c4	0.091409236
229	0x3d06f804	0.03295137
230	0xbcdb7074	-0.02678702
231	0xbda7c88d	-0.08192549
232	0xbd437f30	-0.047728717
233	0xbc0071fc	-0.007839676
234	0xbd2f958f	-0.04286724
235	0xbdcc9de8	-0.09991056
236	0xbca5dd27	-0.020247055
237	0x3c2fe1a7	0.010734952
238	0x3d596671	0.05307621
239	0x3d324816	0.043525778
240	0xbccf71a0	-0.025322735
241	0xbe24e16c	-0.16101617
242	0xbde0f0ce	-0.1098343
243	0xbd813959	-0.06309766
244	0xbcffd08b	-0.03122737
245	0xbcf81079	-0.030281292
246	0xbcc9b85c	-0.024624042
247	0x3cdd9509	0.027048605
248	0x3cc27a33	0.02373991
249	0x3df9704e	0.121796235
250	0xbcc1cca3	-0.023657149
251	0x3e0f73e1	0.14009048
252	0x3dbf782a	0.09349091
253	0xbd535d82	-0.051602848
254	0xbda91aaa	-0.08257039
255	0x3d328a39	0.04358885

bias f4 [32]
0	0xbe930f35	-0.2872254
1	0xbe2ab70f	-0.16671394
2	0xbec11236	-0.37709206
3	0xbeb0dadd	-0.3454198
4	0x3e2ebb45	0.17063625
5	0xbe08da7c	-0.13364595
6	0x3d895e0f	0.067073934
7	0xbe93d988	-0.288769
8	0xbd03be84	-0.03216411
9	0x3d8efb32	0.069815055
10	0xbdb7c0ed	-0.089723445
11	0x3e2243a9	0.15846123
12	0xbd8c1557	-0.06840008
13	0xbd263b65	-0.040583987
14	0x3b2d4f58	0.0026444998
15	0x3dd06821	0.10176111
16	0xbe468d81	-0.19389917
17	0x3d2a64bb	0.04159997
18	0x3e06affc	0.1315307
19	0xbc0377ae	-0.008024139
20	0xbe468b72	-0.19389132
21	0xbbf5352b	-0.0074831448
22	0xbd2d717c	-0.042344555
23	0x3c248ab7	0.010042838
24	0x3ca864ad	0.020555818
25	0x3e06d963	0.13168864
26	0x3e7dde3b	0.24791805
27	0xbdadf83c	-0.084946126
28	0x3e25ac7b	0.16179077
29	0x3e076518	0.13222158
30	0xbe07d409	-0.13264479
31	0x3ddf3885	0.10899452

weight f4 [32, 32, 5, 5]
0	0x3ca4ef6b	0.020133695
1	0x3d755761	0.059897784
2	0x3d1dcf14	0.038527563
3	0xbc989620	-0.018626273
4	0x3c4b5edf	0.012412756
5	0x3cae3412	0.021265063
6	0xbb1a84d4	-0.0023577707
7	0x3b09a6a1	0.002100386
8	0x3c2b8bc0	0.010470331
9	0xbc8e29b2	-0.017353866
10	0x3cba6d52	0.022757206
11	0x3c650728	0.013978757
12	0x3cd7a12f	0.026321976
13	0x3cceb1b9	0.02523123
14	0x3d36d2bc	0.044634566
15	0xbc7a510e	-0.015278114
16	0xbcef0ef0	-0.029181927
17	0xbcdf61e3	-0.027268356
18	0x3c250033	0.010070848
19	0x3c560b15	0.013064166
20	0xbbbfef79	-0.005857405
21	0x3c452676	0.012033096
22	0xbc89ceb1	-0.016822191
23	0x3cb05057	0.021522684
24	0x395e05f8	0.00021173793
25	0x3d2a5f29	0.041594658
26	0x3c9c18a1	0.019054713
27	0x3cd322a4	0.025773354
28	0xbc0b45f8	-0.008500569
29	0xbd2131ac	-0.03935401
30	0xbc64cd8d	-0.013965023
31	0x3d48daf8	0.04903695
32	0xbc569b06	-0.013098484
33	0x3c05e429	0.008172073
34	0xbcacd1d2	-0.021096144
35	0x3cbb5c36	0.022871118
36	0x3bc21c95	0.0059238174
37	0x3c858500	0.01629877
38	0xbd3ab82b	-0.045585793
39	0xbb993f52	-0.004676738
40	0x3cb6da8d	0.02232101
41	0x3cd47e62	0.02593917
42	0xbc0cddc8	-0.008597799
43	0xbc588a96	-0.013216635
44	0xbc8bd4d3	-0.017069256
45	0xbaf2fdc4	-0.0018538763
46	0xbb764374	-0.0037576826
47	0xbc3db823	-0.011579546
48	0x3bc50016	0.006011973
49	0x3c1e9054	0.009677965
50	0x3d0769fc	0.03306006
51	0x3c3edb84	0.011649016
52	0x3bb26791	0.005444475
53	0xbd0634e2	-0.032765277
54	0xbcc39b4f	-0.023877768
55	0xbb8a752a	-0.004225393
56	0x3c9996f3	0.018748736
57	0x3d004886	0.031319164
58	0xbd033e8f	-0.032042082
59	0xbc77ae79	-0.015117281
60	0x3c09c1d2	0.008408027
61	0xbca628ae	-0.02028307
62	0x3cd77c28	0.02630432
63	0xbbf9e124	-0.007625716
64	0xbcbc3412	-0.022974048
65	0x3ceb843c	0.028749578
66	0xbc5de71e	-0.013543872
67	0xbd1a9fc8	-0.037750036
68	0xbcfd5e37	-0.030928714
69	0xbd3bf57d	-0.045888413
70	0xbcaeebf8	-0.021352753
71	0x3ccb006e	0.024780478
72	0xbd222687	-0.039587524
73	0x3b85affe	0.004079818
74	0xbcb6ba79	-0.022305714
75	0x3c46194f	0.012090995
76	0x3cf03c7a	0.029325712
77	0xbc006c1e	-0.007838277
78	0x3d0d7556	0.03453573
79	0xbc9f1e95	-0.019423762
80	0xbbabf1e2	-0.0052473405
81	0x3b230275	0.002487329
82	0x3ca36816	0.019947093
83	0x3c9e0273	0.019288277
84	0x3c68c339	0.014206701
85	0xbc10e8b4	-0.008844543
86	0x3cbde725	0.023181507
87	0x3cd5a94a	0.0260817
88	0x3b9b52e9	0.0047401083
89	0x3c18eacf	0.0093333265
90	0xbc7e473f	-0.015519916
91	0x3c18989d	0.00931373
92	0xbbcb84e4	-0.00621091
93	0xba5d644a	-0.0008445425
94	0xbd13988c	-0.036034152
95	0x3ce58574	0.028017737
96	0xbcb19209	-0.02167608
97	0xbb93875c	-0.00450222
98	0xbcaa37e6	-0.020778608
99	0x3c82a77e	0.015949007
100	0xbc8f83cb	-0.017518898
101	0xbce9c874	-0.028537966
102	0x3cef8bbc	0.029241435
103	0x3d43a6c5	0.047766466
104	0x3c195284	0.009358052
105	0x3cff248e	0.03114536
106	0x3ce346b7	0.02774368
107	0x3c4f7188	0.012661345
108	0xba3c4990	-0.00071825925
109	0x3d038289	0.03210691
110	0xbcca2b72	-0.02467892
111	0x3cc4cfeb	0.024024924
112	0x3c9939c7	0.018704308
113	0x3c28b9cf	0.0102982065
114	0x3ae5f4ac	0.0017544231
115	0x3d0d387d	0.0344777
116	0xbc53afe4	-0.012920354
117	0x3d253e9b	0.04034291
118	0x3d095358	0.03352675
119	0x3cafcc56	0.02145974
120	0xba904916	-0.001100811
121	0x3cf08913	0.029362237
122	0x3c01f2bf	0.00793141
123	0x3ca109b7	0.019657953
124	0x3c1e21e2	0.009651633
125	0x3c983325	0.018579075
126	0x3c94fbd6	0.018186491
127	0xbd287ce5	-0.041134734
128	0xbd140e5e	-0.036146514
129	0x3c153769	0.009107449
130	0x3cf4be27	0.029875828
131	0xbc438be0	-0.011935204
132	0x3b32e23e	0.0027295495
133	0xbd20730f	-0.03917223
134	0x3b8154d0	0.003946878
135	0x3c6ea63a	0.014565999
136	0x3c60f3f3	0.013730037
137	0xbcfbdfda	-0.03074639
138	0xbd04343e	-0.032276385
139	0x39db3e25	0.00041817236
140	0x3d1b4001	0.037902836
141	0xbcf6d998	-0.030133054
142	0xbbc64ef4	-0.0060518924
143	0x3ca9869c	0.02069407
144	0x3cda68bb	0.026661268
145	0x3a98e059	0.001166354
146	0x3abf209c	0.0014581862
147	0x3cec8598	0.028872296
148	0x3c79e9f6	0.015253535
149	0xb9241064	-0.00015646365
150	0xbd257589	-0.040395293
151	0xbbec9af3	-0.00722062
152	0xbc4afeac	-0.01238982
153	0x3cd70828	0.026249006
154	0x3a836a0f	0.0010026115
155	0xbd1e5e21	-0.038663987
156	0x3c954e33	0.018225765
157	0x3b3115e5	0.0027021107
158	0x3cd6440b	0.026155492
159	0x3c5a65c9	0.013329932
160	0x3bf5f777	0.0075063067
161	0xbc8528d9	-0.01625483
162	0x3b23f80e	0.0025019678
163	0xbd28f8ae	-0.041252784
164	0x3c1d8f15	0.009616633
165	0xbd7023b8	-0.058627814
166	0xbd80a860	-0.06282115
167	0xbcadb2ae	-0.021203365
168	0xbd0c664c	-0.034277245
169	0xbcb92178	-0.022598967
170	0x3b115ef9	0.0022181852
171	0xbd4a4df8	-0.049390763
172	0xbd32b124	-0.043625966
173	0x3a80c54e	0.0009824426
174	0xbce68dcb	-0.028143784
175	0xbc069203	-0.008213523
176	0x3d09dcea	0.033657946
177	0x3c90b6e4	0.017665334
178	0x3cafccc8	0.021459952
179	0x3b28a09e	0.00257305
180	0xbc572ba9	-0.013132968
181	0xbc185de5	-0.00929973
182	0x3d4dab55	0.050212223
183	0xb9fc4d56	-0.00048122805
184	0x3cdbb772	0.026820872
185	0x3c8f8a52	0.017522011
186	0xbc6cefbc	-0.014461454
187	0x3bddcc86	0.006768766
188	0x3c9d3099	0.019188212
189	0xbc8e97a9	-0.017406302
190	0xbc008378	-0.007843845
191	0x3cb10218	0.021607444
192	0xbb8c7d86	-0.0042874245
193	0xbc91584b	-0.017742297
194	0xbca8ecf6	-0.020620804
195	0xbc8293e3	-0.015939659
196	0x3caae4bc	0.020861022
197	0x3cae8e02	0.021307949
198	0xbd1f5f25	-0.038909096
199	0xbc8b6e70	-0.017020434
200	0xbcb13767	-0.021632863
201	0xbcc11658	-0.023570225
202	0x3d08c1e7	0.033388045
203	0x3c9aab34	0.018880464
204	0x3cdfdb79	0.027326332
205	0xbbaf256c	-0.005345037
206	0x3ae999be	0.0017822308
207	0x3d16f1e8	0.036851794
208	0x3cb481dc	0.022034578
209	0x3d7d389e	0.061821572
210	0xbc4280dc	-0.011871543
211	0x3aa200df	0.0012359879
212	0x3c4c0fc7	0.0124549335
213	0x3d76d6ca	0.060263433
214	0x3d818b34	0.06325379
215	0x3bc1e9bb	0.0059177554
216	0x3d29287c	0.041298375
217	0x3d05de19	0.032682512
218	0x3ccaf487	0.024774803
219	0x3d8922b3	0.066960715
220	0x3d5d3e76	0.054014646
221	0x3d818f48	0.06326157
222	0xbc86a172	-0.016434405
223	0x3d4db583	0.05022193
224	0x3ca7bff2	0.020477269
225	0x3c910eb1	0.0177072
226	0x3c35ee0f	0.011104121
227	0x3c54b8f0	0.012983546
228	0xbca7ced4	-0.020484366
229	0x3d1ebbbc	0.038753256
230	0x3d302e56	0.04301294
231	0xbc1ce936	-0.009577086
232	0x3cede301	0.029038908
233	0x39677b97	0.00022075918
234	0x3c755f19	0.014976286
235	0xbcf228fb	-0.029560557
236	0x3c38cce5	0.011279319
237	0x3bf52825	0.0074815922
238	0xbcc56afc	-0.024098866
239	0x3a816af7	0.0009873797
240	0xbc6b17ab	-0.014348905
241	0xbc8cf6e3	-0.017207569
242	0x3bb9a2e2	0.005665169
243	0xbc7bd0a0	-0.015369564
244	0x3ca9d2f9	0.020730482
245	0xbd2d3e79	-0.042295907
246	0x3cb5a1dd	0.022171909
247	0xbcea5f67	-0.028609945
248	0x3cb07cad	0.021543825
249	0xbcebe75c	-0.028796844
250	0x3c999ea6	0.018752407
251	0x3b70d9f2	0.0036751
252	0x3c52012d	0.012817663
253	0xbcaf9301	-0.021432402
254	0xbd723cfa	-0.059140183
255	0x3ac6cbdf	0.001516696

bias f4 [32]
0	0xbd8cf35a	-0.06882353
1	0xbc522b92	-0.012827771
2	0xbd2dcf13	-0.04243381
3	0xbde885a5	-0.11353616
4	0xbc646df9	-0.013942235
5	0xbdad25f4	-0.084545046
6	0xbd9ea3d4	-0.077460915
7	0xbe57afb3	-0.21063118
8	0xbdb4afc0	-0.08822584
9	0xbc3e8766	-0.011628961
10	0xbe0bdcd0	-0.13658452
11	0x3d5299e6	0.0514163
12	0xbc21e986	-0.0098823365
13	0xbc960df8	-0.018317208
14	0x3c8c97db	0.017162254
15	0xbdf5b591	-0.11997522
16	0x3c0bdbb2	0.008536266
17	0xbddb491e	-0.10707305
18	0xbd2484df	-0.04016578
19	0xbe17fa47	-0.14841567
20	0xbd968427	-0.07349425
21	0x3d064444	0.032779947
22	0xbe416405	-0.1888581
23	0xbd343997	-0.044000234
24	0xbe3ed706	-0.18636712
25	0xbc4285a6	-0.011872685
26	0xbd857c9f	-0.0651791
27	0xbdf6be8a	-0.12048061
28	0x3d694e27	0.056959298
29	0xbd2a9e5e	-0.041654937
30	0xbc5ffeba	-0.013671571
31	0xbd0259ae	-0.031823806

weight f4 [64, 32, 5, 5]
0	0x3d19a24f	0.037508305
1	0x3caa12e2	0.020760957
2	0xbc9bfcac	-0.019041382
3	0xbcc78d51	-0.024359377
4	0xbd1a837e	-0.037723057
5	0xba578730	-0.00082217436
6	0x3c8f5673	0.017497277
7	0x3cc2ac7b	0.023763886
8	0x3c918d23	0.017767495
9	0x3d18dbb6	0.037318908
10	0x3cae7b16	0.021298926
11	0x3cca2e7d	0.02468037
12	0x3d17bc5b	0.037044864
13	0x3d2be69d	0.041967977
14	0xbc37f0fa	-0.011226887
15	0xbce87f5f	-0.028381048
16	0xbd167df2	-0.036741205
17	0xbd214247	-0.039369848
18	0xbca2c1ef	-0.019867865
19	0xbbe5c99c	-0.007012559
20	0x3be0e311	0.006863006
21	0x3d16a1cd	0.0367754
22	0xbd43c2fe	-0.04779338
23	0xbd39d59e	-0.045369737
24	0x3c923590	0.017847806
25	0x3cf504e7	0.029909564
26	0xbc8bac3c	-0.017049901
27	0x3c4ce1fa	0.012505049
28	0xbc312232	-0.010811375
29	0xbb2a3dcf	-0.0025976782
30	0x3d2f996f	0.042870935
31	0xbc428a55	-0.011873801
32	0x3cd26f22	0.025687758
33	0x3cbb9ad5	0.022900978
34	0xbb200187	-0.0024414973
35	0xbd241849	-0.040062223
36	0xbc815144	-0.01578582
37	0xbb927fb7	-0.004470791
38	0xbc897dff	-0.016783712
39	0x3ce82242	0.028336648
40	0xbcf49f9a	-0.02986126
41	0xbc9f0d82	-0.01941562
42	0x3cac827b	0.021058312
43	0xbb5b6174	-0.0033474835
44	0xbcba9822	-0.02277762
45	0xbd44648f	-0.047947463
46	0xbb2ba284	-0.0026189396
47	0xbd4eb942	-0.050469644
48	0xba8c79d4	-0.001071746
49	0x3ced6f70	0.028983802
50	0x3bb8f3bc	0.00564429
51	0x3c63b7a0	0.01389876
52	0xbd09dd74	-0.03365846
53	0xbcc671ad	-0.024224127
54	0xbca69f4e	-0.020339634
55	0x3cbc7045	0.023002753
56	0xbd0d05ba	-0.03442929
57	0x3ba8ed92	0.0051552737
58	0xbd6c5316	-0.057696424
59	0xbcdac6c1	-0.026706101
60	0xbc61b1ca	-0.013775298
61	0xbd1f21e8	-0.038850695
62	0x3c779af1	0.0151126245
63	0xbbebb7c8	-0.0071935393
64	0x3c5b9cbf	0.01340407
65	0x3c04c723	0.0081041185
66	0xbcbdf88e	-0.02318981
67	0xbb44b2ac	-0.0030013723
68	0x3cfcf8f0	0.030880421
69	0xbcdd2df9	-0.02699946
70	0xbca07e79	-0.019591557
71	0x3c8cf64e	0.017207291
72	0xbc8f85e7	-0.017519904
73	0x3c857112	0.016289268
74	0x3ce64902	0.028110985
75	0xbc24277a	-0.010019178
76	0x3bd3338b	0.0064453534
77	0x3ca81272	0.020516608
78	0xbc06ec02	-0.00823498
79	0xbd2e7d95	-0.042600233
80	0xbc667913	-0.014066952
81	0x3d02f805	0.03197481
82	0x3c1dbdb6	0.00962775
83	0xbc81137f	-0.015756367
84	0xbd1bf76b	-0.038077753
85	0x3bc03e0f	0.005866773
86	0x3c7398ba	0.014867956
87	0xbd2f9f92	-0.042876787
88	0x3c6fa910	0.01462771
89	0x3c01787f	0.007902264
90	0x3cebfa64	0.028805919
91	0x3d42693f	0.04746365
92	0xbcc69e40	-0.024245381
93	0xbc9a72df	-0.018853603
94	0xbb4c997c	-0.0031219414
95	0xbcebb9dd	-0.02877515
96	0x3d5014be	0.05080103
97	0x3d8537ca	0.065047815
98	0x3cf153e9	0.029458957
99	0xbc585a48	-0.0132051185
100	0xbbf6b997	-0.0075294483
101	0x3c0c3c31	0.008559273
102	0xbcf9108e	-0.030403402
103	0x3bcba372	0.0062145526
104	0x3c0f0361	0.008728833
105	0x3b982b22	0.0046438137
106	0x3c399d1c	0.011328962
107	0x3ce967ba	0.028491843
108	0xbc8e4e5c	-0.017371349
109	0x3b3db5f2	0.002894756
110	0x3c9bea74	0.019032694
111	0xbd25623b	-0.040376883
112	0xbaedb1b8	-0.0018134629
113	0xbc700ad7	-0.014651022
114	0xbc4af165	-0.0123866545
115	0xbcb94096	-0.022613805
116	0xbd359621	-0.044332627
117	0xbd18a896	-0.03727015
118	0x3c1797f0	0.009252533
119	0x3be656a7	0.0070293727
120	0x3c65dbb2	0.01402943
121	0xbbbf6deb	-0.0058419607
122	0xbaeda7f9	-0.0018131725
123	0xba3cfcf5	-0.00072093244
124	0xbcc98eb3	-0.024604177
125	0xbb8f764b	-0.0043781153
126	0x3c871e0d	0.016493822
127	0xbcee1458	-0.029062435
128	0xbb89a9aa	-0.0042011337
129	0x3c298941	0.010347665
130	0xbd19f121	-0.037583474
131	0x3c641723	0.013921532
132	0x3b6464a4	0.0034850026
133	0x3cbdd3af	0.023172228
134	0x3d245b2d	0.040126015
135	0x3d0f0155	0.03491338
136	0xbd0bdf22	-0.034148343
137	0x3c35fc76	0.011107555
138	0x3cb8802d	0.022522056
139	0xbcb7a4a3	-0.022417372
140	0xbcb1392c	-0.021633707
141	0xbb603270	-0.003420975
142	0x3d337c9e	0.043820016
143	0x3ad99d44	0.0016602655
144	0x3c887244	0.016656049
145	0xbcddff5a	-0.0270993
146	0x3a413c97	0.00073713943
147	0x3d87a7b5	0.066237845
148	0x3d7bf9b0	0.061517417
149	0xbbd6ea40	-0.0065586865
150	0x3d117c61	0.035519008
151	0xb989199a	-0.0002614975
152	0x3cac2600	0.021014214
153	0x3a01c1b0	0.0004949821
154	0x3d016125	0.031586785
155	0xbcd0c969	-0.025486665
156	0x3c02836e	0.007965906
157	0xbd8917c6	-0.066939875
158	0xbcb479cf	-0.02203074
159	0xbc1a082a	-0.0094013605
160	0x3c56da58	0.013113581
161	0xbd2e380b	-0.042533915
162	0xbd8872ba	-0.06662507
163	0xbc8d30b5	-0.01723514
164	0xbbc3544a	-0.005960976
165	0x3cce8aba	0.025212634
166	0xbd929d90	-0.07158959
167	0xbccc9adc	-0.024976186
168	0x3c76954e	0.015050245
169	0xbb236d7f	-0.002493709
170	0x3bb317d7	0.0054654884
171	0xba3f6f31	-0.00073026406
172	0xbc4fb0a6	-0.012676394
173	0xbd4b55f2	-0.04964251
174	0x3c33bc4c	0.010970186
175	0x3cf25aa3	0.029584235
176	0x3d17e324	0.037081853
177	0xbbee1c09	-0.0072665256
178	0x3ac70954	0.0015185275
179	0xbcf00a5b	-0.029301813
180	0x3d400e1c	0.046888456
181	0x3d12fa70	0.035883367
182	0x3c66d814	0.014089603
183	0x3c7a0438	0.015259795
184	0xbcb888bb	-0.022526136
185	0x3d36f408	0.04466632
186	0x3c533ee9	0.012893417
187	0xbcbab3f4	-0.022790886
188	0xbcc81cd5	-0.02442781
189	0xbc47eea9	-0.012202897
190	0x3c8a3281	0.016869785
191	0x398c63ed	0.0002677733
192	0xbbba2a62	-0.005681322
193	0x3c207cbb	0.009795363
194	0xbc259c12	-0.010108011
195	0x3c89885d	0.016788656
196	0x3d6602e9	0.05615512
197	0x3bafd81a	0.0053663375
198	0x3d5ae281	0.053438667
199	0x3d1567e4	0.03647603
200	0x3bf231fe	0.0073912134
201	0x3ccbb955	0.024868647
202	0xbd06a383	-0.03287078
203	0x3cf3a64d	0.029742384
204	0xbc845a5c	-0.016156368
205	0x3c847fc7	0.01617421
206	0x3ce58c30	0.028020948
207	0xbc9468fd	-0.018116469
208	0x3c2e5e79	0.010642641
209	0xbb57acfe	-0.0032909508
210	0x3c5a9ce1	0.013343067
211	0x3c5aceb6	0.013354948
212	0x3cee0104	0.029053219
213	0x3d17e295	0.03708132
214	0x3caf4f73	0.021400189
215	0x3c7e64a9	0.015526929
216	0x3b140268	0.0022584442
217	0x3d648310	0.055789053
218	0x3c5232ab	0.012829463
219	0x3d14f038	0.036361903
220	0x3cb7189c	0.022350602
221	0xbd3494db	-0.044087272
222	0x3bf6d05f	0.007532164
223	0xbc285890	-0.010275021
224	0x3d0342b1	0.032046024
225	0xbcf8edf1	-0.030386897
226	0xbc6b06c4	-0.014344875
227	0x3c6ae230	0.014336154
228	0x3bf13a74	0.0073617045
229	0xbbcb336d	-0.006201199
230	0xbcb0b7a2	-0.021571938
231	0x3b547a74	0.003242162
232	0xbad75f79	-0.0016431651
233	0x3cb42e5c	0.021994762
234	0x3d027d5a	0.031857826
235	0xbca9bd59	-0.02072017
236	0xbd2a0f2b	-0.04151837
237	0xbcc7db4e	-0.024396565
238	0xbccf72d5	-0.02532331
239	0x3c0d8f11	0.008640067
240	0xbcc3fc89	-0.02392413
241	0x3c6ca720	0.014444143
242	0xba90f997	-0.0011060712
243	0x3d37fac5	0.044916887
244	0x39b7c3c5	0.0003505034
245	0x3c967dd1	0.01837054
246	0x3cb6835f	0.02227944
247	0x3d4cf270	0.050035894
248	0x3b1bdba7	0.0023782046
249	0x3c2e9e51	0.010657863
250	0x3ced20fa	0.028946389
251	0x3c6c898d	0.014437092
252	0x3ba3bcf5	0.0049968907
253	0xbce62697	-0.028094573
254	0x3cae1249	0.021248953
255	0xbc7d2b17	-0.015452168

bias f4 [64]
0	0xbc35bd69	-0.011092522
1	0xbd412265	-0.04715194
2	0xbd882221	-0.066471346
3	0xbc49d441	-0.012318672
4	0xbcb0eaf7	-0.021596415
5	0xbe01b0ad	-0.12665053
6	0xbd8ab3b9	-0.067725606
7	0xbd75a990	-0.05997616
8	0xbc7ea3b9	-0.015541964
9	0xbd57d8c1	-0.052696947
10	0xbd3121d1	-0.04324514
11	0xbd3d1c3e	-0.046169512
12	0xbce9c0c0	-0.028534293
13	0xbc68d2ae	-0.014210386
14	0xbcabdde7	-0.020979835
15	0xbd3c6d16	-0.04600247
16	0x3ab6eb5d	0.0013955642
17	0xbcfe6224	-0.031052656
18	0xbcb26b7f	-0.021779774
19	0xbbc44255	-0.0059893527
20	0xbd0b762a	-0.034048237
21	0xbc2cd334	-0.010548402
22	0xbd8c33a2	-0.06845786
23	0xbd05e115	-0.032685358
24	0xbca789ef	-0.020451514
25	0xbcf07935	-0.029354671
26	0xbc45717d	-0.0120509835
27	0x3ccf360a	0.025294323
28	0xbdaae773	-0.08344927
29	0x3b0f1618	0.0021833237
30	0xbd910ba8	-0.070823014
31	0xbdd534cc	-0.10410461
32	0xbb10f8be	-0.0022120918
33	0xbc5dd2ce	-0.013539029
34	0x3a8db3b3	0.0010811001
35	0xbd5fe3f0	-0.054660738
36	0xbd975dbc	-0.07390925
37	0xbcb18c37	-0.021673305
38	0xbc2d7d29	-0.010588923
39	0xbd1f6a98	-0.038920015
40	0xbc4de9f9	-0.01256799
41	0xbd408fa9	-0.047012005
42	0x3c80c7ee	0.015720334
43	0xbe11bf51	-0.14233138
44	0xbcc485ae	-0.023989525
45	0xbce396b2	-0.027781818
46	0xbd1b2d3c	-0.037884936
47	0xbd5735b1	-0.05254144
48	0x3c4072c6	0.011746114
49	0x3d089b86	0.033351444
50	0xbcf30304	-0.029664524
51	0xbba94975	-0.0051662275
52	0xbd88fa39	-0.06688351
53	0xbcdfc582	-0.027315859
54	0xbc0b37de	-0.0084972065
55	0xbd99a4f9	-0.07502169
56	0xbd58ab10	-0.052897513
57	0x3d1dc4f9	0.038517926
58	0xbd97c3d6	-0.074103996
59	0xbc3d4419	-0.01155188
60	0xbd4fafc5	-0.050704736
61	0xbd8e6f0e	-0.06954776
62	0xbc65a38a	-0.0140160415
63	0xbcbfb142	-0.023399953

weight f4 [64, 1024]
0	0xbcc999c8	-0.024609461
1	0xbbe9dc91	-0.0071368893
2	0xbc846527	-0.016161514
3	0xbd02e6db	-0.031958442
4	0xbc3df0d2	-0.011593061
5	0x3ca03882	0.019558195
6	0x3c318537	0.010834984
7	0x3cc64f9c	0.024207883
8	0x3c8a222c	0.016861998
9	0x3bb3a3a6	0.005482155
10	0x3c64044c	0.01391704
11	0xbc6e54fe	-0.014546631
12	0xbc48d701	-0.012258292
13	0x3d21a17e	0.03946065
14	0x3d0c0c81	0.034191612
15	0x3b9276f5	0.004469747
16	0xbc3fa351	-0.0116966525
17	0x3ca89f9d	0.020583922
18	0x3d0d4edb	0.03449903
19	0xbd2e3e9c	-0.042540178
20	0x3c30e6a6	0.010797178
21	0x3ba709ba	0.005097595
22	0x3cc2804d	0.02374282
23	0x3b2fb9d6	0.0026813648
24	0x3adcd7b2	0.001684895
25	0x3c4217de	0.011846511
26	0x3c189507	0.009312875
27	0xba64b100	-0.0008723885
28	0xbbbd8f26	-0.005784887
29	0xbd1f88a7	-0.03894868
30	0x3cd7d6f8	0.026347622
31	0xbc009e18	-0.0078501925
32	0x3c96ee71	0.018424245
33	0xbd34f911	-0.04418284
34	0xbc91c564	-0.017794318
35	0x3d38d0b8	0.045120925
36	0xbaf847b5	-0.0018942269
37	0xbbef86d3	-0.0073097735
38	0xbce32482	-0.02772737
39	0x3b983842	0.0046453783
40	0x3bfc2d64	0.0076958407
41	0x3d145d3f	0.03622174
42	0xbcf1cb4e	-0.029515889
43	0x3cb8de0d	0.02256682
44	0x3b1b41bf	0.002369031
45	0xbc62d750	-0.01384528
46	0x3ce4590c	0.027874492
47	0x3d2b5c43	0.041836035
48	0xbd2fbd44	-0.042905107
49	0x3ceb07b0	0.02869019
50	0xbd0b1b76	-0.033961736
51	0xbd201532	-0.039082713
52	0xbd2bcc3f	-0.04194283
53	0x3d2cad6e	0.042157583
54	0xbce7c546	-0.02829231
55	0x3c3e2478	0.0116053745
56	0x3b2c897a	0.002632706
57	0x3bfde9b0	0.007748805
58	0x3b30ce35	0.0026978378
59	0xbaf1ddde	-0.0018452962
60	0xbc81d656	-0.015849274
61	0x3d079c10	0.033107817
62	0xbce6d3dd	-0.028177196
63	0xbc824884	-0.015903719
64	0xbb140e62	-0.002259158
65	0x3a91a9fa	0.0011113279
66	0xbd5b8d9e	-0.053601854
67	0xbc919164	-0.017769523
68	0x3d2f0856	0.04273256
69	0xbca57510	-0.020197421
70	0xb957e456	-0.0002058906
71	0x3cd7b8ae	0.02633318
72	0xbc15d86a	-0.009145835
73	0xb90a3196	-0.00013179178
74	0x3c6baac9	0.01438398
75	0x3bae42ce	0.0053180223
76	0xbcfe6f4a	-0.031058926
77	0xbb576a9f	-0.0032869948
78	0xbc360a76	-0.0111108925
79	0x3d2f75a6	0.042836808
80	0xbc1dec89	-0.009638914
81	0x3c3ebc22	0.011641534
82	0xbc02755c	-0.007962551
83	0x3c8c57df	0.017131744
84	0xbb9e1bce	-0.004825092
85	0xbc21bc27	-0.009871519
86	0x3bf6835e	0.0075229844
87	0xbc61f4c0	-0.013791263
88	0xbca8a5a8	-0.020586804
89	0xbb6fbce5	-0.0036581096
90	0xbc1b1914	-0.009466428
91	0x3ac48895	0.0014994318
92	0x3d1f43f0	0.03888315
93	0x3c80c83f	0.015720485
94	0xbba8f1d2	-0.0051557804
95	0x3b5e72ee	0.0033943015
96	0x3ca4a3e0	0.020097673
97	0x3bc18311	0.005905517
98	0xbcd6ebb1	-0.026235433
99	0xbb24e747	-0.0025162266
100	0xbc42be5b	-0.011886205
101	0xbcb73810	-0.0223656
102	0x3c9f8330	0.019471735
103	0x3c4823ac	0.012215536
104	0x3ba7a8be	0.005116551
105	0x3c622f5b	0.013805236
106	0xbcc44bec	-0.023961984
107	0x39e2c525	0.00043252963
108	0x3ac8e775	0.0015327769
109	0xbc9b222f	-0.018937198
110	0x3b6afed4	0.0035857456
111	0xbce167f9	-0.027515398
112	0xbc435a0d	-0.011923325
113	0x3c6ee542	0.0145810265
114	0xbcfba96d	-0.030720437
115	0xbc40ebe2	-0.011774989
116	0x3cbe2bc2	0.023214225
117	0xbc6f9932	-0.014623927
118	0xbce2fd19	-0.027708577
119	0xbcecdd40	-0.028914094
120	0x3cd18463	0.025575822
121	0xbc109a58	-0.008825861
122	0x3ca6d32a	0.020364363
123	0x3cd47e2e	0.025939073
124	0x3d17e7cf	0.037086304
125	0x3b9ef49e	0.004850938
126	0x3d3a05f2	0.045415826
127	0x3c15f0ff	0.009151696
128	0x3cb8b0bd	0.022545213
129	0x3cff1357	0.031137152
130	0x3c9817c1	0.018566014
131	0xbb7fe68d	-0.003904733
132	0x3d0052ea	0.031329073
133	0x3caccac2	0.021092776
134	0xbc5f6cd9	-0.013636791
135	0xbc9836fa	-0.018580902
136	0x3c646112	0.013939159
137	0x3cb91727	0.022594048
138	0x3cef683d	0.02922451
139	0x3d16a45e	0.036777847
140	0xbcb574ef	-0.022150485
141	0x3c824c65	0.015905568
142	0x3cb29b44	0.021802552
143	0x3c16d29d	0.009205488
144	0x3c1270fc	0.00893807
145	0xbcc16dd6	-0.023611944
146	0xbd065370	-0.032794416
147	0xbcba2e33	-0.022727108
148	0xbca17ca3	-0.019712752
149	0xbc6e1080	-0.014530301
150	0xbb97c301	-0.0046314006
151	0xbcd0133a	-0.025399793
152	0xbc9c943e	-0.019113656
153	0x3c3f43c7	0.011673874
154	0xbd433b2e	-0.04766386
155	0xbbd95c53	-0.0066333204
156	0x3c9f0b1e	0.01941448
157	0x3cbdccf2	0.023169015
158	0x3c4bb7b8	0.012433939
159	0xbcc8efa2	-0.024528328
160	0x3c36ae20	0.011149913
161	0xbcb4f275	-0.022088269
162	0x3d1939ad	0.03740852
163	0xbccf0d9a	-0.02527504
164	0xbd14dbdb	-0.036342483
165	0x3c0c5840	0.008565962
166	0x3d1afc04	0.037837997
167	0xba0f101a	-0.00054574164
168	0x3cc3cf23	0.023902481
169	0x3c83d5b5	0.016093114
170	0x3b8872e0	0.004164085
171	0x3d2777f8	0.040885895
172	0x3d039976	0.032128774
173	0x3c374c1a	0.011187578
174	0x3cf8bab4	0.030362464
175	0xbb8cbcdc	-0.0042949747
176	0xbcbe0003	-0.023193365
177	0xbbe071ac	-0.0068494882
178	0xbc8886a2	-0.01666576
179	0x3c037598	0.008023642
180	0x3c9b8914	0.018986262
181	0x3c41ca35	0.011827995
182	0xbd41a7d6	-0.0472792
183	0xbd554edd	-0.052077163
184	0x3d2b42d4	0.04181178
185	0xbc712aab	-0.0147196455
186	0x3d44fb45	0.04809119
187	0x3d190f52	0.037368126
188	0x3ce9a027	0.02851875
189	0xbc4633a4	-0.012097273
190	0x3d150439	0.03638098
191	0xbbd0f27a	-0.0063765617
192	0x3c74e06b	0.014946084
193	0x3c004d82	0.007830979
194	0x39bbb5b8	0.0003580281
195	0xbc730cdd	-0.01483461
196	0x3b4183d7	0.0029528046
197	0x3bde31fe	0.006780862
198	0xbce45dcb	-0.027876755
199	0xba4125ea	-0.00073680154
200	0x3c1557eb	0.0091152
201	0x3c3662a4	0.011131916
202	0x3c81ab61	0.01582879
203	0x3d355a28	0.044275433
204	0x3c5ab4ce	0.013348771
205	0xbbc7c636	-0.0060966266
206	0x3d1dd11d	0.038529504
207	0x3cadd7f6	0.021221142
208	0xbaf63d0f	-0.0018786507
209	0x3cf2969d	0.029612834
210	0x3c499aa7	0.012304938
211	0x3d1320bf	0.0359199
212	0x3c38c1dd	0.011276689
213	0x3cbe2519	0.023211049
214	0xb7a0b73f	-1.9158817e-05
215	0xbc9a4cf9	-0.018835532
216	0x3cc1d7db	0.023662498
217	0xbbf036e8	-0.007330764
218	0x3cea76b2	0.028621051
219	0xbb06b364	-0.0020553702
220	0xba3543d6	-0.00069147104
221	0x3c873b66	0.016507816
222	0x3c446048	0.011985846
223	0xba44290c	-0.0007482923
224	0x3ca49904	0.020092495
225	0xbafc4d1f	-0.0019249058
226	0xbb47bc66	-0.0030477284
227	0x3c10894c	0.008821797
228	0xbcc40290	-0.023927003
229	0xbd1e2ec3	-0.038618814
230	0x3c28b8ea	0.010297993
231	0xbcaee2dc	-0.02134841
232	0x3d0a730d	0.033801127
233	0x3c509c7c	0.012732621
234	0xbc19e7fe	-0.00939369
235	0x3c4bc3b5	0.012436797
236	0xbb15aff9	-0.0022840484
237	0x3d29a4ab	0.041416805
238	0x3d0a09d6	0.033700787
239	0x3cfa2508	0.030535236
240	0x3d0e92c6	0.034807943
241	0xbc67ec6c	-0.014155488
242	0x3cdd137d	0.026986832
243	0x3c988c87	0.018621696
244	0x3b587436	0.0033028251
245	0x3c93d708	0.01804687
246	0x3bb173fa	0.005415437
247	0x3cf3a579	0.02974199
248	0xbd3459f6	-0.044031106
249	0xbc9d875d	-0.019229585
250	0xbc6dacfb	-0.014506574
251	0xbcc3f54a	-0.023920674
252	0x3ca3e714	0.020007648
253	0x3c4a94a7	0.012364543
254	0x3d091e58	0.033476204
255	0x3b3b8e90	0.002861891

bias f4 [64]
0	0xbc493b21	-0.012282164
1	0x3c899236	0.016793352
2	0x3d848203	0.0647011
3	0xbc6bcc91	-0.014392034
4	0xbd039ddb	-0.032132965
5	0xbc10d905	-0.008840804
6	0xbd691dee	-0.05691331
7	0xbd20a255	-0.039217312
8	0xbd246665	-0.040136714
9	0x3bbe9e61	0.00581722
10	0xbc30c6b7	-0.010789565
11	0x3b1f9358	0.0024349298
12	0xbd22dce1	-0.039761428
13	0x3cd7cafb	0.026341906
14	0x3c61ac86	0.013774043
15	0xbcbe6073	-0.02323935
16	0xbd272397	-0.040805425
17	0xbc5478af	-0.012968226
18	0xbbbd4b87	-0.005776826
19	0xbba2651f	-0.004955902
20	0x3d2bf01f	0.041977044
21	0x3cdc0c82	0.026861433
22	0x3ca58475	0.020204762
23	0x3d4374c4	0.04771878
24	0xbc1af3f3	-0.009457576
25	0xbd0f5282	-0.034990795
26	0x3d4f718d	0.0506454
27	0x3c487cf7	0.012236825
28	0x3c926b85	0.017873535
29	0x3b0eca54	0.0021788077
30	0x3c7745d3	0.015092331
31	0xbc2d0836	-0.01056104
32	0xbbfc3692	-0.007696935
33	0xbc2b0716	-0.010438701
34	0xbbca050f	-0.006165154
35	0x3ca0ecd0	0.019644171
36	0x3bb04f28	0.00538053
37	0xbc6d2b15	-0.014475604
38	0xbc032df5	-0.0080065625
39	0xbd1cbb6b	-0.038264673
40	0x3d4b3043	0.049606573
41	0xbc85f1e2	-0.01635069
42	0x3b2996a8	0.0025877152
43	0xbd2a9162	-0.041642554
44	0xbd250a70	-0.040293157
45	0x3d43ecde	0.047833316
46	0x3bf5b7d7	0.007498722
47	0x3d2e873e	0.042609446
48	0x3bee4b8f	0.007272191
49	0x3b028c7c	0.001992016
50	0xbcb00ca0	-0.021490395
51	0xbb8e7e00	-0.0043485165
52	0x3cd62cff	0.026144503
53	0x3caf77cf	0.021419434
54	0xbc882a1c	-0.016621642
55	0xbc285a68	-0.010275461
56	0xbd257281	-0.040392403
57	0xbccf6d2a	-0.025320608
58	0xbd6dee08	-0.058088332
59	0xbc4b7100	-0.012417078
60	0x3cc7d6a4	0.02439434
61	0x3ca3b738	0.019984826
62	0xbc405941	-0.01174003
63	0x3c96c49e	0.018404301

weight f4 [10, 64]
0	0x3e40adf8	0.18816364
1	0x3def194c	0.11674747
2	0xbe29ea7b	-0.16593353
3	0x3b61768e	0.003440294
4	0xbde76d09	-0.11300094
5	0xbcb9d34d	-0.022683764
6	0x3c8f6f7d	0.017509216
7	0xbd440976	-0.047860585
8	0xbe523183	-0.205267
9	0x3ca8e4c4	0.020616896
10	0xbcae97c8	-0.02131261
11	0x3e87a6d6	0.26494473
12	0x3e2f3c98	0.17112958
13	0xbe8fee52	-0.2811151
14	0xbe0a6fc4	-0.13519198
15	0x3d004cb7	0.03132316
16	0xbe2e57dc	-0.17025703
17	0x3e3afabb	0.18259709
18	0x3e19ac33	0.15007095
19	0xbd49d4d9	-0.049275253
20	0x3e2d91a6	0.16950092
21	0xba6df27f	-0.0009076967
22	0x3e84e99f	0.2595949
23	0xbe277ca7	-0.16356145
24	0xbd8ba32b	-0.06818231
25	0x3dd963da	0.10614748
26	0x3d70f346	0.058825754
27	0xbd8b4445	-0.06800131
28	0x3d81429e	0.06311534
29	0x3c938705	0.018008718
30	0x3c4bfe39	0.012450748
31	0xbe7b90c2	-0.2456694
32	0x3e55fbe9	0.20896877
33	0x3da83797	0.08213728
34	0xbc44238d	-0.011971367
35	0xbcf13aea	-0.029447038
36	0xbe829c84	-0.25510037
37	0xbd45ddf1	-0.048307363
38	0x3dbc4050	0.09191954
39	0x3de2c41c	0.11072561
40	0xbda651dc	-0.08121082
41	0x3d7c7213	0.061632227
42	0x3c4c63a3	0.012474927
43	0x3deab03d	0.11459396
44	0x3d82a795	0.0637962
45	0xbdc98e83	-0.09841635
46	0x3dc4d36c	0.09610638
47	0x3c8cbd77	0.017180188
48	0xbe1009d1	-0.14066245
49	0xbd6f8bf5	-0.058483083
50	0x3d1de06a	0.038544096
51	0xbdad0cfd	-0.08449743
52	0x3d566485	0.052341957
53	0xbe67c2ca	-0.226329
54	0x3db833f2	0.08994283
55	0x3e7bd505	0.24592979
56	0x3e070e26	0.13188991
57	0x3d9883f1	0.07447041
58	0x3e7e047c	0.24806398
59	0x3da3e499	0.08002586
60	0xbe217a43	-0.15769295
61	0xbdcf4eca	-0.1012245
62	0x3e374ad3	0.17899637
63	0xbe868690	-0.26274538
64	0x3dd9fabc	0.10643527
65	0xbe68344c	-0.226762
66	0x3e525719	0.20541038
67	0xbe61743e	-0.22016999
68	0xbe077150	-0.13226819
69	0x3e068792	0.13137653
70	0x3d819e83	0.06329062
71	0x3e65f02e	0.22454903
72	0x3e872297	0.26393577
73	0x3e3f3e74	0.18676168
74	0xbd6da3f5	-0.05801769
75	0x3d5ce13c	0.053925738
76	0xbe2f524b	-0.17121236
77	0x3e77fb0c	0.2421686
78	0x3c3822da	0.011238778
79	0x3c1d8568	0.009614326
80	0x3e144a3f	0.14481448
81	0x3e1fb30a	0.15595642
82	0x3e260b39	0.16215219
83	0x3e01ef84	0.12689024
84	0x3e24683d	0.16055389
85	0xbe3a9600	-0.18221283
86	0x3de8d7cd	0.11369286
87	0xbc97b40b	-0.018518468
88	0xbe7e352c	-0.24824971
89	0x3e69a663	0.22817378
90	0xbc90d917	-0.017681642
91	0xb913db00	-0.00014100596
92	0xbd598c2f	-0.053112205
93	0xbe71d0c3	-0.23614793
94	0x3e9ed3e5	0.31021038
95	0xbe35afb2	-0.17742804
96	0x3d6dc432	0.058048435
97	0x3e266a28	0.16251433
98	0xbe5356d7	-0.20638596
99	0x3e08350e	0.13301489
100	0x3eb021b4	0.34400713
101	0xbd83ba47	-0.06432014
102	0x3e30b317	0.17255817
103	0x3e32b2c3	0.17451005
104	0xbdd73fd7	-0.10510223
105	0x3c6c4b4d	0.01442225
106	0xbea2a047	-0.31762907
107	0xbe676734	-0.22597963
108	0x3ca4d9f5	0.020123461
109	0x3de9016a	0.11377223
110	0xbcf11202	-0.029427532
111	0xbc7ce202	-0.015434744
112	0xbe8c4ece	-0.27403873
113	0x3a8a081a	0.0010530979
114	0xbe8b1cdc	-0.27170455
115	0xbd8e9ca7	-0.06963473
116	0x3e48a87a	0.19595519
117	0x3d35cdbd	0.04438566
118	0xbe602766	-0.2189003
119	0x3e1deed8	0.15423143
120	0x3dc174c8	0.094461024
121	0x3d636c60	0.055523276
122	0xbd5059ee	-0.050867014
123	0xbe3af104	-0.18256003
124	0x3e474b7e	0.19462392
125	0xbe13e218	-0.14441717
126	0x3d3285c6	0.043584608
127	0xbc98c564	-0.01864881
128	0xbe0eca9c	-0.13944477
129	0xbe56fae2	-0.20994142
130	0xbcc63ce1	-0.024198951
131	0x3e194d10	0.14970803
132	0x3e15c180	0.14624596
133	0x3dc4617f	0.095889084
134	0xbe66418c	-0.22485942
135	0xbdc6a6f1	-0.0969981
136	0x3cba79cb	0.022763154
137	0x3d740010	0.059570372
138	0xbdd69f41	-0.10479594
139	0x3e6a80c3	0.22900681
140	0x3e43ecfb	0.1913337
141	0xbe411a94	-0.18857795
142	0x3da9d238	0.08292049
143	0xbe301cad	-0.17198439
144	0x3dc84a8a	0.09779842
145	0xbe86928e	-0.26283687
146	0xbe0d920c	-0.13825244
147	0xbbe301d2	-0.006927707
148	0xbe3dc3c9	-0.18531717
149	0xbdd02e43	-0.10165074
150	0x3cd690d7	0.026192112
151	0xbe0af96c	-0.1357171
152	0x3d48c826	0.049019
153	0xbe60fe77	-0.2197207
154	0xbcbcbe4c	-0.02303996
155	0x3deb6d6e	0.114954814
156	0xbdb40a52	-0.08791031
157	0x3e52d860	0.20590353
158	0xbe8ea1bb	-0.27857766
159	0xbced3acc	-0.0289587
160	0xbe483753	-0.19552355
161	0x3b0d020e	0.0021516117
162	0x3d9b38b8	0.075791776
163	0x3e1c535a	0.15266171
164	0xbe7312ff	-0.23737715
165	0xbe588f22	-0.21148351
166	0xbda10f40	-0.07864237
167	0xbe973872	-0.29535252
168	0xbdbf931f	-0.09354233
169	0xbe209a17	-0.1568378
170	0xbc5e291a	-0.013559604
171	0xbcc27ece	-0.023742106
172	0xbdde5473	-0.10855951
173	0xbdaa56e0	-0.08317351
174	0x3e15663b	0.14589779
175	0xbd54dda0	-0.05196917
176	0xbd9648e3	-0.07338121
177	0xbd8b1471	-0.06791008
178	0x3cc8fccc	0.024534605
179	0x3e265fa9	0.16247429
180	0xbe4331a7	-0.1906191
181	0xbe24a97e	-0.16080281
182	0x3e01e0e4	0.12683445
183	0x3e68393a	0.2267808
184	0xbe084382	-0.13307002
185	0x3d1bddb8	0.038053244
186	0x3dbf28d6	0.09333961
187	0xbdd5103f	-0.10403489
188	0x3d6cc0d1	0.05780107
189	0x3cabd4a5	0.02097542
190	0xbdbc9c67	-0.09209519
191	0xbe338b7d	-0.1753368
192	0xbccb5669	-0.024821477
193	0xbd4ed53c	-0.050496325
194	0x3d0bdf88	0.034148723
195	0x3d815c24	0.063164026
196	0x3db46070	0.088074565
197	0x3b8e3b01	0.00434053
198	0x3bf2ce09	0.007409815
199	0xbe1970db	-0.14984457
200	0x3c0b630a	0.0085074995
201	0x3d47167a	0.04860542
202	0x3e130618	0.14357793
203	0xbe2d6226	-0.16931972
204	0x3e26a7f2	0.16275004
205	0x3e510ecc	0.20415801
206	0x3dbd91c6	0.0925632
207	0x3d70906e	0.05873149
208	0xbda1be69	-0.07897646
209	0xbe38d10c	-0.18048495
210	0x3df23a38	0.118275106
211	0x3dd12232	0.102116
212	0x3c826b1a	0.01592021
213	0x3df67d5d	0.1203563
214	0xbdff1a22	-0.12456156
215	0x3cdd402c	0.027008139
216	0x3e1406c6	0.14455709
217	0xbd1c1479	-0.03810546
218	0xbd2d1ec0	-0.042265654
219	0xbd94e8ce	-0.072709665
220	0x3e380953	0.17972307
221	0x3e0c4e13	0.13701658
222	0x3dd60704	0.10450557
223	0xbe0f1ea7	-0.13976537
224	0xbe0ca0b6	-0.13733181
225	0xbe2ab99b	-0.16672365
226	0x3db582d5	0.08862845
227	0xbcd2eff1	-0.025749179
228	0x3c4f8d93	0.012668031
229	0xbe30ec45	-0.1727763
230	0x3e09bad5	0.13450177
231	0x3d3ad5cc	0.04561405
232	0xbddbecfb	-0.1073856
233	0x3dceab8d	0.100913145
234	0x3e772fc3	0.24139313
235	0xbdfcfd6d	-0.12353025
236	0xbe22eb2f	-0.15910028
237	0xbd6877f7	-0.056755032
238	0xbe0e78fb	-0.13913338
239	0xbbc6d784	-0.006068172
240	0x3dc67b9a	0.09691544
241	0x3db628e4	0.08894518
242	0x3dda6336	0.10663454
243	0x3d86bc36	0.06578867
244	0xbd8e7a9c	-0.0695698
245	0x3e7f4aa8	0.24930823
246	0xbd493ca1	-0.049130086
247	0xbc9ce719	-0.019153165
248	0x3e167a85	0.14695175
249	0x3dbd235b	0.09235259
250	0xbb13b6c1	-0.002253935
251	0x3dd7e391	0.10541452
252	0xbce8fa7e	-0.028439756
253	0x3d47c2e6	0.048769854
254	0x3e339e1b	0.17540781
255	0xbe042cef	-0.12907766

bias f4 [10]
0	0xbe4b35d4	-0.19844753
1	0xbd6bc317	-0.0575591
2	0x3c1954bb	0.00935858
3	0x3d78e949	0.060769353
4	0x3e333388	0.17500126
5	0xbb9953c5	-0.0046791756
6	0x3df894ee	0.12137781
7	0xbc9aa434	-0.018877126
8	0xbde4f2bc	-0.111791104
9	0xbd05fe00	-0.032712936
