study19/tuidui1.pth (torch, 587527 bytes, 10 tensors)

weight f4 [32, 3, 5, 5]
000000 12 d5 cb bd f9 7f bd 3d db f5 c0 3d 28 26 2c bd
       -0.09952749 0.092529245 0.09421893 -0.042028576
000010 44 e1 ab 3c 75 4c 3e bc 13 bd 8c bd 9c 0c d6 bc
       0.020981438 -0.011614908 -0.068720005 -0.02612906
000020 63 39 b9 bd 6c 2a db 3d ca 8d 9a 3d b4 79 82 3d
       -0.09044149 0.10701451 0.07546575 0.06370869
000030 92 a1 b4 3d 41 27 c5 3d de 84 ed 3c 28 f5 88 bd
       0.088198796 0.09626628 0.02899402 -0.06687385
000040 1b b4 c1 bd 6f 96 14 bd c3 dc 90 bc e6 c8 ca bd
       -0.094581805 -0.036276277 -0.017683392 -0.099015996
000050 bf 97 ea 3d 2b 41 36 bd ab a3 a7 3d e1 42 b7 bd
       0.114547245 -0.044495743 0.08185514 -0.08948303
000060 5d ec e3 3d 59 b4 c6 3d bc 34 63 3d 1b 2a 14 bd
       0.11129067 0.09702367 0.055470213 -0.036172967
000070 c7 d5 5a 3d 72 dc 7b bd 21 39 c1 bd d7 d7 c9 bc
       0.05342653 -0.06148953 -0.094347246 -0.024639053
000080 67 10 71 bc 55 01 5c bc 34 f0 53 bd da c6 da bd
       -0.014713383 -0.013428052 -0.051742747 -0.10682459
000090 90 d9 78 3d f8 43 d1 bd c7 35 bd bd 25 72 8a bd
       0.06075436 -0.10218042 -0.09238773 -0.067600526
0000a0 ba f2 04 3c 6a fc c6 3d 0b 2f d3 3d ed 34 8e 3b
       0.008114511 0.09716113 0.10311707 0.0043398053
0000b0 6f ac f7 bc c6 a6 78 bc a1 dc b3 3d bd 04 bf bd
       -0.03023359 -0.015176481 0.08782316 -0.09327076
0000c0 9a 02 5d 3d 83 3e 21 3c 7c 13 e3 bd 54 62 bb bd
       0.05395756 0.009841564 -0.11087701 -0.09149614
0000d0 7b 82 d9 3c 84 55 fe 3c 80 b7 75 bd 69 28 aa bc
       0.026551476 0.031046636 -0.059989452 -0.020771222
0000e0 60 7f 70 bd 26 64 13 bb 77 79 ba bd 43 e7 9b 3d
       -0.058715224 -0.0022490113 -0.09105199 0.07612469
0000f0 91 74 12 bd a2 bd 3a 3d 0c ec 88 3d ab 6f bc 3d
       -0.035755698 0.045591004 0.06685647 0.092009865
000100 95 5f 9c 3c 58 3c c6 3c e2 b6 50 3d b6 07 ba bd
       0.019088546 0.024198696 0.05095566 -0.09083502
000110 2c 78 56 3d ac 4b 8a 3d 6f 56 91 3d 76 4b ca 3d
       0.0523607 0.067527145 0.07096564 0.09877674
000120 e4 b8 47 3d 2b 5f 4a 3d 4b 18 e9 3d 64 c1 5e bc
       0.04876031 0.049407165 0.11381587 -0.013595913
000130 9f 87 d2 3d 71 90 45 bd 57 5d dc 3c ca 66 3b bd
       0.10279774 -0.048233453 0.026899977 -0.045752324
000140 60 4c 95 3d a2 70 ea 3c 4c c8 70 bd dc 90 a7 bd
       0.07289958 0.02861816 -0.058784768 -0.081819266
000150 fd 66 b7 3d 39 dc a8 bd d7 88 e4 bd 19 59 1a 3a
       0.0895519 -0.08245129 -0.11158913 0.00058879104
000160 77 cf 98 3d 22 aa 25 3d fe 77 b5 3d f4 be 20 bd
       0.07461446 0.040445454 0.08860777 -0.039244607
000170 5f 8e 7d bd 2f 78 82 3d 22 0d a1 bd 74 bc 0f 3d
       -0.061903354 0.063705795 -0.07863833 0.035091832
000180 cf cb 6b 3d b7 3e 42 bd ec 66 e2 bd 4d 04 d1 3d
       0.057567414 -0.04742309 -0.11054787 0.102058984
000190 aa e2 9a bd 79 bd ba 3d 78 e6 a7 bd 35 01 dd 3d
       -0.07562764 0.0911817 -0.08198255 0.10791246
0001a0 72 ad d7 3d 48 1d c8 3d 8f 69 4b 3c 10 30 54 bd
       0.10531129 0.0977121 0.012415304 -0.05180365
0001b0 17 da 6f 3d b8 42 c2 bd 8f b3 48 3d 3c f7 b8 3d
       0.058557596 -0.09485382 0.048999365 0.09031531
0001c0 74 67 cb bd 03 8d 4b 3d 58 89 1a 3b 0c 0a e9 3d
       -0.099318415 0.049695026 0.0023580398 0.113788694
0001d0 ab 65 c9 3d 73 c6 af 3d 42 cd c2 bd 01 6a 07 bd
       0.09833845 0.08582773 -0.09511806 -0.033060078
0001e0 ad 2a b6 3d 1a fc 82 bd 79 c9 0d 3d d7 f5 39 3d
       0.088948585 -0.06395741 0.034615967 0.045400467
0001f0 c5 dd e9 3d 3c 4a 9e 3d 7d 6e 9f bd f6 8c c6 bd
       0.11419252 0.07729003 -0.07784746 -0.09694855
000200 c4 75 82 bd b0 4c cc 3c 32 6b ce 3d 20 2d b4 bd
       -0.06370118 0.024938911 0.1007904 -0.087976694
000210 6f 6b f1 38 aa 81 6c bc 41 25 2a 3d 07 a5 ec 3d
       0.000115117866 -0.014435211 0.041539434 0.11554914
000220 14 9d 14 3d 84 25 cd 3d 28 4a bc 3d af 3d 4c 3d
       0.036282614 0.10016921 0.09193832 0.049863514
000230 7e 64 76 bd 84 60 ed 3d b4 be 08 3d f1 00 39 bd
       -0.06015443 0.115906745 0.033384994 -0.045166913
000240 f0 3e 8f bd 0f 65 93 bd ec 6c b2 bd de b0 e1 bd
       -0.06994426 -0.0719701 -0.087121814 -0.11020063
000250 f8 ae e9 3d 45 aa 4d 3c 0c 7b ad bd a8 9e d7 bb
       0.11410326 0.012552802 -0.08470735 -0.0065801926
000260 37 1d 44 bc fc 8d 10 bd c6 0d 24 bc b2 57 e0 bd
       -0.011969856 -0.035291657 -0.0100130495 -0.109542266
000270 24 08 d9 bd f6 ed 8e 3d a3 d4 46 3b b8 18 db 3d
       -0.10597256 0.06978981 0.0030339144 0.10698074
000280 32 4f a2 3d d8 5a e4 3d 26 09 3b bd 15 78 c8 3d
       0.079252616 0.111501396 -0.04566302 0.09788529
000290 74 c0 d2 bd 9b b5 94 bd 84 be 52 3c 8d a2 55 bd
       -0.10290614 -0.07261201 0.012862805 -0.052156974
0002a0 f1 ae 80 bb 62 de b7 3c ae 12 55 3d 9b e1 76 bd
       -0.0039271046 0.022444908 0.052019767 -0.060273748
0002b0 ad 8c 5c bd ac 6a 86 3d 1e 4e be 3d 61 4e 98 3d
       -0.053845096 0.06563315 0.092922434 0.074368246
0002c0 76 3e 6e bd 47 a1 29 3d 8d 23 ca bd 3c d4 bd 3d
       -0.058165036 0.04141357 -0.09870062 0.09268996
0002d0 dc b9 d3 3d c2 85 61 bd 87 cc 7e bd 66 77 0a 3d
       0.10338184 -0.055059202 -0.06220677 0.033805273
0002e0 0b 18 52 3d e6 df f1 bc 8a 95 91 bc 4f 4a 0e bc
       0.05129246 -0.029525708 -0.017771501 -0.008684709
0002f0 5d 84 7d 3d 28 38 bc bd 1d c6 82 bd 44 e6 94 bb
       0.06189381 -0.091903985 -0.06385443 -0.0045440514
000300 cd df e5 bd f8 2a f6 bd c7 5e 9a 3d 0a f2 84 bc
       -0.11224327 -0.120199144 0.075376086 -0.016228694
000310 c5 ec c3 3d fc ca bd bd 1c 64 50 3d ce b6 b4 bd
       0.095666446 -0.09267232 0.05087672 -0.0882393
000320 bb 0a a6 bb 25 12 9d 3d cf 17 97 bd 3f da 41 3d
       -0.005067197 0.076694764 -0.07377588 0.047327276
000330 6f f2 4c bd 0f fd 08 3b 3e d3 55 3d ca 16 aa bb
       -0.05003589 0.0020902788 0.05220341 -0.005190705
000340 b9 d7 37 bd e3 ca a6 bd 95 a8 d2 bd f1 62 dd bd
       -0.044883464 -0.08144166 -0.10286061 -0.10809887
000350 b8 ab 3e bd f4 15 f7 bd 8e b4 b0 bd 9e b3 3b bd
       -0.046550483 -0.12064734 -0.08628188 -0.045825593
000360 1c cb d5 bd a4 3e cb 3b 94 2f 65 bd f5 21 76 3d
       -0.10439131 0.0062025357 -0.055953577 0.060090978
000370 b0 5c aa 3d 24 87 d5 3d 75 3f 51 3d e5 96 82 bd
       0.0831846 0.10426167 0.051085908 -0.06376437
000380 be 83 9f bd a1 d2 cd bd e7 96 df 3d 5b 16 11 bd
       -0.077888 -0.1004994 0.10917454 -0.03542171
000390 be 73 52 bd 8c 2b f1 3c 75 60 5b 3c ae 64 f9 3d
       -0.05137991 0.02943971 0.013389696 0.12177406
0003a0 e6 ef c4 3d 57 5c 81 3d c5 6f f3 bc 30 de 87 bd
       0.096160695 0.063164406 -0.029716382 -0.06634176
0003b0 4c 80 21 3d 4c 10 d7 bb a7 0c ce bd ce c6 a9 bd
       0.039428994 -0.006563222 -0.10061007 -0.08289872
0003c0 59 c1 c8 3d 55 91 b9 bc 0a ba 4c bc 27 55 db 3d
       0.09802503 -0.022652308 -0.012495527 0.10709601
0003d0 ce cd 25 bd b9 ed 83 3c 42 26 ba bb 3f 42 d0 3d
       -0.040479474 0.016104566 -0.00568083 0.101688854
0003e0 8c 14 00 bd 5c 5c 07 3d 89 af 8d 3d 74 b2 19 3d
       -0.031269595 0.033047065 0.06918246 0.0375237
0003f0 63 d4 ad 3d e5 41 ce bd 99 eb 98 bc 26 a7 0d bd
       0.08487775 -0.10071162 -0.01866703 -0.034583233

bias f4 [32]
000000 29 3e 8c bd f8 6a ca bd d5 01 a9 bd f5 1d 3e bc
       -0.068477936 -0.09883684 -0.082523026 -0.011603822
000010 a1 7c f3 3d 30 f9 bf bd 45 81 e2 3b 3d 62 e4 3d
       0.118890055 -0.093737006 0.006912383 0.1115155
000020 89 65 40 bd 6d a4 c1 bd 89 03 26 bd b7 53 23 3d
       -0.04697183 -0.0945519 -0.040530715 0.03987476
000030 cc 45 8e 3d b4 86 64 bc 85 6a 51 3d a5 b2 01 bd
       0.069469064 -0.013948131 0.051126976 -0.03166451
000040 98 fb f8 3d bb 1a 4d 3d 7e 06 ba bd 84 eb 2d bd
       0.12157363 0.05007432 -0.090832695 -0.042460933
000050 7e ad ab bd 7f 3d d4 3d a9 09 d1 3d df 7e eb 3c
       -0.083827004 0.10363292 0.10206921 0.02874702
000060 64 61 9e 3c 1d a7 b2 bd 8d 3c be 3d 89 40 a6 bd
       0.019333549 -0.087232806 0.09288893 -0.08117778
000070 f2 5d 7e b6 7c 56 be 3d 04 7a e0 bc c2 10 b2 3d
       -3.7903633e-06 0.09293839 -0.027401932 0.086946025

weight f4 [32, 32, 5, 5]
000000 00 3e fa 3c 4e 54 13 3d 31 58 cb 3c b1 5c fa bb
       0.030547142 0.03596907 0.024822326 -0.007640444
000010 fd 43 ab bb 25 73 73 bc 36 1e ae 3c 55 a0 c7 3c
       -0.0052266107 -0.014858996 0.02125464 0.024368444
000020 c8 12 e9 3c 7b 2c 18 3c e0 91 a5 bc d5 68 e7 3b
       0.028451338 0.009287949 -0.02021116 0.0070620575
000030 54 4a a3 bc 7c 9a 7d 3c 2f 88 c7 bc 75 48 ce bc
       -0.019932903 0.0154787265 -0.02435693 -0.025181035
000040 7e 70 b5 3b 59 3e 88 3c e2 7a 6b bb f2 1e e5 3b
       0.0055370918 0.016631292 -0.0035931398 0.0069922144
000050 b8 4b 83 bc ed fe 7b 3b 6a ea d8 3c a5 47 43 3b
       -0.016027316 0.0038451508 0.026478965 0.0029797342
000060 a7 e7 9e 3b fd f9 05 3d de 5d a4 bc a3 2d af 3c
       0.0048493925 0.03270911 -0.02006429 0.021384066
000070 7e b4 a1 bc a1 2f 00 bd d0 88 9c bc 7d 96 bf 3c
       -0.019739386 -0.031295422 -0.019108206 0.023387188
000080 17 55 48 3c d7 6e f3 3c bc 1c 49 3c 59 80 96 bc
       0.012227318 0.029715938 0.012274917 -0.018371748
000090 36 bf 96 bc cf 39 e1 bc c8 8d 92 bc 03 01 a2 39
       -0.018401723 -0.027493386 -0.017889872 0.00030899802
0000a0 dd 05 03 bc 29 f7 b7 bc 7b e2 c3 bc ac 4a e2 bb
       -0.007997003 -0.022456722 -0.023911705 -0.0069058742
0000b0 7e 9c a1 bc 08 87 f3 bc 9c 43 0b bc c4 88 d1 bc
       -0.019727942 -0.029727474 -0.008500006 -0.02557791
0000c0 6d 27 c8 bc 95 03 e5 3c 1c 1e 30 3b 63 ab f3 bc
       -0.024432862 0.02795581 0.0026873415 -0.02974481
0000d0 17 25 8b 3c 79 f9 8e bc c3 e1 6d 3c 8b f6 cf bb
       0.01698546 -0.017452942 0.014519158 -0.006346529
0000e0 a2 ce bf ba f6 7b 00 bd 6d 7b ec bc 4c f6 a9 bc
       -0.0014633725 -0.03136822 -0.028867448 -0.020747326
0000f0 fb 9c 03 3d c6 9a 3f bb 09 07 7d 3c 09 2d 2c 3b
       0.03213213 -0.002923654 0.015443572 0.002627196
000100 b8 09 91 3c 14 b9 1b bc c4 f1 1f 3c 38 69 9c 3c
       0.01770483 -0.009504575 0.009762231 0.019093141
000110 60 1d 8e 3c 29 38 03 39 66 b0 11 3d 0e f4 cf bc
       0.017347991 0.00012514055 0.035568617 -0.025384929
000120 8c f4 cb 3c af 7d e9 bc c1 36 11 3d 59 9b d6 bc
       0.024896882 -0.028502313 0.035452608 -0.026197122
000130 15 75 b7 bc a6 4e 48 3a 09 4a da 3a eb 32 f3 bc
       -0.022394696 0.0007641114 0.0016654144 -0.029687366
000140 f9 b6 16 3b 8c a3 7b bc b9 eb d2 bc 9b 50 5b 3c
       0.0022997244 -0.015358817 -0.025747167 0.013385917
000150 0e cf 9e bb d3 3d e6 bc 8a 8f 5f bc 0d 78 aa bc
       -0.00484646 -0.028105652 -0.013645062 -0.020809198
000160 93 16 ff bb 84 66 17 bd c0 db 8c 3c 72 2b e3 3c
       -0.0077846735 -0.036963 0.017194629 0.027730677
000170 7f c7 4c 3c bc f8 f8 3c 98 5b 00 bb 24 81 49 3c
       0.012498735 0.030392043 -0.0019585844 0.012298856
000180 79 b5 6f 3c 84 fe 17 bc b6 cf 69 3c d9 81 2d 3c
       0.014630669 -0.00927699 0.014270714 0.01059004
000190 40 e3 db 3c ef e3 c7 3c 77 43 86 bb 75 ab d7 bc
       0.02684176 0.02440068 -0.004097398 -0.026326874
0001a0 e9 fc 40 3c 72 da db bc 44 e1 ff bc 26 60 b3 3c
       0.0117790485 -0.026837561 -0.031235345 0.021896433
0001b0 e6 ac 6e 3c d1 1b 95 bc 10 1e d2 ba 7c 41 cf 3c
       0.014567589 -0.01820174 -0.0016030688 0.02529978
0001c0 fc 34 60 bc 00 d9 6f 3c 3f 76 1a bc 0b 08 54 bc
       -0.013684507 0.014639139 -0.009427606 -0.012941371
0001d0 6e 07 ac bb e2 86 ea 3c 74 94 c6 3b 2a 29 df bc
       -0.005249909 0.02862877 0.0060601775 -0.027241308
0001e0 5d 93 0c bd b2 d8 ef 3c be cc 64 b9 b4 53 6a bc
       -0.034320224 0.029278133 -0.00021820047 -0.014302183
0001f0 f3 e6 3c bb 41 24 d5 bc 05 2d d3 bc 58 6e ec 3c
       -0.002882418 -0.026018264 -0.025778303 0.02886121
000200 2e 72 17 3d b8 82 16 3d e2 6e f1 bc 22 a9 17 3d
       0.036974125 0.036745757 -0.029471818 0.037026532
000210 36 7d 12 3d 50 bc be bc 18 d4 fd 3c 19 fb 3a bc
       0.03576394 -0.023283154 0.030984923 -0.011412405
000220 a9 f1 e0 bc 1e db b7 bc de f4 d7 bc c6 e8 5f 3c
       -0.027458983 -0.02244335 -0.026361879 0.013666337
000230 54 fe ce 3c 30 20 0b 3c e1 0f 9f 3b 0e ea 1d 3d
       0.025267757 0.008491561 0.004854188 0.03855329
000240 f1 fd 3f 3c dd b3 34 3c 40 a2 07 3d 26 6d 22 3d
       0.011718259 0.011029211 0.033113718 0.039654873
000250 9b 5a 8f 3c 5f 9e d9 3c 9c 59 9e bb 03 c8 ad 3c
       0.017499259 0.026564775 -0.0048324596 0.021213537
000260 42 ae d7 bb 81 ec 96 3c 17 fc 8c 3c b4 32 c6 3c
       -0.0065820524 0.01842332 0.01721005 0.024194099
000270 6a ae 98 3b df 4d 04 bd b9 a2 4a bc f1 50 91 3c
       0.0046594637 -0.032300826 -0.012367898 0.017738791
000280 f6 8a fe bb 3a de a5 bb 96 ff 42 3b 33 a9 03 3c
       -0.0077680303 -0.005061892 0.0029754392 0.008035946
000290 44 b4 52 3c 4a 82 82 bc f0 82 a2 bc a3 11 8f bc
       0.0128603615 -0.015931267 -0.019837826 -0.017464465
0002a0 19 8f 1b bd e9 85 1e bd 1c d3 09 3d a4 9d 01 bd
       -0.037978265 -0.038701925 0.033648595 -0.03164448
0002b0 12 a4 13 bd ab e3 4b bc a8 d3 64 3b bc 58 f9 3c
       -0.03604514 -0.012444417 0.0034916196 0.03043782
0002c0 f3 7a 13 bc 31 7b 81 bc b7 8d 02 3d f8 ad 1b 3d
       -0.009001481 -0.015805813 0.03187343 0.038007706
0002d0 d2 e3 4d 3c bb bf ad bc e0 77 02 3d 09 79 ca bb
       0.012566524 -0.021209588 0.031852603 -0.0061789793
0002e0 b9 12 ae bc 43 6f df bc 09 be 78 bc f3 12 d4 3b
       -0.021249162 -0.027274733 -0.015182027 0.0064719855
0002f0 cc e7 53 3b b3 a9 38 3c 4f 49 d9 bc b7 00 2e bc
       0.0032334207 0.011270928 -0.026524214 -0.010620288
000300 2f 70 91 3a ec b8 89 bc a6 b0 84 bc 65 36 bf 3c
       0.0011096055 -0.01681181 -0.016197514 0.023341367
000310 0e 8a 98 3c ba 3b 69 3c 04 dc 08 3d fc 2a 10 3d
       0.018620517 0.014235431 0.03341295 0.035197243
000320 f2 60 9b bb d4 0f 26 3c fd a0 73 bc 27 89 cf 3c
       -0.0047417814 0.01013561 -0.014869926 0.025333954
000330 96 1f 0a bc d0 d8 86 bc 87 46 6f bc c9 28 a0 3b
       -0.008430382 -0.016460806 -0.014604217 0.0048876745
000340 4a a8 e3 3c f9 a1 b7 bc 1c 1f 4f bc 63 b7 10 3d
       0.027790207 -0.022416102 -0.012641694 0.03533114
000350 75 db 36 bc 80 64 46 bc a1 35 9b bc 44 64 44 ba
       -0.011160721 -0.012108922 -0.01894647 -0.00074917474
000360 79 7b 88 3c 48 2b 9a 3b 3e a1 d6 38 58 8e 9e 3b
       0.016660439 0.0047048666 0.00010234349 0.004838746
000370 0c 45 02 bd 04 bf 73 3c 80 43 c3 bc 46 68 b5 bb
       -0.03180413 0.014877085 -0.023835897 -0.005536112
000380 d6 8d 4b bb 18 09 98 3c 97 9d 04 3d 1f 92 f3 3c
       -0.0031059883 0.018559024 0.032376852 0.029732762
000390 ab 7d b3 3c 66 d6 cd 3c 3f c3 30 bc 57 f0 e0 3c
       0.02191051 0.025126647 -0.010788738 0.027458353
0003a0 79 40 34 bc 42 23 08 3d c8 8b ce bb d6 6d 21 3d
       -0.0110017 0.03323675 -0.0063032843 0.03941139
0003b0 84 96 31 3d f7 fa 71 bc 79 39 7a 3b 1a eb e7 3c
       0.043356434 -0.014769307 0.003818123 0.028310347
0003c0 8d fb e0 3c ac 54 a5 bb 98 79 fe 3c e4 22 98 3c
       0.027463699 -0.005045494 0.03106384 0.018571325
0003d0 09 c7 b7 3c 64 2f 3e 3c 20 e1 85 bb da 51 d0 bc
       0.022433775 0.0116079785 -0.004085675 -0.025429655
0003e0 7c 2a 3a 3c 63 8a 03 3d 23 ae 7b bc ae 65 2a bc
       0.011362668 0.032114398 -0.015361342 -0.010400219
0003f0 84 f0 d4 3c f1 9d 99 bc 5e 53 a6 3c bf 54 57 3b
       0.025993593 -0.01875207 0.020303424 0.003285691

bias f4 [32]
000000 d0 b1 59 3c 8d 3a 20 bd e6 c9 04 bd 28 9c 98 39
       0.013287023 -0.03911834 -0.032419108 0.00029108045
000010 39 7e 2f 39 53 0a 2a bc 56 f1 2a 3d c4 61 b2 bc
       0.00016736322 -0.010378438 0.041734062 -0.021775134
000020 d3 bd a1 bc 43 b8 db bc 35 22 09 3d a9 20 f6 ba
       -0.019743836 -0.026821261 0.033479888 -0.0018778044
000030 b4 51 78 bc 93 37 a7 3c 62 d5 c4 bc 2b a9 34 3d
       -0.015156198 0.020412242 -0.02402753 0.044106644
000040 c5 9c 68 bc 59 bd df bb 42 c5 2f 3c 69 30 14 bd
       -0.014197533 -0.006827992 0.010728182 -0.03617898
000050 b7 b2 07 bd 2d a8 f3 3c be 50 1c bd a9 17 98 bc
       -0.03312942 0.029743278 -0.03816294 -0.01856597
000060 2b 72 32 bd de 00 27 3c 2c a5 7e 3b d0 3a a5 bc
       -0.04356591 0.010193078 0.0038855774 -0.020169646
000070 0f 04 76 3c 5b 53 11 bc f1 46 09 bb 2c ac ff bc
       0.015015616 -0.008869971 -0.0020946825 -0.031210028

weight f4 [64, 32, 5, 5]
000000 fc c8 f9 bc 77 69 61 3c 79 46 c6 3a 5b 74 de bc
       -0.030491345 0.013758055 0.0015127204 -0.027155092
000010 d6 9e c8 bc d4 69 1e bc 17 42 0a 3c 8e b9 b7 bc
       -0.024489801 -0.009668786 0.008438609 -0.022427347
000020 72 e4 77 39 cb e8 13 3d 88 eb fd bb 86 1d 5d 3b
       0.00023640858 0.03611068 -0.007749025 0.0033739521
000030 a8 f1 d2 3c 40 75 6b 3c 07 3a 1f bb f4 9f 46 bc
       0.025749996 0.014371216 -0.0024296062 -0.012123097
000040 0b cf b8 3c 48 2c 2f 3c 2c a6 b0 3c 59 73 05 3d
       0.022559663 0.01069171 0.021563612 0.032580707
000050 01 21 89 3b 31 2f 20 3c f6 b7 17 3c 87 50 08 3d
       0.0041848426 0.009776876 0.009260168 0.03327992
000060 0e 9c 2f bc 5e 65 79 3c 49 53 04 bc 77 76 ec 3c
       -0.010718359 0.015221922 -0.008076497 0.028865082
000070 37 d8 c8 bc a4 de 06 3d b1 e1 03 bd 2d 02 f5 bb
       -0.024517162 0.03292717 -0.032197658 -0.007477066
000080 8d 3f bf bc ba 3f 19 bc a9 2f 8a bc 02 9b 91 3c
       -0.023345733 -0.0093535725 -0.01686843 0.017774109
000090 b6 5b cc ba 0f 19 d0 bc 5e 72 d3 bb dd c7 e2 ba
       -0.0015591297 -0.025402574 -0.0064528426 -0.0017301996
0000a0 72 ad a3 3c 20 b2 d6 bc 0d 88 83 bc fa 43 02 3b
       0.019980166 -0.026207983 -0.016056085 0.0019876943
0000b0 41 54 e4 3c 23 1c 6d bb a2 8b aa bc b2 73 d5 bc
       0.027872207 -0.00361801 -0.020818535 -0.026056144
0000c0 fb 4c 07 bd 2e fd 43 bb 8a 86 d6 3c 5b 43 ed 3c
       -0.0330324 -0.0029905546 0.0261872 0.028962782
0000d0 3e 8d 1b bd 74 15 d7 3c 3f e4 9b 3b c0 b2 62 3c
       -0.037976496 0.026255347 0.0047574337 0.013836563
0000e0 e6 ec b9 3c 5a 5e 02 3d 14 a1 e1 3c b0 e4 4b bb
       0.02269597 0.031828262 0.027542628 -0.003111165
0000f0 83 68 01 bc a7 d1 77 3c dd 8b 8e bc ff cb ab ba
       -0.007898453 0.015125669 -0.017400676 -0.001310706
000100 2c c1 bc bc 51 c1 62 3c 67 dd 27 bc 49 bd a0 bc
       -0.02304133 0.013840036 -0.0102456575 -0.019621508
000110 0d 32 14 bd 3a 05 4e 3c f1 e3 7f bb 78 bd ed bc
       -0.036180545 0.012574488 -0.0039045776 -0.02902101
000120 2a bd 71 bc 90 1d c2 ba bc c8 97 bc 9f 43 46 bc
       -0.014754573 -0.0014809836 -0.018528335 -0.012101083
000130 97 a7 13 3d 72 a8 c6 3c eb c5 3c 3c 70 34 21 bd
       0.036048498 0.024250243 0.011521797 -0.03935665
000140 96 3a 33 bc d3 02 ee 3c 3f bf ea bc 8e f7 d7 3c
       -0.010939261 0.029054081 -0.028655646 0.02636316
000150 ee f8 e8 bb f1 96 9b 3b 15 c9 36 3c 61 97 0d bd
       -0.007109753 0.004748218 0.01115634 -0.034568194
000160 b8 ae 99 bc db 3a c4 39 e4 25 f9 bc 37 0f c0 bc
       -0.01876007 0.00037427884 -0.030413575 -0.023444755
000170 8d a0 de bc 6a 79 e6 bc 86 69 c9 3c ef c2 ee bc
       -0.027176166 -0.028134067 0.02458645 -0.029145686
000180 75 58 ba bc 16 92 e4 bc b8 f5 24 bd 46 db e1 3c
       -0.022747258 -0.02790169 -0.0402734 0.027570378
000190 31 53 32 3c f5 72 69 bc 0b 08 15 bc d2 41 eb bc
       0.010884092 -0.014248599 -0.009096156 -0.028717909
0001a0 1f 0c 70 3c 82 97 02 bd bc 91 c2 3c 5a 97 18 3b
       0.014651327 -0.03188277 0.023751132 0.0023283572
0001b0 c8 30 b8 3c 82 d0 9b 3c 45 51 9e 3c 15 7c 82 bb
       0.022484198 0.019020323 0.019325862 -0.003982077
0001c0 24 0f aa 3c d8 93 90 bc 2f f4 73 3c b2 16 04 3d
       0.020759173 -0.017648622 0.014889761 0.032248206
0001d0 36 08 b5 3b 1a 10 4a ba 0e 74 ae bb 7a 09 d6 3c
       0.0055246605 -0.0007708088 -0.0053238934 0.026127566
0001e0 03 f2 37 3c ba 03 fa 3b 82 47 10 3d fd e5 ed 3c
       0.011227134 0.007629839 0.035224445 0.029040331
0001f0 a7 5f 09 bc 29 c1 0e bc e8 03 75 bb 59 95 04 bc
       -0.008384622 -0.008713045 -0.0037386362 -0.008092248
000200 0f a7 a0 3c f8 82 01 bd df bd e5 3c 6c f2 4a bc
       0.01961091 -0.031619042 0.02804464 -0.012386899
000210 d3 9a 7d bc 95 5c b7 3c 12 80 9e 3c 12 3e 08 bd
       -0.0154788075 0.022383014 0.019348178 -0.03326232
000220 ba 2b 91 bc ea 41 cb 3c 1d b4 51 bb ad 78 10 3c
       -0.017721046 0.024811704 -0.0031998225 0.008817834
000230 46 e5 88 bb 54 e8 02 bd e3 5e 05 3d ce db c1 bc
       -0.004177722 -0.031959847 0.032561194 -0.023664381
000240 98 ad 72 3b 3b 92 cf bb 98 4c 4b bc 20 19 74 3c
       0.003702974 -0.0063345707 -0.012408398 0.014898568
000250 f2 05 d3 3c 70 7d 76 3c a4 bb 1d bc 68 f5 b3 3c
       0.02575967 0.015044555 -0.009627257 0.021967605
000260 d1 4a 61 bc 5d 03 69 bc 18 78 0e 3d 98 cb 09 3d
       -0.013750748 -0.014221993 0.0347825 0.033641428
000270 01 58 02 bd 2a c0 ee 3c 41 54 e7 ba ac 95 3d bb
       -0.03182221 0.029144365 -0.0017649011 -0.0028928323
000280 b7 ec 8c bc 51 37 1a 3d c5 87 ae 3c d3 b9 48 bc
       -0.017202718 0.03765041 0.021304974 -0.012251335
000290 4f 37 13 bc b6 fa 76 3c 95 f5 94 bb 76 76 da 3c
       -0.008985355 0.015074423 -0.004545877 0.026667815
0002a0 1c 3b 85 3c 23 5e 12 3d bb 82 ae bb c1 4d 0b 3d
       0.016263537 0.035734307 -0.005325643 0.0340097
0002b0 27 92 9c 3b 3a 78 20 3c b6 e3 97 bc 36 0f 2b 3c
       0.004778165 0.009794289 -0.018541198 0.010440638
0002c0 62 41 cb 3c 8c a1 5c bb a4 7b b4 bc dd cf cd bc
       0.02481145 -0.0033665625 -0.022031613 -0.025123531
0002d0 73 43 a9 bc 3a 9f 30 bc 2d be a7 bc ba 81 b7 3c
       -0.020662045 -0.01078015 -0.020476425 0.022400726
0002e0 0f a0 48 3c b8 6d b5 3c 83 04 82 bc d1 d7 d7 3c
       0.012245192 0.022147045 -0.015871292 0.026348026
0002f0 0b 55 b3 bc a1 d0 b0 bc d2 78 ea 3c fa 0c 48 bb
       -0.021891138 -0.021583857 0.028622065 -0.0030525313
000300 3f 6d 3e 3c 71 ea 09 bd 03 f5 96 bc 98 56 89 3c
       0.011622726 -0.033670846 -0.018427378 0.016764924
000310 de 88 93 bc d0 93 fd bc 89 b5 fc bb 72 5f 0b bd
       -0.0180096 -0.030954272 -0.0077120704 -0.03402657
000320 aa 19 c6 3b 6b be 51 bc 34 d8 06 bd aa 58 c1 bb
       0.00604554 -0.012801747 -0.03292103 -0.005900462
000330 51 4a c6 3b 86 95 5e 3b 74 ca 9b 3b 5a 04 73 bb
       0.0060513397 0.0033963635 0.004754359 -0.003708145
000340 e8 04 87 bb 15 c6 d5 3c e6 06 ac 3b c6 0f 30 3c
       -0.004120458 0.02609543 0.005249846 0.010745948
000350 7c fe 91 bc 0b c3 b3 3b dc 12 08 bd 62 ec b7 bc
       -0.017821543 0.0054858974 -0.03322111 -0.022451583
000360 94 11 f4 bc e7 b6 e9 bc f5 07 9d bc 48 c6 bf 3b
       -0.029793538 -0.028529597 -0.019168833 0.0058524944
000370 7f 35 b6 3c 4e 4d 3c bc a5 47 d1 bb d6 c7 c5 bc
       0.022242306 -0.01149304 -0.0063867145 -0.02414314
000380 d0 cc cd bb a5 cc f0 bc be c0 98 3c 1c 0e eb 3c
       -0.006280519 -0.029394457 0.018646594 0.028693251
000390 a7 61 fc 3b e6 09 c4 3b f6 a9 ab 3c 0a f6 8e bc
       0.0077020708 0.0059826253 0.020955067 -0.017451305
0003a0 a3 85 40 bc bf b8 b1 3b 59 89 3b bc e9 0a 23 bc
       -0.0117506115 0.005423635 -0.01144632 -0.009951332
0003b0 44 2e b6 3c 3b 55 88 3c de 50 fc 3c ea 27 79 bb
       0.022238858 0.016642204 0.03080028 -0.0038018175
0003c0 07 9d 0e bd 48 5e c1 3c cb 19 2e 3c f4 05 fc 3c
       -0.03481772 0.023604527 0.010626267 0.030764557
0003d0 99 71 8f 3c fd f5 87 3c 0a c7 9f bb b3 fd b9 3c
       0.017510222 0.016596789 -0.004876022 0.022703981
0003e0 03 ef 2c 3c 92 c0 cc bb f3 59 c7 3c d6 4c 00 3c
       0.010555032 -0.006248542 0.024334883 0.007830819
0003f0 97 99 99 bb c5 26 ec 3c 91 54 27 3d 83 8c d6 bc
       -0.004687499 0.02882708 0.040852133 -0.026190048

bias f4 [64]
000000 a1 d7 e6 3c 0d fe 12 3c 16 a7 c8 3c 7b 2d 1a bc
       0.028178992 0.008971703 0.024493735 -0.009410257
000010 e4 72 d8 bb 61 5f 04 bd 34 fe aa 3b ef 0b 1c 3d
       -0.006605493 -0.032317523 0.0052182917 0.03809732
000020 6a 89 35 3d bb fa 7d 3c 4c 91 85 3c ce af 8b 3b
       0.0443205 0.015501673 0.016304635 0.004262901
000030 30 4f b2 3b cf 8d 1d 3d ac b7 7e 3c 98 f8 a9 bb
       0.005441569 0.038465317 0.0155467205 -0.0051871054
000040 45 f4 1f 3c 12 d4 39 bd 46 61 11 3d 71 3a 46 3c
       0.009762828 -0.04536826 0.035493158 0.012098894
000050 77 c5 2f bd 1e 13 61 3b 9c 00 f1 3b e4 7c e1 3c
       -0.042912927 0.003434367 0.007354809 0.027525373
000060 f1 67 1b bd 60 a1 18 3d f1 63 96 3c f1 32 93 3c
       -0.037940923 0.037263274 0.018358203 0.017968627
000070 22 52 f2 bc dd 49 c6 3c 96 a1 96 bc 20 3a e7 3c
       -0.02958018 0.024205143 -0.018387597 0.028225958
000080 12 12 9d bc a7 f6 41 bc e4 8c 0f 3d 24 4c 79 b9
       -0.019173656 -0.011838592 0.035046473 -0.00023774855
000090 63 a3 65 3c 97 af 81 3c bd c7 0d bb 1d 81 b0 bc
       0.014016005 0.015830798 -0.0021633946 -0.021545941
0000a0 66 ee e0 3b f8 72 cf bc 12 ea 5d 3b 96 36 48 3c
       0.006864357 -0.025323376 0.003386144 0.012220046
0000b0 06 70 05 3d d2 74 76 bc 1a 59 0a bc 9a 81 d7 3c
       0.032577537 -0.015042501 -0.008444095 0.026306916
0000c0 3d ea e0 3c 1f 2c 1f 3d e0 a7 1c bd 3d 08 30 3c
       0.027455444 0.038860437 -0.038246036 0.010744152
0000d0 74 d2 3c bc 42 d1 48 3c aa d7 39 3d e5 74 10 bd
       -0.011524785 0.012256922 0.04537169 -0.03526773
0000e0 7f b7 96 3c 71 ea 1a 3d f1 82 1f bd b7 38 1d bd
       0.018398045 0.037821237 -0.038943235 -0.038384166
0000f0 c5 2e dc bc ae 9f 7e 3c 4f 44 77 3c 5e 32 6c 3c
       -0.02687777 0.015541 0.01509197 0.014416305

weight f4 [64, 1024]
000000 de bc f0 bc ee a0 c2 bc 71 d4 10 bd 35 d7 98 bc
       -0.029386934 -0.023758378 -0.03535885 -0.018657306
000010 61 fc 04 bd 5f 83 9a 3c 17 41 e6 bc ac ed a0 3b
       -0.03246725 0.01886147 -0.02810721 0.004911145
000020 0e 2d 87 bb 45 c9 70 bc 01 ab 8c bc 29 95 b9 3c
       -0.004125244 -0.014696424 -0.017171385 0.022654133
000030 1e 13 d4 3c 02 d9 e5 bc 48 20 aa 3c 90 49 3e bc
       0.025888022 -0.028057579 0.020767346 -0.011614218
000040 d6 0f ac bb 4d 6d e2 bc cb 4e 84 bc 2f ff 6d bc
       -0.005250911 -0.02764001 -0.016150853 -0.014526173
000050 9b 51 b7 bc b5 14 bb bc 8b cb 63 bc ff ae 11 bb
       -0.02237778 -0.022837022 -0.013903509 -0.002222955
000060 d8 89 d9 3b ab 6a 21 3c ad f7 1a bb e7 39 e9 3c
       0.0066387467 0.009852092 -0.0023646161 0.028469993
000070 e2 ef 84 3b 40 6d a0 3c b5 77 4f 3c 0c 13 fc bc
       0.0040569166 0.019583344 0.012662818 -0.030770801
000080 a4 e8 8f bc 61 4d 63 bc 66 b8 78 bc f6 96 8f bb
       -0.017566986 -0.013873429 -0.015180683 -0.0043820096
000090 b0 94 ff bc 4b 34 9e bc 0f 08 b9 3c bb 58 ee bc
       -0.03119883 -0.019312045 0.02258685 -0.029095044
0000a0 8c b3 cc 3c 5e 75 ad bc 53 93 84 bb a6 44 37 3b
       0.024987958 -0.02117413 -0.0040458827 0.0027964502
0000b0 4d 2b e8 3c f9 00 ea bc 5b 8d 99 3c 62 76 84 3c
       0.02834096 -0.028564917 0.018744161 0.01616973
0000c0 e3 5b c9 3c 69 12 8d 3c eb 81 25 3a bc f5 8f 3c
       0.024579948 0.017220693 0.000631361 0.01757323
0000d0 8c e4 40 3c 5a e6 3b 3c 15 36 d6 3b 1e f9 0d 3c
       0.01177324 0.011468494 0.006537209 0.008665351
0000e0 ff d2 a7 bc be 0e 00 bc 32 18 6a bc 59 64 ce 3c
       -0.020486353 -0.007816015 -0.014287995 0.025194334
0000f0 f7 a1 fd bc ba 6d d2 3c 38 1a 1f bc 8d b0 a7 3c
       -0.03096102 0.025687087 -0.009710841 0.020469928
000100 ea d2 df bc e7 e2 85 3c b4 e0 f3 3c 27 92 b5 3c
       -0.027322251 0.016343547 0.029770233 0.022164417
000110 75 49 84 3b 39 36 db 3c 44 ec 7f bc 1c c1 2b 3b
       0.004037077 0.026759254 -0.015620295 0.0026207631
000120 72 67 05 3d 30 cf 3f bc 3c 37 31 3c 6a 33 dd 3c
       0.032569356 -0.011707112 0.010816392 0.027002055
000130 16 e8 c4 3c 1b a5 54 bc fe ce 89 bc 9f cc e9 3c
       0.024036448 -0.012978817 -0.016822334 0.028539954
000140 5e 79 b9 3c c7 bf 91 3b 7d 6c 40 3c 58 cf b9 3c
       0.02264088 0.0044479105 0.011744616 0.022681877
000150 72 b1 ec bb b5 0d 4b 3c 09 ed af 3c 3b 69 ad 3c
       -0.0072233016 0.012393405 0.021475332 0.021168342
000160 11 cf e9 3c 8b ae ab 3c 59 b6 b0 3a 10 94 b9 bc
       0.02854112 0.020957252 0.0013482078 -0.02265361
000170 a6 64 e0 3c b1 7f c8 3c 70 82 82 3c d5 e0 cb 3b
       0.027391743 0.02447495 0.015931338 0.0062218704
000180 2e 96 24 bc 84 04 0b 3c b6 85 05 3c e1 76 b9 3b
       -0.010045571 0.008484963 0.008149555 0.0056599234
000190 d6 99 de bb df e7 d7 3c 34 22 2c 3b bc 67 17 3d
       -0.006793241 0.026355682 0.0026265504 0.036964163
0001a0 53 a7 df bc 19 db 5a 3c 62 43 8e 3a d8 26 38 bc
       -0.027301466 0.013357901 0.0010853822 -0.01123973
0001b0 ea d1 cf bb 30 df 16 bc 1a e5 e4 bc 14 26 6b bb
       -0.0063421624 -0.0092084855 -0.027941275 -0.003588085
0001c0 94 05 f6 3b cb f5 e0 3b 81 fc 60 3c 31 46 d3 bc
       0.007507989 0.0068652383 0.013732077 -0.025790306
0001d0 4c 65 0f bc fc 3f 51 bc 9c 28 03 bc 31 48 3a b9
       -0.008752178 -0.012771603 -0.0080052875 -0.00017765236
0001e0 27 1f e6 ba 7d bd a2 3c 6a 73 0d bd 44 e6 3a 3b
       -0.0017556892 0.019865746 -0.034533896 0.0028518597
0001f0 28 e4 67 3c ee 52 04 3c 9e f4 02 bb fa 29 25 3b
       0.014153518 0.008076413 -0.001998223 0.0025202022
000200 b5 c8 4f 3c 65 9d 9b bc 1f b3 f3 3b aa 9e 52 bc
       0.01268213 -0.01899595 0.0074371244 -0.012855211
000210 4a 2f 89 bc 8b a0 19 bc 97 f8 59 3c 2e 1f b3 3b
       -0.016746182 -0.009376655 0.013303897 0.0054663634
000220 c7 2d 09 bd 38 ac 9b 39 fa 98 0c bd 9d a7 cf 38
       -0.033490922 0.00029692217 -0.034325577 9.9017496e-05
000230 fc 96 ba 3b ea 29 85 3c 90 4d 0b bd 50 18 28 3c
       0.0056942683 0.016255338 -0.034009516 0.010259703
000240 e4 4f 50 3c 5e 0e ce 3c e4 20 eb bc 32 16 e8 3c
       0.01271436 0.025153335 -0.028702207 0.028330896
000250 b1 53 02 3c b9 21 ed 3c f3 78 b6 bc 4d 42 7b 3b
       0.007954524 0.028946744 -0.02227447 0.003833908
000260 d9 8b 32 3c 3b b5 f7 bc 45 35 c0 bc cd f6 cd bc
       0.0108976 -0.030237785 -0.0234629 -0.025142098
000270 61 47 47 3c 49 7a 3a 3c 44 57 b4 3c 88 08 b6 3c
       0.012163014 0.011381694 0.022014268 0.022220865
000280 2a 76 e4 bc d3 8d 93 bc e6 fc ab bb 42 aa 66 3c
       -0.027888376 -0.018011963 -0.0052486537 0.014078679
000290 e2 bc cc bc 80 c4 e5 bc af 0e 88 bc de fc bd bb
       -0.02499241 -0.0280478 -0.016608564 -0.0057979664
0002a0 f5 cc ec bc 9e a0 f5 ba 47 7b a1 3b 22 51 4a b8
       -0.028906325 -0.0018739884 0.004928026 -4.8236114e-05
0002b0 b8 67 af 3c 55 2d e4 bb 3e ec f2 bb 53 62 b8 b9
       0.021411762 -0.006963412 -0.007413416 -0.00035168472
0002c0 44 6f e0 3c 0d 97 ba 3c e4 ae b0 3c 42 24 74 3c
       0.027396806 0.022777105 0.02156777 0.014901223
0002d0 f2 f0 dc 3c 88 8d 5f 3c 49 ec c1 ba 89 cd b0 3c
       0.02697036 0.0136445835 -0.001479515 0.021582382
0002e0 99 78 c9 bc 4a 16 50 3c c4 9c 1d 3c 90 c5 ad bb
       -0.024593638 0.012700627 0.009619895 -0.0053030923
0002f0 8e 08 ef 3b 81 7c c8 3b 91 c7 0f 3b d7 b0 81 bc
       0.007294721 0.0061183576 0.002193902 -0.015831394
000300 88 09 f5 3b 8c dc 2c 3c 39 ae 96 bb 58 26 e6 3b
       0.007477943 0.010550629 -0.0045984057 0.007023614
000310 a0 3e 8d bc 7b 19 9a ba 88 7b 11 3c 22 fc 6e 3c
       -0.017241776 -0.0011756861 0.00887955 0.01458648
000320 09 1c 01 3d 0a dc ae 3c 34 26 63 bc 6e e6 00 3c
       0.031520877 0.021345157 -0.013864089 0.007867439
000330 c5 59 0a 3c 96 12 db bc d3 21 1d bc 46 4d 36 3c
       0.008444254 -0.02674226 -0.009590584 0.011126822
000340 ba cf ae bc 90 26 90 3b 15 45 73 bb 70 27 ac bb
       -0.021339286 0.0043991283 -0.0037120034 -0.0052537248
000350 e9 63 83 bc 14 18 bf 3b 30 fd 93 3a 86 49 06 3c
       -0.016038852 0.0058317278 0.0011290666 0.00819624
000360 06 de b4 3c af f2 38 3b 81 79 dd 3c 11 62 b5 3c
       0.022078525 0.0028220823 0.027035477 0.022141488
000370 f4 da 8e 3c 26 bc 82 bc 9d 59 b3 3c f8 58 64 bc
       0.01743839 -0.015958857 0.021893317 -0.013937227
000380 5b 72 f7 bb 4c 61 a2 3c 4d 02 be 3b 03 4b f5 3c
       -0.007551474 0.019821785 0.005798614 0.029942995
000390 76 54 c9 bb e4 25 c8 3c 38 e4 71 bc 04 5f b4 bc
       -0.0061441017 0.02443213 -0.014763884 -0.022017963
0003a0 73 a2 cd 3c 01 aa b8 bb 97 35 6f bc 34 69 db bc
       0.025101876 -0.0056355004 -0.014600179 -0.026783563
0003b0 ca fa ad bc bd 5a 0c 3d d3 2f ac bc 24 d5 d1 bc
       -0.02123775 0.034266222 -0.021018898 -0.025614329
0003c0 82 30 00 3d 51 a6 2b 3c a2 91 82 3b 50 16 65 3c
       0.03129626 0.010476665 0.003984646 0.0139823705
0003d0 f3 4c 0d bb 26 86 56 3c 19 d9 ef bc e0 c9 4d bc
       -0.0021560758 0.013093507 -0.029278325 -0.012560338
0003e0 ca 62 63 3c 29 a1 eb 3c 8e dc b7 3c 36 21 e4 3c
       0.013878534 0.02876337 0.022444036 0.027847867
0003f0 3c 30 f6 3b a3 02 fc 3c 52 fe 0a bc cc 61 e5 39
       0.007513074 0.030762976 -0.008483486 0.00043751148

bias f4 [64]
000000 1e ba 4a 3c e8 d8 7f bc 5d 1e 06 bc 69 64 10 3d
       0.012373475 -0.015615679 -0.00818595 0.03525201
000010 7d b1 d5 bc f1 5b 07 bd 49 33 eb 3c 4d 9c 66 bc
       -0.02608561 -0.033046667 0.028710978 -0.014075351
000020 ef 9e fd bc 67 b4 6b bc 84 fd 94 bb f9 e8 41 3c
       -0.030959575 -0.014386273 -0.004546823 0.01183533
000030 e7 92 9e bc 32 5b e2 3c 74 46 72 bc e9 71 90 3c
       -0.019357158 0.027631376 -0.014787305 0.017632442
000040 8a 4e b7 ba 73 51 3b bd 5c 16 20 bb d5 af 70 3c
       -0.0013985198 -0.045731973 -0.002442739 0.014690359
000050 52 f4 e2 3c 32 61 65 bc 0d 45 c7 3b 66 55 8f 3c
       0.027704392 -0.014000224 0.0060812295 0.017496776
000060 b0 ed d4 3c f9 5b 1b bd eb ed be 3c c5 07 36 3c
       0.025992244 -0.03792951 0.023306808 0.011110251
000070 38 3a b7 3c c4 83 92 3b 77 cf f2 3c 46 91 d4 bc
       0.022366628 0.004471274 0.029639943 -0.025948178
000080 31 19 28 3c b1 06 d0 3c 49 12 11 bc 0a 01 0d bd
       0.010259912 0.025393816 -0.008854457 -0.03442482
000090 72 cc 46 3c 04 3a 8d bb 59 0b fd bc 9d e1 9c bc
       0.0121337045 -0.0043098945 -0.0308892 -0.01915055
0000a0 85 4a 0a 3d d5 df 9a 3c f9 5a 0c bd 54 34 b4 bc
       0.033762474 0.01890556 -0.034266446 -0.021997608
0000b0 80 98 ee bc d5 77 5f bc 2d f6 90 3c 3d 48 72 bb
       -0.029125452 -0.01363941 0.01769551 -0.0036969327
0000c0 c8 84 a9 3c c0 b2 02 bd 11 23 8b bc 80 a6 65 3c
       0.020693198 -0.03190875 -0.016984494 0.0140167475
0000d0 e2 2b b6 3b 48 e2 82 3c 2b a4 2c 3c 5c 03 cf 3c
       0.0055594305 0.01597704 0.010537188 0.025270157
0000e0 f2 64 f5 3c 35 74 a4 bc 7d 0f d0 3c db 6d 17 3b
       0.029955361 -0.020074943 0.02539801 0.002310625
0000f0 56 df 9a bc 97 1e cc 3b c5 c8 c5 bc 7e ee 2f bc
       -0.018905323 0.0062292325 -0.024143586 -0.010738013

weight f4 [10, 64]
000000 b3 4f f1 3d 37 45 ad 3c 4a e5 e1 bc 8b 1d a5 3c
       0.117827795 0.021151168 -0.027575154 0.020155689
000010 c4 0b f6 3c fb 31 db 3d 78 8b d9 bd 3f 81 6f 3d
       0.030034907 0.107028924 -0.10622305 0.058472868
000020 99 e4 5b 3d 07 68 f6 3d 53 56 0c bb 60 2f 9b 3d
       0.053684805 0.120315604 -0.0021413758 0.075773954
000030 19 d5 c6 3d d9 cf ea bd 4b 70 e3 3d d7 96 c6 3d
       0.09708614 -0.11465425 0.111054026 0.09696739
000040 92 01 8d bc ed bb ec 3d cd 36 0e be 93 35 07 3e
       -0.017212663 0.115592815 -0.13888092 0.1320403
000050 db 32 11 bd d4 f4 bb bd b9 0d be 3d 3e b1 39 bd
       -0.03544889 -0.09177557 0.09279961 -0.045335047
000060 da 86 08 3c c7 b2 85 3d 56 a2 f0 3d 8d d6 95 3d
       0.008332932 0.0652824 0.11749713 0.07316313
000070 bb f0 5e bd f4 20 d9 3c d6 16 3d bc 67 58 63 bd
       -0.054428797 0.026504971 -0.011541089 -0.05550423
000080 24 2a 0c 3b 26 a7 2a 3d fe be 8d 3d c3 8e 45 3c
       0.0021387422 0.04166331 0.069211945 0.012057963
000090 bd 86 56 3d 40 b5 03 3e b1 94 99 bb a8 20 05 3d
       0.05237459 0.1286211 -0.004686915 0.032501847
0000a0 6c e8 42 bd 4f 24 35 3c 52 59 1c 3d 3c 8c 6b bc
       -0.047584936 0.01105602 0.03817112 -0.014376696
0000b0 41 07 5e 3d ac 5b ee bd 21 a7 7c 3d b2 ed 06 be
       0.054206137 -0.11638579 0.061682824 -0.13176611
0000c0 77 42 9c 3d e2 85 00 3e fe 4e c4 bd 7e c0 47 bd
       0.07629865 0.12551072 -0.09585379 -0.04876756
0000d0 f4 d4 0e 3c 22 ce cd bd 27 1c 9f bd cd 11 b9 3d
       0.008717764 -0.10049082 -0.077690415 0.09036598
0000e0 74 0c ae 3d f5 19 04 3e f9 b7 7f bd 96 60 ee bd
       0.08498469 0.12900527 -0.06243131 -0.11639516
0000f0 02 3f 46 bd 7d bb e6 bb 34 ee bc bc 6b cf 20 bd
       -0.048399933 -0.0070413933 -0.023062803 -0.03926031
000100 89 0a e9 3d 4d c2 dd bd d0 7c 85 bc b4 e1 1d be
       0.113789625 -0.108280756 -0.016294867 -0.1541813
000110 b0 80 fb bd e2 b1 a3 3d 65 54 80 3d 33 c4 51 3d
       -0.122804046 0.07992913 0.06266097 0.0512125
000120 4f fe 03 be 92 2e d3 3b 09 d0 e1 3a 61 30 4c bd
       -0.1288998 0.0064447606 0.0017228137 -0.049850825
000130 19 2f c2 bd 70 40 2c 3d 96 ad 51 bd 86 28 fd 3d
       -0.094816394 0.04205364 -0.051190935 0.12361245
000140 5c 92 a9 3d 5b c1 d4 bd 07 56 01 3d 5b fb d0 bd
       0.08279869 -0.10388442 0.031576183 -0.10204192
000150 6c 03 75 3d dc c2 f5 3d fb 3a 8e bc 45 60 86 3d
       0.059817716 0.12000057 -0.017362108 0.06561331
000160 2d 2e 14 3e b4 31 29 3d ff 54 a3 3d 1c 26 64 3c
       0.1447074 0.041307166 0.07975196 0.013925102
000170 fa 2b 57 bc 6f 30 75 3d aa 15 1f bd dc 05 9d bb
       -0.013133043 0.059860643 -0.03883902 -0.0047919583
000180 0f 5a 36 bd d5 c7 1b 3e 9a b8 c6 3d 48 0a 82 3c
       -0.04451948 0.15212949 0.09703179 0.015874043
000190 01 3f 31 bd 64 83 bd bd 81 a3 28 bd 42 52 50 3b
       -0.043272976 -0.092535764 -0.041171554 0.003178731
0001a0 a7 9b 8e 3d 69 db a3 bd 54 74 7e bd 72 89 91 bd
       0.06963282 -0.080008335 -0.062122658 -0.07106294
0001b0 ad ec 22 bd 9a 2c 44 3b 94 1a b8 3d 5a 6d b4 3d
       -0.039776493 0.0029933811 0.089894444 0.0880992
0001c0 9b 61 d1 3d 48 c6 75 bd 70 0e cc 3d 35 78 bb 3d
       0.10223695 -0.06000355 0.09963691 0.09153787
0001d0 12 e0 f9 bd 3f e6 5b 3d cd 80 a7 bd f7 3e b1 3d
       -0.12200941 0.053686377 -0.08178864 0.08654588
0001e0 de 51 0e be 91 0c 14 3d 7a c9 cc 3d ba 73 f5 3c
       -0.13898417 0.036144797 0.09999366 0.02996241
0001f0 c3 b7 58 bd c2 4d b0 bd 38 09 fd bd 41 ed be bd
       -0.052909624 -0.08608581 -0.12355274 -0.09322596
000200 7a b1 a3 bc 8c 41 16 bd 53 99 d3 bd 8a 10 a2 3d
       -0.019982088 -0.036683604 -0.10331979 0.07913311
000210 45 4d 69 3d 4e e0 6a bc f9 25 47 3c b7 2f bf bd
       0.056958456 -0.014335705 0.0121550495 -0.09335273
000220 30 29 c2 3d 6b dd 46 3c da d1 f7 3c 63 4a 54 bc
       0.09480512 0.012137751 0.030251432 -0.012957188
000230 92 4c cf bc c8 68 a5 bd 8c b5 a1 bd d1 8e ea bd
       -0.025305066 -0.08076626 -0.078959554 -0.11453021
000240 0b 9c 81 bd 4f f0 6b bd c7 86 79 bd ca 28 ae bd
       -0.06328591 -0.057602223 -0.06091955 -0.08503874
000250 c3 ef 10 bd 4a e6 38 bc 27 a7 b6 3d a3 49 b7 3d
       -0.035384905 -0.011285374 0.089186005 0.08949592
000260 73 67 3d bd 73 eb 8a bc c7 88 9d 3d 73 8d 89 3d
       -0.046241235 -0.016957974 0.07692104 0.067164324
000270 43 dd 3d 3d e6 f2 c1 3c 07 a9 06 3d ea 57 37 bd
       0.04635359 0.023675393 0.03287604 -0.044761576
000280 8e 1f 08 3e 63 74 17 3c 7d 8d cd 3d d8 bd e2 3b
       0.13293287 0.009244057 0.100367524 0.006919604
000290 68 f8 9a bd 6f 10 f8 3d a4 c2 58 bd 89 43 50 3d
       -0.07566911 0.121125095 -0.05292 0.050845657
0002a0 f3 48 0a 3d 5f bc 02 bd 3f 78 80 bd fd 8c 99 bc
       0.033760976 -0.031917926 -0.06272935 -0.018743986
0002b0 a7 9f 03 be 5f c2 95 bd 0e 8a 7f 3c 56 e2 7b bd
       -0.12853871 -0.07312464 0.01559688 -0.061495148
0002c0 c7 e2 95 bd e1 50 dd bd ff 4a 71 bd 8d 42 57 bc
       -0.07318645 -0.10806442 -0.058909412 -0.013138426
0002d0 d3 34 23 3d 76 54 bf bd ac 7b fd 3d 8e 33 f5 3d
       0.0398453 -0.093422815 0.12377104 0.11972724
0002e0 76 e3 c5 3d b2 f7 85 bd 7f 72 96 bd f4 b4 28 bd
       0.09662525 -0.06541385 -0.07346057 -0.041188195
0002f0 a8 8f 95 3d c9 d1 be 3c 6a 63 0f bd 3c 3c be 3d
       0.07302791 0.023293393 -0.035006918 0.092888325
000300 fc 87 c5 bd 41 31 de bc f1 e6 75 bd 72 68 44 bd
       -0.096450776 -0.027123095 -0.060034696 -0.04795117
000310 d8 4e d8 3d 7f 33 0b bd c3 95 e8 3d 41 06 85 bc
       0.10561913 -0.033984657 0.1135669 -0.016238334
000320 99 c5 c3 3d f2 e1 7f 3d 67 be e9 3d 4e 7e 7c 3b
       0.09559173 0.062471338 0.114132695 0.0038527432
000330 d1 70 a5 bd 89 82 87 3d f8 50 07 3d 89 3e bb bd
       -0.08078159 0.066166945 0.033036202 -0.09142787
000340 12 91 9b 3d aa 61 d1 bc 65 45 17 bd 2b 3d f3 3d
       0.07596029 -0.025559265 -0.036931414 0.11876901
000350 f6 43 ba bc 3b 4a bd 3d a4 90 f8 bd 3d 7d 07 bd
       -0.022737484 0.09242674 -0.12136963 -0.03307842
000360 7f ca f3 bd 6e c9 97 bd 79 0a 95 bd 9f 8a 2f bd
       -0.119038574 -0.074114665 -0.07277388 -0.04285681
000370 aa 7e 72 3d d7 b8 83 bd a1 42 ee 3b 92 58 57 3b
       0.059202828 -0.0643174 0.0072711264 0.0032859189
000380 dd 8c ac 3d 7d c1 a8 bd 5a 0e d2 3d 96 5f ef 3d
       0.08425305 -0.0824003 0.102566436 0.116881534
000390 ee 5c 86 bd 88 12 d4 3d 2a 2e 2e bc 6f b4 ad 3d
       -0.06560694 0.10355097 -0.010631124 0.084816806
0003a0 c2 8b fd 3c 69 43 cb 3c 8a 40 d3 3c bd 6f 00 3e
       0.03095043 0.024812417 0.02578761 0.12542625
0003b0 49 dc 99 3d 9b da 1c 3b 1c 2a 72 bd 4b 3c dd bd
       0.07512719 0.002393401 -0.05912219 -0.108025156
0003c0 72 8c a1 3d d5 5b 26 3d ed 29 7a 3c 73 3d fb 3d
       0.07888116 0.04061492 0.015268785 0.1226758
0003d0 e1 4a b9 3d 8b 41 70 3c 5f 9c a4 3c 44 fb 94 3d
       0.09047485 0.014664064 0.020094095 0.072744876
0003e0 dc 14 90 bd eb b4 25 bc cb 73 55 bd 34 f1 c9 3c
       -0.070352286 -0.010113935 -0.052112382 0.024651147
0003f0 e0 f1 0e bd 3f 2b 1f 3d 68 9d d9 3d ee 72 d4 3b
       -0.03489864 0.038859602 0.10625726 0.0064834272

bias f4 [10]
000000 ae e6 f8 bd 2d aa e6 3d d5 84 6e bd 95 ce 0d bd
       -0.12153374 0.11262927 -0.058232147 -0.03462084
000010 c8 81 49 3d 14 59 d5 bd 95 8c cc 3d 38 19 71 bc
       0.049196035 -0.10417381 0.099877514 -0.014715485
000020 ce b3 d5 bd ab ef a0 bc
       -0.10434686 -0.019645533
