study17/model3.pth (torch, 587399 bytes, 10 tensors)

weight f4 [32, 3, 5, 5]
00000000: 8875 c6bd c0b5 2a3b 48fc 433d 9016 0f3d
00000010: 2401 3b3d 68a3 8b3c 70da 983c f116 a0bd
00000020: ca6b 9f3d d910 cbbd 00a3 d2bd f08f 7c3c
00000030: 584a 8c3c a8d2 a53d 847f 12bd e4be b6bc
00000040: 104d 24bc 2269 2fbd f4b1 803d 2b7e b3bd
00000050: eaa1 943d a8aa bfbc 80e5 bb3c 1a30 ea3d
00000060: 960a b93d 708f cd3c dc4f d63d 5ee2 9cbd
00000070: 9cf1 d8bc 3a73 be3d 3000 89bc 7688 ce3d
00000080: 0e02 c13d 3c02 7f3d aa48 36bd 18bb 9ebd
00000090: 3a20 94bd 9288 9cbd c813 b03d 2649 aabd
000000a0: 6e78 87bd d00f 45bc e4b0 64bd 8052 70ba
000000b0: 7039 27bd 7409 a83d 260e b33d 465e 4fbd
000000c0: 0650 42bd bc27 9dbc 3455 ccbd 7030 a1bd
000000d0: 3868 c53c a42e 2e3d 50c5 ef3b 4131 5ebd
000000e0: daff 4ebd b4de 713d 70bb e23c 9ce9 39bd
000000f0: a8cd 8e3d 30d2 633d 34fe 213d 5cfa 6d3d
00000100: b28e c13d ba14 a03d 0cf1 fabc 0606 933d
00000110: 1a9f 0bbd 36dc d23d de6e b23d d01f 223d
00000120: c8e9 f83c 90b6 b13d 6079 293c 7478 e7bd
00000130: 9414 89bd 002c cdbb d0cc d43b 78c3 f33c
00000140: 188e afbd f839 bd3d bee7 03bd be76 833d
00000150: 64d8 9e3d ba36 da3d a11d e1bd d667 a83d
00000160: 5093 66bc 5ce9 aabc 02b8 cf3d b2bd 0ebd
00000170: f8f1 513d c0cf f33b 2266 d2bd 8c11 ba3d
00000180: 5c87 763d 5843 03bc 50ca d73c 3622 d6bd
00000190: c4e6 d63d 00cc a33d 8e9b 863d 10f6 c03b
000001a0: 600b d8bb b079 2abd 04b9 37bd 18ba a53c
000001b0: 0438 dfbc c71d cfbd a690 76bd 34d6 81bd
000001c0: 620b 913d 9178 d3bd acd0 c03d f050 d33d
000001d0: e07b b0bd 9a98 35bd b8e9 653d 8609 02bd
000001e0: 7e6c eabd ea8c 903d 32d6 803d 0055 fdbc
000001f0: 2ec8 1abd 7085 1e3d d868 61bc 7ce2 4bbd
00000200: 689c 8dbd 8cde 12bd e056 103d e830 1fbd
00000210: c077 0bbc 5845 733d e8eb b93c 58a0 b53d
00000220: e0d0 963c a678 90bd 14ac 4c3d c075 a73b
00000230: ff96 6ebd 8ace dd3d 72db cfbd 0e34 b83d
00000240: 5e53 12bd 38bc 1ebc 40b7 8bbc 1f2d d1bd
00000250: f871 bbbd 0945 70bd 9cd2 72bd ba8d d73d
00000260: 007e c4b9 a2de 9c3d eeff 84bd 5c52 333d
00000270: 6011 45bb 0051 863b 9481 1c3d 1c07 8f3d
00000280: 6cce 353d f476 163d a247 aabd 3224 ad3d
00000290: 03bd bdbd 2437 0a3d 02cc 74bd b805 e13d
000002a0: c0dd d93c e0b3 de3c 5064 833b 43d3 76bd
000002b0: 044f b6bd d4f8 813d c051 a3bd 6042 1d3c
000002c0: 2e39 9fbd e701 66bd 30f8 90bb 700e d0bd
000002d0: 3099 ce3b f2f1 a5bd 20a0 b23c 63ea b5bd
000002e0: 12e8 ea3d 869e cd3d 86ec de3d 0037 433c
000002f0: e496 8b3d 14e7 213d 881a 3dbc 0849 6a3d
00000300: bc8d 99bc 02fa 15bd 5087 3a3d dcc3 523d
00000310: 50de e03c 7076 7c3d b0ff 3b3c 982b 8e3d
00000320: 90e2 b0bc 802b d8bd 10d9 f9bc 76c7 d23d
00000330: c89a 35bd 4c65 503d fd98 bcbd 0ce4 013d
00000340: 585c 363d 5f9b cabd a8e3 80bc 9cd8 c1bc
00000350: 0c67 6d3d 8b1d cebd c841 023d 7830 423d
00000360: 6f91 dcbd 7c53 a73d 7a6b 833d beff dd3d
00000370: 003d c13b 74a0 883d 2c3d e5bd 2ee7 e5bd
00000380: c89e 2bbd 8ca0 a9bd 989f b53d e2cc 93bd
00000390: c837 d93d 58b7 91bd 605a 7f3d 6e6d a5bd
000003a0: be9d a1bd 6cea 9c3d ceaf 24bd 64e8 b83d
000003b0: e0d8 53bb 908e 5f3c f611 d2bd ac9c d53d
000003c0: 079e c5bd 48ef ebbd 805d 853d 287c 893c
000003d0: cc81 dbbc eeef b93d 88ba 5e3d cc65 dabd
000003e0: 280c 3abc 4472 6c3d b495 b7bd 60bb cc3b
000003f0: c447 b6bd f429 a0bd 8c26 7f3d 2846 a53c
-0.09690386 0.0026048273 0.047848016 0.034933627 0.045655385 0.017045692 0.018658847 -0.07816876
0.07784231 -0.09915323 -0.10284996 0.015415177 0.017125294 0.0809682 -0.03576614 -0.02230782
-0.010028139 -0.04282487 0.06283942 -0.08764299 0.07257445 -0.023396805 0.022936583 0.11434956
0.09035222 0.02509281 0.10464451 -0.076603636 -0.026482396 0.092993215 -0.016723722 0.100846216
0.0942422 0.06225799 -0.04450289 -0.07750529 -0.07232709 -0.07643236 0.08597523 -0.08314733
-0.06614767 -0.012027696 -0.05583276 -0.0009167567 -0.04082626 0.08204928 0.08742933 -0.050627016
-0.047439598 -0.019183986 -0.09977189 -0.07870567 0.024097547 0.04252495 0.0073172227 -0.05424619
-0.050536968 0.059050277 0.027677268 -0.045388803 0.069728196 0.055620372 0.039549068 0.05810009
0.09451045 0.07816453 -0.030632518 0.07178883 -0.034087278 0.10295908 0.087125525 0.03958112
0.030384913 0.08677399 0.010343879 -0.113022715 -0.06693378 -0.0062613487 0.006494142 0.029756293
-0.08572024 0.09239572 -0.03220343 0.06419133 0.07756117 0.106549695 -0.109919794 0.0822293
-0.014073208 -0.020863228 0.101425186 -0.034848876 0.05125615 0.007440537 -0.102733865 0.09085378
0.060187683 -0.0080116615 0.026341587 -0.10455744 0.10493234 0.07997894 0.065726385 0.005888708
-0.006593153 -0.041619956 -0.04485418 0.020230338 -0.02724839 -0.101131015 -0.06019654 -0.06339684
0.07082249 -0.103257306 0.09414801 0.10318172 -0.08617377 -0.044334985 0.056131095 -0.031747364
-0.114464745 0.07058127 0.062908545 -0.03092432 -0.037788562 0.038701475 -0.013757907 -0.04977654
-0.06914598 -0.03585677 0.0352391 -0.038865 -0.008512437 0.059392303 0.022695497 0.08868474
0.018410146 -0.07054262 0.049968794 0.0051104724 -0.05824947 0.1083041 -0.10149278 0.08994304
-0.035724036 -0.00968843 -0.017055154 -0.10213684 -0.09152597 -0.058659587 -0.059282884 0.10525079
-0.0003747791 0.07659651 -0.06494127 0.043779716 -0.003007017 0.0040990114 0.038209513 0.06983778
0.044386312 0.036734536 -0.08314444 0.08454169 -0.09264567 0.033743992 -0.05976487 0.10987419
0.026594996 0.02718538 0.004009761 -0.06026007 -0.0890179 0.06346288 -0.07974577 0.009598345
-0.07774578 -0.056154158 -0.0044241175 -0.10159004 0.0063048825 -0.08102788 0.02180487 -0.08882596
0.11470045 0.100400016 0.10884957 0.0119149685 0.068158895 0.039527014 -0.01154197 0.057198554
-0.018744342 -0.03661538 0.0455392 0.051456317 0.027449757 0.06163639 0.011474535 0.069419086
-0.021592408 -0.10555172 -0.030499011 0.102919504 -0.044337064 0.050877854 -0.09208868 0.031711623
0.04452166 -0.09892916 -0.015733555 -0.023662858 0.0579596 -0.100642286 0.031801015 0.047409505
-0.10769927 0.0817022 0.06416984 0.108397946 0.0058971643 0.06671229 -0.11193308 -0.11225735
-0.041899472 -0.08282575 0.08868331 -0.07216813 0.106063426 -0.07115048 0.062342048 -0.08077513
-0.07891415 0.076619 -0.040206723 0.090287 -0.0032325312 0.013644829 -0.10257332 0.104302734
-0.09649282 -0.11520249 0.06511974 0.016782835 -0.02679529 0.09078966 0.05437711 -0.106639475
-0.011355437 0.05772616 -0.089641005 0.006247923 -0.08900407 -0.07820502 0.06229262 0.020175055

bias f4 [32]
00000000: 601b 94bb 4a87 51bd 5873 753d 6e55 a23d
00000010: 607c 033d 2d6b 5fbd 30fe 3c3d d026 ec3c
00000020: a022 d2bd 84b9 c33d 6723 70bd 4cc7 a13d
00000030: 1f05 e6bd dc70 b83d f519 e1bd 4ae4 1abd
00000040: be17 33bd f8da 6a3d 1014 753c ea0a 6ebd
00000050: 28e0 a2bc 4310 dbbd 524c 7bbd b095 09bd
00000060: bd1c ccbd 58d5 0c3d 6ffb 80bd 9070 51bc
00000070: 7313 b9bd a8be ef3c 972c cebd d0d4 1b3c
-0.004519865 -0.051154412 0.059924453 0.07926451 0.032101035 -0.05454557 0.04614085 0.028827101
-0.102605104 0.09556869 -0.058627512 0.07899341 -0.112314455 0.09005901 -0.10991279 -0.03781537
-0.043723814 0.05733773 0.014958397 -0.058115877 -0.019882277 -0.10696461 -0.06135208 -0.03359002
-0.09966419 0.034383148 -0.06297957 -0.012783185 -0.09036913 0.029265717 -0.100670986 0.009511188

weight f4 [32, 32, 5, 5]
00000000: a14e 0dbd 62c3 08bd 4aec a43c 4020 e5bc
00000010: 4823 eebb d899 debb 00c9 89b9 ca01 e7bc
00000020: e040 b63a 9081 2f3b 60ad 6fbb 76bb 0ebd
00000030: 6012 a43c 86ec a43c 26f9 e63c 9436 5b3c
00000040: a08c 77bc 8453 cfbb 873c 04bd 621c fc3c
00000050: 28bd 4c3c 94c9 0ebd 9776 10bd 5abc 893c
00000060: c072 99ba 0f31 80bc 6cb3 6d3c e60d e9bc
00000070: f0ad 48bb 587d 03bd 3a68 fb3c 5c10 91bb
00000080: 4079 0cbb be50 03bd eab6 bb3c 88c6 a8bb
00000090: 43ea dcbc cca1 8a3c 5182 9cbc eab1 ae3c
000000a0: c844 c63c 9055 6bbb c067 06bc 8279 b33c
000000b0: 4c68 473c 606f 68bb ffdd 00bd c089 243c
000000c0: 71f5 003d d44d 573c 6e41 bebc eeec e73c
000000d0: aae0 bb3c c607 cd3c 0d21 96bc a317 8cbc
000000e0: 8c70 8cbc c0ea c03c ac38 92bc 884c 4a3c
000000f0: 505b 1abb 9cde efbb 8587 0dbd 1c17 47bc
00000100: 43ef debc a8e8 813c f873 973c 9c8b cdbc
00000110: 5c85 6e3c 0ae6 cfbc 605c 1d3b 8017 bcbb
00000120: 84f5 283c 57c5 093d ab33 a6bc 7210 fd3c
00000130: 85cc f0bc 008a 08ba 9084 a63c f2c7 2dbc
00000140: 18da c83b b8a5 7b3c 45da 053d 22c8 26bc
00000150: cd01 b0bc 5c3a 6cbc 38e3 9dbb 00f4 b23b
00000160: 3f24 093d c4d0 afbc d802 f03b 1830 f3bb
00000170: 9ec3 aabc 2e5a 863c c437 aabc 8448 d93c
00000180: d19a 88bc fbe4 e2bc f0b8 4e3c 8c47 a5bb
00000190: 40a7 b93a 8877 debc d438 9c3c f90d aebc
000001a0: cc00 8c3c 7833 303c 5c1c 6c3c c07e 933b
000001b0: 5c92 47bc a48e d8bc 5eb2 81bc 4688 a63c
000001c0: 7ab9 b33c 7473 06bc c631 ec3c e875 ea3b
000001d0: 3abe ef3c 12ef 08bc dc89 8e3c beb2 db3c
000001e0: a0e8 2c3b 00ba 7439 a0b1 603c f643 57bc
000001f0: 00bb 743c c29a b0bc 65da 033d 5851 91bb
00000200: 7c19 b43c 7004 673b 4c41 b03c 996f 033d
00000210: 6640 5ebc b6bb 7cbc fe6b d23c e2da c73c
00000220: 6a4c a93c 8004 1d3b 0098 7fbb 851e 063d
00000230: fc9e da3c e8c4 ba3b 85bc f2bc 262e f13c
00000240: d0ad 7fbb b130 033d 48a1 a73b a2fc 4dbc
00000250: 3e0e 74bc 8041 d4ba b44a b33c a0ce 7f3c
00000260: 8e3e bd3c 385a 943b 32f9 64bc 40a5 983c
00000270: 33ed efbc 873c 043d c05a 1e3c 8085 733b
00000280: 78c2 53bc 3439 393c e0ae 5cbb 0038 43b8
00000290: acee 383c 346a a03c 267c 0fbc 96c1 05bd
000002a0: b598 e6bc 63af 073d eca2 513c b7c4 033d
000002b0: 606d 613c c8ed 77bc b017 43bb 0ad2 b93c
000002c0: dc5d 98bc c6e6 71bc f86e d93c 30f1 243b
000002d0: c339 e4bc ec16 dc3c 4480 bbbc 6c9c 0bbd
000002e0: 2855 d83b f89f 0cbd 6628 66bc 1036 46bb
000002f0: f609 afbc 903c d23b f0e0 0e3c a0bd 923b
00000300: fcec 23bc 0013 aa3a 02ab 20bc 6886 ac3c
00000310: 265b 0bbd dc79 403c 0f08 babc 600e a63a
00000320: c097 4cba b606 cd3c 30d8 0ebd 4017 603a
00000330: 9178 003d 0096 2eb9 f8be bd3c 3876 68bc
00000340: c879 d6bc 8801 d83b 99a1 09bd 3ec7 f73c
00000350: 96f9 f43c 72bc cd3c 68a1 943c caf6 e1bc
00000360: 7a75 853c 35bd 103d 6832 983b 500b 793b
00000370: ebf3 81bc 4a6b 09bc 50a4 a93b 7a76 c83c
00000380: a0c6 5c3b dae2 55bc eed3 f93c a4e5 993c
00000390: 0f69 073d b06a 0d3c d447 e3bb ec18 ad3c
000003a0: 2007 8fba 4029 99bb d8f5 bfbb 0881 39bc
000003b0: 8078 ae39 b7f6 d1bc 78ad b83c f094 d33c
000003c0: aead 02bd 9d41 e1bc d83e b9bc 7812 d5bc
000003d0: 819d 093d f051 2cbc b431 c13c 6c85 aabc
000003e0: 2430 e9bc a0e4 8e3b 00eb 593b 9eb4 8b3c
000003f0: e24d 70bc 1298 803c e833 92bc 7a33 893c
-0.034498814 -0.033389457 0.020132203 -0.02796948 -0.0072673894 -0.006793242 -0.00026280433 -0.028199095
0.0013904832 0.0026780106 -0.0036571845 -0.034846745 0.020028293 0.020132314 0.028194975 0.013379712
-0.015109211 -0.0063270945 -0.032284286 0.030775253 0.01249627 -0.03486021 -0.035269346 0.016813446
-0.0011707172 -0.015648393 0.01450811 -0.02844901 -0.0030621253 -0.03210196 0.030689348 -0.004426999
-0.0021434575 -0.032059424 0.022914369 -0.00515062 -0.026967173 0.016922854 -0.019105108 0.02132507
0.02420272 -0.0035909154 -0.008203447 0.021908525 0.012170862 -0.0035466775 -0.031461712 0.010042608
0.03148407 0.013141114 -0.023224559 0.028311219 0.022934277 0.02502812 -0.018326307 -0.017101115
-0.01714351 0.023549438 -0.017849289 0.012347348 -0.0023552962 -0.0073202383 -0.03455307 -0.012151506
-0.027213698 0.01585801 0.018487915 -0.025090985 0.014558163 -0.025378246 0.0024011359 -0.005740106
0.010312442 0.033635464 -0.02028831 0.03089163 -0.029394398 -0.0005208552 0.020326883 -0.010606753
0.0061295144 0.015359335 0.03267886 -0.010179551 -0.021485234 -0.014418211 -0.0048183464 0.005461216
0.033481833 -0.021461852 0.0073245578 -0.0074215047 -0.02084523 0.016400423 -0.020778544 0.026523836
-0.016675385 -0.027697077 0.012617335 -0.0050439294 0.0014164224 -0.027156606 0.019070067 -0.021246897
0.017090224 0.010754459 0.014411058 0.0045011938 -0.012180891 -0.026435204 -0.015832122 0.020328652
0.021939028 -0.008206237 0.028832328 0.007155169 0.029265512 -0.00835778 0.01739972 0.02681863
0.0026383772 0.00023338944 0.013714224 -0.013138762 0.014937162 -0.02155817 0.0321907 -0.0044347458
0.021984808 0.0035250448 0.021515511 0.03208885 -0.0135651585 -0.015425613 0.02568626 0.024396364
0.02066632 0.002395898 -0.0039000511 0.03274395 0.026687138 0.0056997426 -0.029630909 0.02944095
-0.0039013512 0.032028858 0.005115662 -0.012572439 -0.014895974 -0.0016193837 0.021886207 0.015613228
0.023101117 0.0045273565 -0.013975428 0.018633485 -0.02928791 0.032284286 0.009665191 0.003715843
-0.012924783 0.011305142 -0.003367357 -4.6543777e-05 0.011287373 0.019581892 -0.008757627 -0.03265532
-0.028148988 0.033126246 0.012795191 0.032170024 0.013758987 -0.015132375 -0.0029768758 0.022683162
-0.018599443 -0.014764493 0.026542172 0.0025168173 -0.027859574 0.026866399 -0.02288831 -0.034084722
0.0066019483 -0.034332246 -0.014047718 -0.0030244626 -0.021367054 0.006415911 0.0087206215 0.0044781715
-0.010005232 0.0012975633 -0.009806396 0.021060184 -0.034022473 0.011747804 -0.02270892 0.0012669079
-0.0007804595 0.025027614 -0.03487414 0.00085483864 0.03136498 -0.00016649812 0.02316235 -0.014188342
-0.026181117 0.0065919794 -0.033601377 0.030246373 0.029904168 0.025114272 0.01814337 -0.027583499
0.016291369 0.035336692 0.004644681 0.0038001128 -0.01586338 -0.008387396 0.0051770583 0.024470557
0.0033687726 -0.013054574 0.030496564 0.018786259 0.033059176 0.008631393 -0.006936053 0.021130048
-0.0010912158 -0.004674107 -0.0058581643 -0.011322267 0.00033277646 -0.025630338 0.022543654 0.025827855
-0.031903915 -0.027497107 -0.022612974 -0.026009783 0.033597473 -0.010517582 0.02358327 -0.020815574
-0.028465338 0.0043607503 0.0033251643 0.017053898 -0.014667006 0.015697513 -0.017847016 0.016748179

bias f4 [32]
00000000: c0ff b93c e00d 4a3c ec61 66bc 5218 7fbc
00000010: 3088 fc3b 82eb 983c e5a4 0a3d 85f0 fdbc
00000020: bf0e 96bc 0233 26bc 3eea fd3c b8cd 9dbb
00000030: ca06 95bc b762 083d 80ad a139 00dd 2539
00000040: fb09 0ebd 42eb e2bc 9192 01bd af20 92bc
00000050: cc1b 103c 2d3b 81bc cc1c a23c b234 8ebc
00000060: beb8 fc3c 6d41 083d c066 52bc c1dc 0fbd
00000070: f01f 773b 809a bdbc c741 0abd 5c62 443c
0.022704959 0.01233241 -0.014061432 -0.015569763 0.0077066645 0.018666986 0.033848662 -0.030998478
-0.018317578 -0.010143997 0.030995484 -0.0048157834 -0.018191714 0.033297267 0.0003083758 0.00015817955
-0.034677487 -0.02770007 -0.031633917 -0.01783785 0.00879569 -0.015775288 0.019789122 -0.017359111
0.03084981 0.03326552 -0.01284188 -0.035122637 0.0037708245 -0.02314496 -0.033754136 0.011986341

weight f4 [64, 32, 5, 5]
00000000: c232 e83c 247f 103c 3988 043d 102d 2abc
00000010: 8866 babc 807a ecb9 dcb3 0fbd a8e1 563c
00000020: 6420 3c3c f08f 2c3c f49e 88bb 84fb 483c
00000030: 5849 683c 003e e4bb 69bb 043d cc96 833c
00000040: 8437 1f3c 4e7e d53c 68c7 5e3c 8c9e d43c
00000050: 1cd7 7abc e0bc c63b 8c83 85bc e19e 0d3d
00000060: 9ccd 523c 8553 0e3d bbe6 033d f01e ffbc
00000070: 1cfd 8d3c 188a eabb 8712 0bbd e0aa 1b3c
00000080: b87b 883b 463b c13c aab7 813c 9e4a a33c
00000090: fe3e a4bc 90b8 613c 60e4 af3a 5d37 84bc
000000a0: d07c 6fbc 04cb 373c e39a dfbc 25af 87bc
000000b0: 0f05 0bbd f74e e5bc 8e1b f2bc 5e46 7abc
000000c0: e42a 9e3c 019c dabc e23e e83c 002f f639
000000d0: d41c a83c da47 5ebc 16ed 8bbc 4e7a 89bc
000000e0: 600d 2abb 56ca b1bc b09f 0cbd c22a e33c
000000f0: 1443 133c fe42 853c 9482 dc3c c2f2 babc
00000100: f848 153c 6a54 e43c 4d92 0b3d ebcc 003d
00000110: 60a0 893b e8bd c1bc d4ea 623c 962c cabc
00000120: 6097 383c 3c17 013c f06e 96bc 1024 cbbb
00000130: e050 9dbb 4891 403c ec4b f0bb 00b0 8338
00000140: f490 943c a047 8d3b c6b9 a4bc b9d5 80bc
00000150: 409d 09ba c07c 40bc a0ce a73b 2cc7 87bc
00000160: 4939 e3bc debe da3c 0834 e73b 51dc 0a3d
00000170: 9481 5f3c c29c c03c 603a 4e3c cab1 eabc
00000180: 8009 a5ba 0de5 e3bc 406d d0bb d8f8 d03c
00000190: 804c d2b9 a05e e4ba a08b c73b 219c 82bc
000001a0: 1b17 003d 86da 96bc 4b6b babc be62 e7bc
000001b0: d986 f7bc ee74 f03c c841 c3bc 864f 47bc
000001c0: 48c5 223c 4a42 3dbc 5078 123c e639 f63c
000001d0: ca44 f33c 7c8f 963c 3ef6 d53c b638 fe3c
000001e0: 183f b23c d862 a23b 67c0 033d d061 48bb
000001f0: aa05 84bc 7248 b33c 0a4b e43c 968c 74bc
00000200: f093 17bc 4072 843c 75d3 0a3d c627 fd3c
00000210: 887c 1f3c 72e0 aabc 7a1b 59bc 8087 c03a
00000220: 684c b93b 9eae e23c c016 27ba 94cb b83c
00000230: d03c 73bb aab1 a0bc 4eea f53c 8f6c b9bc
00000240: 948c 04bd 18de f23b 3438 e9bc 48e0 a1bb
00000250: 1026 ff3b 60b9 b13a 26ed 943c 60b0 6f3b
00000260: 4ec8 72bc 4c1a 90bb 6808 883b 007b 5e3a
00000270: d0a6 933b 7c26 8e3c 5d10 a9bc 6c85 203c
00000280: 089e 8c3c 0d06 e8bc ad01 093d 98f1 6d3c
00000290: 2692 dc3c 89e7 aabc 70cd b2bc ad97 eebc
000002a0: e426 0abd 38e3 2a3c 5473 d9bc b8b0 9bbb
000002b0: 7e43 c7bc 1321 0b3d 1a9a e33c d4a6 6f3c
000002c0: 9894 a5bc 22c9 e7bc 2c5f 743c b835 993c
000002d0: f801 c33b 4013 b63a 7835 81bc 823a d23c
000002e0: 86fe cb3c 21b9 073d 7807 173c 88b9 253c
000002f0: 4496 0ebc 0085 4f3c 5ffa 97bc c0ad 17bb
00000300: 6536 0e3d 8e07 dbbc c04e 533c 00d6 ae38
00000310: 4d9a 093d 100d f8bc 1439 283c 73ce 02bd
00000320: e001 e7ba 3081 f7bb 54d7 6b3c be42 813c
00000330: 6049 ebbb 571d 0b3d e034 b23c 267a 18bc
00000340: 14f9 453c 222f 89bc 05b0 003d f0a8 20bb
00000350: f07d 7a3b 80b9 163a c03e 6bba 5e21 d13c
00000360: 18aa 6cbc 1a60 e13c c016 0fbd 26f2 04bc
00000370: 5ccb ebbc e0bd eb3b c875 053c 005a 9039
00000380: c054 323a 34d9 e8bb 52cd c8bc 0f13 08bd
00000390: 44a2 873c a06f 893c 3ef4 c6bc f065 343b
000003a0: 1e90 10bc 8452 643c 9b19 d9bc 50c1 503c
000003b0: 7ccf 883c 6214 8bbc b095 a13b 98c5 ee3b
000003c0: fcde a23c df39 053d 5061 10bd 80d9 8abc
000003d0: 9560 053d 2211 923c 64e1 a5bc 5267 ac3c
000003e0: 229a c43c 1246 e0bc 1a74 e73c b868 033c
000003f0: 6d89 b8bc 1887 a73b 9158 103d 00ed 86bc
0.028344516 0.008819375 0.032356475 -0.01038672 -0.022753969 -0.00045104697 -0.035083637 0.013115324
0.011482332 0.010532364 -0.0041693393 0.012266997 0.014177643 -0.006965399 0.03240529 0.016063116
0.009717826 0.026061203 0.013597347 0.025954507 -0.015310075 0.006064996 -0.016298078 0.034575347
0.012866404 0.03474762 0.032202464 -0.031142682 0.017332606 -0.0071575753 -0.033953216 0.009501189
0.004165139 0.023587834 0.015834648 0.019933041 -0.020049568 0.013776913 0.0013419501 -0.01613968
-0.01461716 0.011217836 -0.027295535 -0.016563008 -0.03394037 -0.027991755 -0.029554155 -0.015275566
0.019307561 -0.026685717 0.028350297 0.00046955794 0.020521559 -0.013566935 -0.017080825 -0.016781952
-0.0025947914 -0.021702927 -0.034331977 0.02773035 0.008988161 0.016267296 0.026917733 -0.022820834
0.009111635 0.027872283 0.03407507 0.031445425 0.0042000264 -0.023650125 0.013849933 -0.024679463
0.011266559 0.007879075 -0.018363446 -0.0061993673 -0.004800901 0.011753388 -0.0073332693 6.279349e-05
0.018135525 0.004311517 -0.020108115 -0.01572691 -0.00052495673 -0.011748493 0.005121067 -0.016574465
-0.027737277 0.02670234 0.007055763 0.033901516 0.013641734 0.023512248 0.01258716 -0.02864923
-0.0012591332 -0.02781918 -0.00636068 0.025509283 -0.00040111318 -0.001742322 0.0060896426 -0.015943589
0.031272035 -0.018414747 -0.02275624 -0.028245326 -0.030215668 0.029352631 -0.023835078 -0.012164956
0.009934731 -0.011551449 0.008939818 0.030056905 0.029695887 0.018378966 0.026118394 0.031032901
0.021758601 0.0049556307 0.03216591 -0.003057588 -0.016115982 0.02188513 0.027867813 -0.014926096
-0.00925158 0.01616776 0.033893067 0.030902755 0.00973428 -0.020858977 -0.01325118 0.001468882
0.0056548603 0.027671155 -0.00063739344 0.022558011 -0.0037115104 -0.019615967 0.030018952 -0.022634773
-0.03236063 0.0074117295 -0.028469183 -0.0049400665 0.00778652 0.0013559274 0.018179487 0.0036573634
-0.014818264 -0.004397666 0.0041513927 0.00084869564 0.0045059696 0.017352335 -0.020637685 0.009797435
0.017165199 -0.028323198 0.033448864 0.0145229325 0.026925158 -0.020862358 -0.021826476 -0.029125059
-0.033728495 0.01043015 -0.02654425 -0.004751291 -0.024324175 0.03396709 0.027783442 0.014627177
-0.020212457 -0.02829415 0.014915269 0.018702373 0.0059511624 0.0013891235 -0.015772566 0.025662664
0.02490164 0.033135537 0.009218089 0.010115035 -0.008702818 0.012665987 -0.018552003 -0.0023144335
0.034719843 -0.026737 0.012897193 8.336827e-05 0.03359442 -0.030279666 0.010267515 -0.031935167
-0.001762446 -0.007553242 0.0143946 0.015778895 -0.007180378 0.033963528 0.021753728 -0.009306466
0.012083311 -0.016746107 0.031417865 -0.0024514757 0.0038222037 0.00057496876 -0.0008973889 0.025528606
-0.01444485 0.027511645 -0.034933805 -0.008114373 -0.028783493 0.0071942657 0.008145757 0.00027532876
0.000680279 -0.0071059708 -0.024511967 -0.0332213 0.016556866 0.01677686 -0.024286386 0.002752658
-0.008823423 0.013935689 -0.026501467 0.012741402 0.016700499 -0.016977493 0.004931174 0.0072867386
0.019881718 0.032525893 -0.035249054 -0.016949415 0.03256281 0.017830435 -0.020249076 0.02104536
0.023999278 -0.027377162 0.028253604 0.008020572 -0.022526467 0.00511254 0.035240714 -0.016470432

bias f4 [64]
00000000: 643c f5bc 4cd8 bc3c 07f7 0c3d 8ddd b1bc
00000010: 68e5 883c dea7 9f3c a23d b53c d0f4 463b
00000020: 10f1 c83b b4d0 d9bb 608e 2bbb 50b3 a7bb
00000030: e46d 3f3c da1d 9f3c 5687 b1bc 3036 05bc
00000040: 6a95 de3c 7209 f03c 80c3 4aba 60f9 d4ba
00000050: 38b2 08bc 3c1d bbbc a9c6 07bd 00f2 d4b8
00000060: 004b 36bb c839 8bbc d01f dfbc c8ff b3bb
00000070: b2ea e13c f707 89bc 6eec edbc c8b0 173c
00000080: 2476 ad3c 24c0 aabb f942 f9bc b8ac e73b
00000090: aaf5 dabc fc80 0b3c 78dd a93b 2e90 893c
000000a0: 003b 52bb 944e 8f3c 29a1 0d3d 52ce bcbc
000000b0: c673 0dbd 3cc8 723c 361f ecbc c4c3 d2bc
000000c0: 3ac3 2bbc 304b 653b 8ee2 67bc 8a2d 0cbd
000000d0: 968a 873c d4cd 953c b091 993c 04cb 06bd
000000e0: c487 a4bb d04e 133c 161a b8bc e243 c33c
000000f0: 2d5d 02bd f700 0bbd e976 00bd 62a8 42bc
-0.029936023 0.023052357 0.03441527 -0.021712089 0.016710952 0.019489225 0.022124115 0.0030358322
0.0061322525 -0.006647194 -0.0026177391 -0.0051178113 0.011683915 0.019423414 -0.021670979 -0.008130595
0.027170856 0.029301379 -0.000773482 -0.0016248636 -0.008343272 -0.022841088 -0.03314844 -0.00010154024
-0.00278157 -0.016995326 -0.02723685 -0.005493138 0.027577732 -0.01672743 -0.029043403 0.0092584565
0.021174498 -0.005210893 -0.030427443 0.00707015 -0.02672847 0.008514639 0.005183872 0.016792383
-0.0032078624 0.017493524 0.034577522 -0.0230476 -0.03453424 0.014818247 -0.028823476 -0.025728114
-0.010483557 0.0034987442 -0.014153136 -0.034223117 0.016545575 0.018286623 0.018746227 -0.032908455
-0.0050210673 0.008990958 -0.022473376 0.02383608 -0.03182714 -0.033936467 -0.0313634 -0.011880966

weight f4 [64, 1024]
00000000: e00b fc3b 50a0 0fbc fa25 f9bc e6de b93c
00000010: 2c77 31bc e04d a13c a4d5 ecbc f0b1 e93c
00000020: 069a b13c 383e 423c 8020 803a 18e3 e03c
00000030: 06a5 9ebc 906c 5ebb 0cb6 dcbc b85b fabb
00000040: e049 ea3a 20ca c13a 707d 17bc 0e8f d13c
00000050: 4c3c 53bc 603d 9c3a 40ce c6ba a8a9 6c3c
00000060: f0b5 c83c d281 963c 780d f23b 449e fbbc
00000070: 0cc0 123c 40f9 173b 982f d9bb 6a62 c7bc
00000080: 22c2 adbc b0d3 6e3c 184f d03c 1261 9c3c
00000090: d2d0 eebc 08ff d6bb dce9 49bc ee56 b5bc
000000a0: be7f f43c 1a76 db3c 604a a1bb 4cab 5d3c
000000b0: 5c93 973c 443d 50bc 16c4 a13c 6ec1 f3bc
000000c0: d03b 273b d425 0e3c 40bb c6bc 7239 a2bc
000000d0: 20e4 bebb d61c 823c e8b5 d1bb d262 9a3c
000000e0: 7c1d e73c 0c94 e13c 2431 9abc 0cb3 c93c
000000f0: 4cdd da3c 88a3 ccbc c895 f73b dab3 e5bc
00000100: b867 c3bc 3c44 aa3c daea c0bc cab2 de3c
00000110: 00e2 9eb9 aa29 cebc ca4f c7bc 067f c53c
00000120: 6aa8 b13c f803 cbbc 905d c13b 50b1 783b
00000130: 98ef eb3c 0e6c 9d3c 3c9a 0dbc fcc2 ea3c
00000140: e8e5 933b dc2f 8b3c e022 a0bc 9af6 fcbc
00000150: cc60 3f3c 0495 653c 4408 b1bc b455 3abc
00000160: 4457 74bc 0058 b7b7 02dc f13c 202b 9b3a
00000170: 0010 9abc 104e ab3c 000d 9dbb 14a4 cfbc
00000180: 1acd 9bbc f0b5 113b de50 a23c 209a 163b
00000190: 6081 72bb c0e7 87bb 36e1 903c 0223 cebc
000001a0: e0bd c83c 6800 323c b2b6 d2bc e8f2 99bb
000001b0: dcf1 10bc 08dd 583c 6028 44bb 1e19 84bc
000001c0: c042 f23c b004 1b3b 24a3 f2bc ba13 94bc
000001d0: 6031 24bb 46d0 a43c 80e6 48bc 8a25 f73c
000001e0: c474 cfbc b607 a2bc c4cb 413c a476 9d3c
000001f0: 3c31 a83c dceb 653c 2ee7 b2bc 588a 13bc
00000200: 0030 5138 2842 653c 1878 09bc 06d5 a9bc
00000210: c829 7abc 1c1d 5bbc 76ae 9f3c fca3 21bc
00000220: 2c3f 133c c8c5 89bb 820e d4bc a621 ca3c
00000230: 809e a139 6c1e 1c3c a0f8 58bc 3ed9 d7bc
00000240: 4836 9b3c b4b3 06bc 20ae 0f3c 4c90 fa3c
00000250: 6262 9ebc bc4d 15bc 1c46 54bc bc7a fc3c
00000260: 00a8 f53a 52f7 cb3c b0e7 7abc fac3 9fbc
00000270: fc55 4ebc 14b4 8bbc 7063 093c b809 ea3b
00000280: 8455 273c e895 87bb c0be 5cba 6077 d6ba
00000290: d8ef ef3b 4456 fdbc 8c94 e1bc fe2c febc
000002a0: 4a47 c1bc 68c1 93bc a07b f93b 902f 06bb
000002b0: c082 9b3a 00fa 2db9 f496 94bc 98e1 0f3c
000002c0: a420 5d3c 50a6 4fbb 9ae8 9fbc 10db b4bb
000002d0: 0018 7f3b f8d6 fd3b d691 bfbc 60f6 f43c
000002e0: 381a 603c 98ac e5bc 5ea0 8a3c 584d 61bc
000002f0: fc07 3d3c 6836 efbb 301a b1bc 1838 87bb
00000300: 4876 f33c a870 b83c d4ae fb3c 4098 28bc
00000310: 00f0 8e3a 3e26 b9bc 8a2c 99bc 0c3c 0f3c
00000320: b805 413c cc44 c73c 2e8b efbc d8ab 9b3b
00000330: bc08 fa3c c08c d23a 00b4 b3bc 1000 163c
00000340: 8c61 123c 00f2 45bc c093 16ba 46cb f4bc
00000350: 08ea 473c fa64 d7bc 201f efba c022 be3b
00000360: 3c96 c03c 98ed 09bc 247d d83c 001e 4b3a
00000370: 240d a23c 0404 56bc 2c28 3cbc b4d3 863c
00000380: 084e cebc 0863 36bc 0c31 d5bc 08e6 aa3b
00000390: 6404 393c 44da e9bc 2036 9dbb 2053 533b
000003a0: 0a33 c13c caee b3bc d08f b13b 3e41 c53c
000003b0: 7098 d0bb 629e b7bc f284 eebc fce2 c6bc
000003c0: 5ae0 913c 0c90 c53c b0ee 56bb 50c6 2b3b
000003d0: 2630 8b3c b060 45bb b45e 27bc c08a cd3a
000003e0: 806d 82b9 b006 343c 6080 30bb b83f 573c
000003f0: b0d8 463b fa72 f33c 6c6f 27bc d8f2 953c
0.0076918453 -0.008766249 -0.030413616 0.022689294 -0.010831635 0.019690454 -0.028910466 0.02852723
0.02167989 0.011855654 0.0009775311 0.027452037 -0.019365799 -0.003393922 -0.026942275 -0.0076403283
0.00178748 0.0014784969 -0.009246215 0.02558091 -0.012892794 0.0011920147 -0.0015167668 0.014444746
0.024500817 0.01837245 0.0073868595 -0.030715115 0.00895692 0.0023189336 -0.006627988 -0.02433892
-0.021210734 0.014576837 0.02542834 0.019089255 -0.029152308 -0.006561164 -0.012323823 -0.022136178
0.029846068 0.026789714 -0.0049221963 0.01352961 0.018502884 -0.012709919 0.019746821 -0.02975532
0.0025517829 0.008676011 -0.02425921 -0.019802783 -0.0058255345 0.01588289 -0.0063998587 0.01884595
0.028212301 0.027536415 -0.01882226 0.024621509 0.02671685 -0.024980322 0.007555697 -0.028039861
-0.023853168 0.02078449 -0.023549486 0.027184863 -0.00030304492 -0.025166351 -0.024330039 0.024108421
0.021686751 -0.024782166 0.005901046 0.0037947483 0.02880077 0.019216564 -0.008642729 0.028657429
0.004513491 0.016990595 -0.01954788 -0.030879308 0.011680793 0.014012579 -0.021610387 -0.011372972
-0.014913384 -2.1856278e-05 0.029523853 0.0011838414 -0.018806458 0.020911247 -0.0047928095 -0.025346793
-0.019018698 0.0022233687 0.019813951 0.002298005 -0.0037003383 -0.0041475 0.017685514 -0.025163177
0.024504602 0.010864355 -0.025721882 -0.004698146 -0.008846726 0.013236292 -0.0029931292 -0.016125258
0.029572845 0.0023653917 -0.029618807 -0.018075813 -0.0025053844 0.020118844 -0.012261987 0.030169267
-0.025324233 -0.019779067 0.011828367 0.019221611 0.02053129 0.014033284 -0.02183875 -0.009005152
4.9874187e-05 0.013992824 -0.008390449 -0.02073146 -0.0152687505 -0.013373639 0.01949237 -0.009865757
0.008987229 -0.0042044856 -0.025885824 0.024674248 0.00030826405 0.0095287375 -0.013242871 -0.026348706
0.018946782 -0.0082215555 0.008769542 0.030586384 -0.019334022 -0.009112772 -0.0129561685 0.030820243
0.0018742085 0.024898205 -0.015314028 -0.019502629 -0.012593742 -0.017053641 0.008385524 0.007142272
0.01021326 -0.0041377433 -0.0008420758 -0.0016362481 0.007322293 -0.030924924 -0.027536653 -0.031027313
-0.023593564 -0.01803656 0.007613614 -0.0020475127 0.0011864528 -0.00016591698 -0.018138386 0.008781813
0.013496552 -0.0031684823 -0.019520093 -0.0055192783 0.0038924217 0.0077465735 -0.02338497 0.029902637
0.013678126 -0.0280364 0.016922172 -0.01375135 0.011537548 -0.007300187 -0.021618932 -0.00412656
0.029719487 0.022514656 0.030723013 -0.0102902055 0.0010905266 -0.022601243 -0.018697996 0.008742344
0.011781149 0.024324797 -0.02924117 0.00475071 0.030521743 0.0016063675 -0.021936417 0.009155288
0.00893439 -0.012081623 -0.00057440624 -0.029882085 0.0122017935 -0.026293267 -0.0018243529 0.0058024824
0.023509137 -0.008418463 0.02642686 0.0007748306 0.019781657 -0.013062481 -0.011484187 0.01645837
-0.025183693 -0.011132009 -0.026024364 0.00521541 0.011292551 -0.02854646 -0.004797712 0.0032245591
0.023583908 -0.02196445 0.005418755 0.024078961 -0.006365828 -0.02241439 -0.029116128 -0.024278156
0.017807174 0.024116538 -0.0032796077 0.0026210733 0.016990732 -0.0030117445 -0.01021545 0.001568161
-0.00024877116 0.010987923 -0.0026931986 0.01313775 0.0030341558 0.029717911 -0.010219436 0.018304273

bias f4 [64]
00000000: d41a f83c 0e9c 983c 90b2 963b 84dd 27bc
00000010: c805 fcbc 3a79 ba3c ec6a 8d3c 6c3e 0ebc
00000020: c0ac 773a 185b 59bc dc11 4dbc fa16 a23c
00000030: c891 7dbc 60a3 223b 48db 3c3c c41e 2f3c
00000040: 208b f33a 64fc e3bc 3c15 8f3c ca42 f6bc
00000050: e243 c33c 2028 393c 8034 90bb a074 e5ba
00000060: 5a69 953c c621 b53c 8056 493c de5d aa3c
00000070: 1c05 d1bc aa5a 8abc b80e 533c 3a54 b3bc
00000080: dcd6 da3c 7097 b63c 2a32 f43c 064c d43c
00000090: 0cd5 f4bc 5c67 b33c f6e8 bb3c 10e7 a1bc
000000a0: d0ed 773c 9023 573c 389c 9c3c aedc f73c
000000b0: 4e44 e4bc d063 f73c 2c13 373c 7258 debc
000000c0: 408a 26bb 106b d4bc 2877 d23b f08c 80bb
000000d0: e469 0a3c c09f a2bc f077 aabc 3408 4c3c
000000e0: 42e4 803c e8a5 67bc 2472 fbbc 8083 bf3a
000000f0: fcc7 60bc 48aa 9c3c fc9c 6cbc c46e c2bc
0.03028623 0.0186291 0.004598923 -0.0102456845 -0.030764475 0.022762883 0.017262898 -0.008681875
0.0009448044 -0.013266347 -0.012516465 0.019786347 -0.0154766515 0.0024816617 0.01152689 0.010688487
0.0018580891 -0.02783031 0.01746618 -0.030061144 0.02383608 0.01130107 -0.0044007897 -0.001750607
0.018238712 0.022110831 0.01228869 0.020796712 -0.025515132 -0.016888935 0.012881927 -0.021890748
0.026713781 0.022289008 0.029809076 0.025915157 -0.029886745 0.021899872 0.022938233 -0.0197635
0.0151323825 0.013131037 0.01911746 0.030256595 -0.027864601 0.030198961 0.0111740045 -0.027141783
-0.0025411993 -0.025929958 0.006422896 -0.003923051 0.008448098 -0.019851565 -0.020809144 0.012453128
0.015733842 -0.014138676 -0.030694075 0.0014611334 -0.013719555 0.019124165 -0.014441725 -0.023734458

weight f4 [10, 64]
00000000: 402c abbc d0d9 b13c 0010 aa38 f8b8 963d
00000010: 0042 8d3b 94f7 583d 9495 a83d c01d fb3b
00000020: fc67 1e3d 68b6 ef3d 500b 173c 8abc c5bd
00000030: a867 233d b4b6 523d 5057 a83c 1cb2 de3d
00000040: a0a7 3d3c 40ca 0b3b 9c34 1ebd 1e36 d8bd
00000050: 247c 55bd 6094 bf3d 4a7f ec3d 148a 783d
00000060: 6873 57bd 4489 963d 6443 aabd 205b 973d
00000070: 7c70 7e3d a208 cfbd 70e8 6c3d 8e3d f4bd
00000080: 9c4e b3bd 7287 d13d 10d1 52bc daec a93d
00000090: 56eb b5bd 6ed1 c03d 808c e2bc c0b1 e93d
000000a0: 3c06 293d 50ca 12bd 8a33 c93d 942a 283d
000000b0: fe4c d5bd c20f cabd 4a62 8fbd 3004 8fbd
000000c0: 5496 fbbd e49a aa3d 8c4e f7bd 04b9 f93d
000000d0: 9a1a e4bd 5810 ddbd 38b2 64bd 6ac9 dabd
000000e0: 0858 acbc 18b1 823c 24a9 47bd 30d6 a9bc
000000f0: 929f e1bd 0c51 753d d012 ebbd a02b 87bb
00000100: 8240 dabd a0b5 dcbb 7c30 57bd fc43 35bd
00000110: f403 98bd e824 533d 80f5 3ebd 34cf 453d
00000120: 4851 36bd a0a0 acbd 58d2 bd3c 4462 923d
00000130: 6083 bb3b 2414 073d 42ce c5bd 50e1 2f3c
00000140: 4876 0fbd e822 ed3c 6612 fd3d d04c b7bd
00000150: c8c2 eabd b6f5 ac3d ec31 963d 4094 25bd
00000160: 7464 85bd 982b ddbd 6c8a b4bd c80e 7b3d
00000170: 36b1 e9bd 3e76 8cbd 3c53 663d 0050 1839
00000180: b894 afbc 762a eb3d 481f 5d3d 0427 72bd
00000190: f4a0 ae3d a44b e13d 4437 7f3d 8839 8dbc
000001a0: 2e16 803d dcb2 1f3d 7249 f23d 4879 c43d
000001b0: 741a 66bd 4014 a33b 9023 7c3c 868f e8bd
000001c0: 1611 85bd 907c e03d dc74 f3bd 900d a53c
000001d0: 58f5 c1bd 7886 f23c 00ff 483d c065 123b
000001e0: 64e2 333d 7e58 e63d da79 ab3d 3005 d43d
000001f0: a066 25bc 2cb2 943d eefa 9c3d 981b 663d
00000200: fc23 a63d 6ce3 67bd d6d6 efbd 74d2 d83d
00000210: 003e 8cb9 d816 cb3d 9e19 933d 00e6 f1bd
00000220: 0400 f9bd ea9b 98bd 30b3 12bc 9001 bc3c
00000230: 701f 2c3c 60c6 8cbd 824d a6bd d241 e23d
00000240: e0ed 09bd 027e b7bd 6e12 963d a011 b13c
00000250: 90aa a7bd d843 7f3d a863 d03c 4a5c 9dbd
00000260: e8b9 103d 3060 2ebc c003 abbd 60b5 bc3b
00000270: a00a 803c 7011 5d3d 200a 8a3c 38e4 99bc
00000280: 8826 db3d 5231 ee3d 7ada c5bd 14bd 913d
00000290: 0a8a e7bd 7816 e1bc 00fc 66bd 0029 733a
000002a0: 34b6 953d 0413 08bd 18e8 693d d058 7c3d
000002b0: 7685 fb3d 10aa 7c3c 2c86 553d 70d9 903d
000002c0: 64b6 d4bd 0a9f 97bd 04c0 6dbd 7470 7cbd
000002d0: 741c bd3d ec27 0f3d 8eb8 903d 7825 d5bc
000002e0: 5c7e cfbd 8e8a 803d c0e2 76bd 4a84 c13d
000002f0: d8cd d43d 84ef a23d 3017 8abd b0a9 a93c
00000300: 34cb 17bd 5834 d93c ecec 2f3d f00f eebc
00000310: 9ca8 3d3d 68f2 1b3d 8a04 92bd 5030 d5bd
00000320: 3eab 8dbd 5416 233d 90d2 bebc 9678 dabd
00000330: ba15 f7bd a09f 833c 90ea 533d 00c3 01bc
00000340: bcc0 c4bd ded2 993d f6de 8d3d 004e c43a
00000350: 1a69 a6bd 889b 6e3d 9c45 1ebd 420b 9a3d
00000360: 88e4 b0bd 8482 ef3d 800d 24bb a88d 403d
00000370: c8b7 51bd e076 aabb c282 f23d 3015 9cbd
00000380: 7069 103d ce8a d63d 7848 d53c b05c 673c
00000390: 900e 903d d0d3 ca3d 0a89 e6bd ac08 8d3d
000003a0: 0c25 d63d 3eda d73d 10bf a33c 1886 713d
000003b0: b6c9 e4bd d233 b8bd f8a1 81bd 002f c4ba
000003c0: 201d 793c d418 d23d a080 9ebd 8caf ad3d
000003d0: 1409 acbd 7042 1dbd c875 bc3c aa76 ff3d
000003e0: 4219 e23d 34f8 a43d 5ab1 ad3d 0c1f 9ebd
000003f0: 2e5c 863d e0dc 64bc 7022 5e3d f245 cabd
-0.020895123 0.021710306 8.109212e-05 0.07359499 0.0043108463 0.052970484 0.08231655 0.0076634586
0.038673386 0.11704713 0.009219006 -0.096551016 0.039893776 0.05144377 0.020549446 0.108738154
0.011575609 0.0021330267 -0.03862439 -0.10557197 -0.052120343 0.09354472 0.11547716 0.060678557
-0.052600294 0.073504 -0.08313635 0.073904276 0.062118992 -0.101090685 0.057838857 -0.11925803
-0.08755228 0.10230912 -0.012867227 0.08297129 -0.088827774 0.094149455 -0.027654886 0.11410856
0.04126571 -0.03583747 0.098242834 0.04105623 -0.10415076 -0.09866287 -0.07001169 -0.069832206
-0.12284532 0.08330324 -0.120755285 0.12193492 -0.11137886 -0.10794133 -0.055834025 -0.10682948
-0.02103807 0.015953586 -0.04874529 -0.020732015 -0.11016764 0.059891745 -0.114781976 -0.0041250736
-0.10656835 -0.0067355186 -0.052536473 -0.044254288 -0.07422629 0.05154887 -0.046620846 0.048293307
-0.04451111 -0.08429074 0.023171589 0.07147649 0.005722448 0.032978192 -0.09658481 0.010734871
-0.03502491 0.028947309 0.12357025 -0.08950198 -0.11462933 0.08445303 0.073337406 -0.040424585
-0.065133005 -0.107993305 -0.088154644 0.061293393 -0.114107534 -0.068584904 0.056231722 0.00014525652
-0.02143322 0.11482708 0.05398491 -0.05911924 0.08526793 0.110007554 0.062308565 -0.017239347
0.062542304 0.038988933 0.11830415 0.09593445 -0.05617757 0.004976779 0.015389338 -0.113555
-0.064973995 0.109612584 -0.118875235 0.020148069 -0.09470624 0.029605135 0.049071312 0.002233848
0.043917075 0.11247347 0.08372851 0.10352552 -0.0100952685 0.07260546 0.076650485 0.05617866
0.08112332 -0.05661337 -0.117108986 0.10587016 -0.00026749074 0.099164665 0.071826205 -0.11811447
-0.12158206 -0.07451613 -0.008953854 0.022949964 0.010505542 -0.068737745 -0.08120252 0.110477105
-0.03367412 -0.08959581 0.07327734 0.02161485 -0.08186829 0.06232056 0.025438145 -0.07683618
0.035333544 -0.01064305 -0.08350325 0.0057589263 0.015630066 0.053971708 0.016850531 -0.018785581
0.10700709 0.11630501 -0.09660812 0.07116142 -0.11305626 -0.027476534 -0.05639267 0.0009275824
0.07310143 -0.03322126 0.057106107 0.061608136 0.12281315 0.015421405 0.05212991 0.07072723
-0.10386351 -0.07403381 -0.05804445 -0.06163068 0.09233943 0.03495018 0.07066451 -0.026018843
-0.10131523 0.06276427 -0.06027484 0.0944906 0.10390824 0.0795584 -0.06742704 0.020710796
-0.037059024 0.026514217 0.042950556 -0.029060334 0.046303377 0.038072973 -0.07129772 -0.104096055
-0.069174275 0.039816216 -0.023293763 -0.10667531 -0.12064691 0.016067326 0.051737368 -0.007920027
-0.09607074 0.07510923 0.06927292 0.0014976859 -0.08125515 0.058253795 -0.038640603 0.075216785
-0.08637339 0.11694816 -0.002503246 0.047010094 -0.051200658 -0.0052021593 0.11841346 -0.07621229
0.035256803 0.10475694 0.026035532 0.0141212195 0.070340276 0.09903681 -0.11256607 0.0688642
0.10456285 0.10539673 0.019988567 0.058965772 -0.11171286 -0.08994259 -0.06329721 -0.001496762
0.015204698 0.10258642 -0.07739377 0.084807485 -0.08400169 -0.038393438 0.023005381 0.12473805
0.11039974 0.080551535 0.08481093 -0.077207655 0.06560551 -0.013968676 0.05423206 -0.09876622

bias f4 [10]
00000000: 92e0 e6bd dc64 29bd 905a aabd 4c51 fabd
00000010: 7ecd cabd c0f3 febc 0235 8bbd 4cdb 05bd
00000020: a0f2 bfbb b0b7 dd3d
-0.11273302 -0.041355953 -0.08318055 -0.122225374 -0.09902476 -0.031122088 -0.0679722 -0.03267984
-0.0058577806 0.10826051
