study17/model2.pth (torch, 585095 bytes, 10 tensors)

model.0.weight f4 [32, 3, 5, 5]
000000 b6 bf ab bd 23 e2 c9 bd ca 52 a3 3d aa ce 8e 3d
       -0.08386175 -0.09857585 0.07974775 0.06973012
000010 73 2c a7 bd aa 79 dd 3d 34 92 ac 3d e6 86 8e 3d
       -0.08162775 0.10814221 0.084263235 0.069593236
000020 48 2c c2 3c 44 34 09 3d 20 e4 6c bb fc 51 52 bd
       0.023702756 0.03349711 -0.0036146715 -0.051347718
000030 3c d9 a8 3d 10 23 bd bd 9a b8 68 bd d0 77 39 bd
       0.08244559 -0.09235203 -0.056816675 -0.045280278
000040 5e f7 91 bd 50 8b d9 bd b8 4f c1 3d 60 e2 4e bd
       -0.0712726 -0.10622275 0.09439033 -0.050508857
000050 a2 78 bc bd 6c bd 01 3d 08 65 5e 3d bc 84 68 3d
       -0.092026964 0.031674787 0.05429557 0.05676721
000060 6e 92 cc bd 50 3e a5 bc d4 a6 d5 3d 20 13 40 3b
       -0.09988867 -0.020171314 0.104322106 0.0029308274
000070 b2 d2 bb bd c0 ba 10 3c 2e 7a 58 bd 1e 35 db 3d
       -0.09171046 0.008833587 -0.052850895 0.10703491
000080 0a 44 24 bd ec b8 a8 bd 80 ce c7 bd 2e 87 c2 3d
       -0.04010395 -0.08238396 -0.097561836 0.0949844
000090 70 d2 b6 bc a8 43 0f bc 38 f2 88 3c be 07 e4 3d
       -0.022317141 -0.008744158 0.016717061 0.11134289
0000a0 50 fc 93 bc 2a 63 32 bd f8 40 f2 bc f8 c3 91 bd
       -0.018064648 -0.0435516 -0.029571995 -0.07117456
0000b0 84 c4 94 bd 20 d5 a9 bc 3c d8 dd bd 5c bc bc bc
       -0.07264045 -0.020731509 -0.10832259 -0.023039035
0000c0 c0 0c 78 3c 66 58 af bd 73 4b e4 bd f8 66 ee bc
       0.015139759 -0.085617825 -0.11147203 -0.029101834
0000d0 ab 21 a4 bd 46 ed 92 3d d0 24 46 3d be 5e c9 3d
       -0.08014234 0.071741626 0.04837495 0.09832524
0000e0 fc 84 83 bc 08 a1 40 bd de f1 82 bd 16 a4 c0 3d
       -0.016054623 -0.04702857 -0.06393789 0.09406297
0000f0 c8 e2 8c 3c da 69 b3 bd 04 d9 40 3d 5c 5c 6b 3d
       0.017197981 -0.08760424 0.047081962 0.057461128
000100 6c c7 c3 bd 04 fd 06 3d 36 9f 46 bd c4 60 10 3d
       -0.09559521 0.03295614 -0.04849168 0.035248533
000110 a4 df 8d 3d 30 95 59 3c f7 21 9f bd 7a ee ce 3d
       0.06927422 0.013280198 -0.0777015 0.101040795
000120 ac f7 89 bd 14 eb 13 3d a0 91 a9 bd e9 64 dc bd
       -0.06736693 0.03611286 -0.08279729 -0.107614346
000130 fc 57 d6 3d 24 4f 7c 3d 7a 96 92 3d 00 c8 bb b8
       0.104660004 0.061598912 0.071576074 -8.954108e-05
000140 48 b3 9b bd 48 f5 a5 bd 66 f5 8b bd d0 cc 45 3c
       -0.076025546 -0.08103424 -0.068339154 0.012072757
000150 fa d2 15 bd 20 c2 33 3d d8 7d 94 3c 42 a3 4e bd
       -0.036578156 0.043886304 0.018126413 -0.050448664
000160 b0 15 cf bc 88 24 b7 bd 28 12 00 3d 3b 92 b5 bd
       -0.025278896 -0.08942515 0.031267315 -0.08865782
000170 60 52 3e 3d a2 fe d9 3d 7d 78 c9 bd 70 f1 ec 3c
       0.046465278 0.106442705 -0.098374344 0.02892372
000180 e9 c2 8a bd 42 b0 6d bd c5 73 8f bd 80 37 19 3d
       -0.067754574 -0.05802942 -0.07004503 0.037406445
000190 7e 88 2b bd c8 50 fe 3c ec 9d 39 bd a0 de b9 3d
       -0.041878216 0.031044379 -0.04531662 0.090756655
0001a0 90 7d b0 3b b4 92 9d 3d 56 91 ce bd 54 f3 7b 3d
       0.005386062 0.07693997 -0.100863144 0.061511353
0001b0 a8 a2 31 bc 00 c4 50 3c fb 6e 66 bd 00 d9 00 3b
       -0.010842003 0.012742043 -0.056258183 0.0019660592
0001c0 88 4e aa 3d 3c 8f e7 3d 34 43 85 bd cc 4b ac bd
       0.0831576 0.11306617 -0.065069586 -0.084128946
0001d0 6a 41 88 bd d0 fc de 3c bc 91 dc 3d 8a c8 a0 bd
       -0.06653102 0.02722016 0.10769984 -0.0785075
0001e0 f0 41 25 3c 90 9d c6 3c e8 a1 b6 bc 40 57 c6 3d
       0.0100865215 0.024245054 -0.022294 0.0968461
0001f0 c8 72 a4 3d 4a 1d e3 3d 62 53 94 3d b4 26 b2 bd
       0.08029705 0.11089571 0.072424665 -0.08698788
000200 d5 fa d1 bd 48 06 1d 3d e0 0c e1 bd 48 f2 4d bd
       -0.102529205 0.03833607 -0.10988784 -0.050279886
000210 70 52 21 bd 48 fc 21 bd 2c a2 04 3d ce d5 7a bd
       -0.03938526 -0.039547235 0.03238122 -0.061239056
000220 44 71 78 bd d8 f0 6e bd 10 03 10 3d e8 69 73 3d
       -0.060654894 -0.058335155 0.03515917 0.059427172
000230 f6 2d bf bd 34 e0 1d bd 47 6e 8d bd 20 de ea 3c
       -0.09334938 -0.038543895 -0.06905799 0.02867037
000240 62 bc 98 bd e0 fc 99 bd e0 f8 4f 3b 40 a7 cd 3d
       -0.07457806 -0.07518935 0.0031734034 0.10041666
000250 cc 1e 07 3d 62 f1 96 3d c0 ab 92 bb 72 a3 8a bd
       0.032988355 0.07370259 -0.0044760406 -0.06769456
000260 00 8b 06 bd 80 1f 96 bd e0 64 2c bb 10 04 ed bb
       -0.032847404 -0.07330227 -0.0026305243 -0.0072331503
000270 f8 98 3a bc 9e 5a 82 3d 5e c9 86 bd 23 ee c9 bd
       -0.01138901 0.0636494 -0.065813765 -0.09859874
000280 e0 54 c0 3d 71 57 86 bd 70 02 9a bb 58 51 e5 3d
       0.093911886 -0.06559647 -0.0046999976 0.11197156
000290 8c d8 48 bd b0 61 1b bc b6 ea e7 3d a4 93 97 bd
       -0.04903464 -0.00948374 0.113240644 -0.07401207
0002a0 78 b5 cd bd 26 75 9a bd b0 32 c9 bb b2 06 bc bd
       -0.10044378 -0.075418755 -0.0061400756 -0.091809645
0002b0 2a ef 8b bd 80 fb 82 3c 80 a3 8d bd 95 43 7d bd
       -0.06832726 0.015989065 -0.06915951 -0.06183203
0002c0 f4 45 e2 3d d0 8e 7d 3c 40 ef 28 3b ac 87 90 bc
       0.11048499 0.015475944 0.002577737 -0.017642818
0002d0 a9 ef df bd ac b5 21 bd 19 7c b7 bd c0 ed c6 3c
       -0.109343834 -0.039479896 -0.089592166 0.02428329
0002e0 be dd 82 3d 04 39 71 3d 94 10 b3 3d 46 1a 41 bd
       0.0638995 0.058892265 0.087433964 -0.047144197
0002f0 67 9e d4 bd 80 44 20 bd 40 78 25 3b c0 e0 cb bc
       -0.10381775 -0.039127827 0.0025248677 -0.024887443
000300 70 d1 b8 3c 48 4d 19 bd 18 00 75 bc 64 ab ba 3d
       0.022560805 -0.037427217 -0.014953636 0.091147214
000310 f8 5e 40 bd 1a d7 b3 3d d0 31 b1 3c 60 2d 1b bd
       -0.04696557 0.08781262 0.021630198 -0.03788507
000320 b4 28 10 3d 70 fe 49 bc a6 73 8a bd 10 dd e7 bb
       0.035195068 -0.012328729 -0.067603394 -0.0070759133
000330 9c 02 5e 3d 10 55 39 3d bf 12 8d bd 98 b1 94 3d
       0.054201707 0.045247138 -0.06888341 0.07260436
000340 2a 1f ac 3d 78 e3 d6 3d 06 c5 d1 bd 44 86 c7 3d
       0.084043816 0.10492605 -0.10242657 0.09742406
000350 b1 71 ce bd f2 51 2c bd b0 21 fc bb b9 a2 ab bd
       -0.10080279 -0.042070337 -0.0076944456 -0.08380646
000360 46 fd a6 3d 64 08 83 bd c0 7b 74 3c 22 24 bc 3d
       0.08153777 -0.06398085 0.014922082 0.09186579
000370 c0 c8 86 3d 9c 97 47 3d c6 70 9c bd a9 bc 7a bd
       0.06581259 0.04872857 -0.07638697 -0.061215077
000380 98 8f e4 3d 3a 3c 87 bd 40 33 34 bb b4 3d 91 bc
       0.11160201 -0.06603284 -0.0027496368 -0.017729618
000390 a0 44 0d 3d c3 ad 7b bd 88 43 5f 3d c4 b0 cb bd
       0.034489274 -0.06144501 0.054507762 -0.09945825
0003a0 c2 8f d4 3d 98 4b 4a bd 4e e8 76 bd 2a 2f d3 3d
       0.10378982 -0.049388498 -0.060280137 0.1031173
0003b0 c0 48 79 3d 60 11 d3 3b d0 5f ec 3d 00 b2 24 3b
       0.060860395 0.0064412802 0.11541712 0.002513051
0003c0 e0 5c de 3c 9c f6 66 3d 1a 3f 3a bd 40 2f e0 bb
       0.027143896 0.05638753 -0.045470335 -0.00684157
0003d0 08 09 96 3d 74 ad db bd 3c ce f6 bc 90 e7 37 3c
       0.07325941 -0.10726443 -0.030127637 0.011224642
0003e0 d0 f8 ba 3d 8a 4d a5 3d a4 08 bb bd 58 4e b1 3c
       0.091294885 0.0807143 -0.091325074 0.021643803
0003f0 cd f5 e5 bd 5c 2e 6c 3d 3c 93 c7 bd ff ed 8f bd
       -0.112285234 0.0576614 -0.097448796 -0.07027816

model.0.bias f4 [32]
000000 c8 b7 06 3d 68 01 96 3c 30 f7 0b 3d 0c 00 28 bd
       0.03289011 0.018311217 0.034171283 -0.04101567
000010 72 0a e0 3d 30 e6 05 3d 7b 17 bc bd fa 45 84 3d
       0.10939492 0.032690227 -0.09184166 0.064586595
000020 d2 1d 24 bd 92 97 89 bd 3c 8a e5 3d d0 75 bd 3b
       -0.0400675 -0.06718363 0.11208007 0.0057818666
000030 62 79 e5 3d 84 8f da 3d 78 e0 bb 3d ee 4b 8f 3d
       0.112047926 0.10671905 0.091736734 0.06996904
000040 40 a3 84 3d 90 4f ab 3d 28 17 83 3c 32 19 e7 3d
       0.0647645 0.08364785 0.016002253 0.112841025
000050 bc 0c eb bd 30 65 15 3d 20 db 3f bd 00 1f 97 3d
       -0.11477038 0.036473453 -0.046839833 0.0737896
000060 36 74 cc 3d 21 8b 64 bd 52 54 2b bd 58 06 71 bc
       0.09983103 -0.055796746 -0.04182846 -0.014710985
000070 c8 4f 26 bc 02 fa d9 3d ef 8c df bd 36 46 9a 3d
       -0.010150857 0.10643388 -0.10915553 0.07532923

model.2.weight f4 [32, 32, 5, 5]
000000 a4 1c 3b 3c 40 fa f3 bc 98 89 94 3c 3e 6c bf 3c
       0.011420403 -0.029782414 0.018132016 0.023367044
000010 e8 b6 bb bb 18 9c ba 3c c9 b5 07 3d f3 7a 95 bc
       -0.0057285912 0.02277951 0.03313235 -0.018247103
000020 28 c6 fe 3b c8 a5 04 bc b9 5c 0b 3d 00 e7 22 3a
       0.007775087 -0.008096166 0.034023974 0.0006214231
000030 e3 92 06 3d d0 52 c1 3c b6 5e 3d bc d2 9e fa 3c
       0.032854926 0.023599058 -0.011558225 0.03059331
000040 24 2d ce 3c 10 09 25 bb 80 58 2d 3c 6a 8a 11 bc
       0.02516801 -0.0025182404 0.010580182 -0.008883098
000050 78 5b d5 3b a7 09 fa bc c0 ee 2c 3b a0 4b 38 3b
       0.006511148 -0.03052218 0.0026387423 0.0028121248
000060 be 32 c6 3c 0a 9c 00 bc 16 b8 0e bd 36 cb 1b bc
       0.024194118 -0.007849703 -0.034843527 -0.0095088985
000070 8e dd 82 3c e8 73 01 3c 4c 37 09 bd 1c ac e1 bc
       0.015974786 0.007901169 -0.0335 -0.027547888
000080 d5 47 e3 bc a8 bf 90 3b 1c 33 68 bc 3c f3 a7 bb
       -0.027744213 0.0044173785 -0.014172342 -0.0051254313
000090 21 29 94 bc 1b d4 0b 3d f8 bf 18 3c 1c be a5 bc
       -0.018086018 0.034137826 0.009323113 -0.020232253
0000a0 18 05 69 3c 56 ad 0a bd 02 02 f8 bc 96 f7 4c bc
       0.014222406 -0.033856712 -0.030274395 -0.012510201
0000b0 06 f9 c2 3c dc 3c a9 3c 2c f0 ca bc 66 ce de bc
       0.023800384 0.020658903 -0.024772726 -0.027198028
0000c0 62 3a d3 3c c4 7a 72 bc ee b0 2d bc f8 d8 ff 3b
       0.025784675 -0.014799777 -0.010601265 0.007807847
0000d0 90 51 bc bc 68 17 13 3c 1e 6d 5e bc 76 97 56 bc
       -0.02298811 0.008977748 -0.01357582 -0.013097635
0000e0 92 b4 9e bc 20 c1 ff ba f8 79 e0 bb ea 22 da bc
       -0.019373212 -0.0019512512 -0.0068504773 -0.026627976
0000f0 82 0d 04 bd b4 a2 be bb 0e 9b 31 bc 46 75 b5 bc
       -0.032239445 -0.0058177356 -0.010840191 -0.022150647
000100 02 ca d6 3c 06 98 b1 3c c0 db cc bb dd 01 08 bd
       0.026219372 0.021678936 -0.006251782 -0.033204902
000110 1e 9a 8f 3c 72 a7 83 3c fa a1 0d bd 86 6c 0b bd
       0.017529543 0.016071055 -0.0345783 -0.034039043
000120 00 a0 30 b7 d4 d6 d0 bb 5a 3e 06 bd 72 e4 82 3c
       -1.052767e-05 -0.0063732658 -0.032774307 0.015978072
000130 78 e7 3d bc 2a 14 95 3c 0c 64 5a 3c 67 b1 fc bc
       -0.011590831 0.018198092 0.013329517 -0.03084631
000140 80 7f 71 bc 28 bb f0 3b 28 27 c7 3b c6 9e e4 3c
       -0.014739871 0.0073465295 0.006077666 0.02790774
000150 80 2d 18 3c b2 ba f6 bc c6 25 ef 3c 31 7f 09 3d
       0.009288192 -0.03011832 0.029192816 0.033568565
000160 d8 f6 f9 bc 3a 44 e9 3c e0 c9 59 3c b2 ff f5 3c
       -0.030513212 0.028474916 0.01329276 0.030029152
000170 a8 17 c1 3b 3c da 06 3c 3a 7e c5 bc 6a fd 07 bd
       0.0058927126 0.008230742 -0.024108041 -0.03320066
000180 18 0a 65 3c 30 41 13 3c 6a de a2 bc a2 7c dd 3c
       0.013979457 0.00898771 -0.019881446 0.027036969
000190 db 17 01 bd 00 dc 0b bb d6 4a 2d bc 0a 91 3b bc
       -0.03151689 -0.0021340847 -0.010576924 -0.011448154
0001a0 00 08 f4 37 ee f0 e1 3c 28 73 ab 3c 06 ef 07 bd
       2.9090792e-05 0.027580705 0.020928934 -0.033186935
0001b0 b2 f7 dd bc a2 6c e0 bc df c4 03 bd 98 11 1a 3c
       -0.02709565 -0.02739555 -0.032170173 0.009403609
0001c0 5c 2c 8c 3c 10 ff eb bb 7f 8b f8 bc 1e 42 8c 3c
       0.017110996 -0.0072020367 -0.030339954 0.01712137
0001d0 e0 84 f9 3a 76 05 0f bd 28 3c 83 bb ea 83 f5 3c
       0.0019036792 -0.034917317 -0.004004974 0.029970128
0001e0 ee 5a 55 bc 82 c8 f2 3c 9a a5 e9 bc c0 63 31 3a
       -0.013022168 0.029636625 -0.028521348 0.0006766878
0001f0 a5 19 0a bd bd e7 0d 3d 0c e2 87 3c d2 50 9a 3c
       -0.033715863 0.03464483 0.01658728 0.018837366
000200 24 a7 a0 3c 58 b4 ce 3c d4 10 c2 bb 17 c5 0c 3d
       0.019610949 0.025232479 -0.005922416 0.034367647
000210 8a d5 c9 3c ae 91 b3 bc f4 2f 28 3c 44 93 09 bd
       0.024637956 -0.021920051 0.010265339 -0.03358771
000220 fe 02 37 bc 8a a2 ec bc ec 8b bb bb f6 2c f0 bc
       -0.011170147 -0.028886098 -0.005723467 -0.029318314
000230 30 65 9b 3b 5c 69 07 bd 00 4a 6a bb c4 ad 79 3c
       0.004742287 -0.033059463 -0.0035749674 0.015239183
000240 32 bf fe bc 62 c3 e1 bc 4c 40 ab bb 14 fd 6f 3c
       -0.031097028 -0.027558986 -0.0052261706 0.014647741
000250 00 d7 63 3b 6e 83 f1 3c b0 09 5f 3b ae ee 91 3c
       0.00347656 0.029481616 0.0034032874 0.017814007
000260 de 6a e2 3c 62 00 c1 bc 38 87 bb bb 78 9e b7 3c
       0.027638849 -0.023559753 -0.0057229064 0.022414431
000270 be cb c4 3c 9c a3 c1 bc 18 8a 74 bc 7c 5b 33 bc
       0.024022933 -0.023637585 -0.014925502 -0.010947105
000280 6a c0 95 3c 84 34 41 3c d1 10 0c bd 54 66 ae bc
       0.018280227 0.011792306 -0.034195725 -0.021289028
000290 80 32 d5 3c d6 ba 54 bc fe 9a 88 3c d1 6f 84 bc
       0.026025057 -0.012983998 0.016675469 -0.0161666
0002a0 00 45 4e 3c bb d1 02 3d eb b9 0f 3d a8 9e cf bc
       0.012589693 0.031938296 0.035089415 -0.025344208
0002b0 0c ff b1 3c 2d ef 92 bc c2 af 87 bc 63 d5 01 3d
       0.021728061 -0.017936314 -0.0165633 0.031697642
0002c0 ad 5e 0a bd ee 57 e4 bc bc 1b a9 bb 88 1a 6a 3c
       -0.033781696 -0.02787396 -0.005160777 0.014288552
0002d0 7a b4 f6 3c f0 1b 2a 3c b8 b4 09 bd 8a 7f 80 3c
       0.030115355 0.010382637 -0.033619612 0.015685815
0002e0 8c 68 2c 3c 49 24 a0 bc 70 46 bf bb 48 4d 8f 3b
       0.010522973 -0.019548552 -0.005837254 0.0043732263
0002f0 fd 82 07 3d 79 26 0b 3d 56 46 27 bc e4 fa 27 3c
       0.033083905 0.033972237 -0.0102096405 0.010252688
000300 bd 13 c2 bc c2 ee c9 3c 1e b2 8f bc 0a 49 e5 3c
       -0.023691053 0.024649981 -0.017540988 0.02798893
000310 e8 9e 5f bc 62 20 e4 3c 80 c9 b6 b9 9c 59 14 3c
       -0.013648726 0.027847473 -0.00034863874 0.009054568
000320 b0 cc 4a 3c 0b 98 c7 bc 50 76 ca 3c e8 04 ad bc
       0.012377903 -0.024364492 0.024714619 -0.021120504
000330 d6 2e 0b bd 00 f0 fb ba 98 1e a2 3b a6 8f 82 bc
       -0.033980213 -0.0019221306 0.0049474947 -0.015937638
000340 50 94 ef bc e8 b9 91 3b c0 0c 00 bc 84 ea 57 3c
       -0.029245526 0.0044472106 -0.00781554 0.0131784715
000350 ca 67 02 bd 2e d1 4f bc e1 91 10 3d 95 09 82 bc
       -0.031837262 -0.01268415 0.03529537 -0.01587371
000360 a8 fa dc bc dc 5e 47 3c 0c 9f da bb 50 9f 49 3b
       -0.026974991 0.012168612 -0.006671792 0.0030765124
000370 d2 7e ba bc 14 69 8e bb c2 85 9b 3c d4 c5 02 bc
       -0.02276555 -0.0043460224 0.01898468 -0.007981736
000380 a0 66 02 bb 20 87 4c 3b 42 08 9e 3c 52 7d e5 3c
       -0.0019897595 0.003120847 0.019291047 0.028013859
000390 6c 3c 00 3c c8 e8 e2 bc 51 99 86 bc b0 4c 79 3b
       0.007826906 -0.02769889 -0.016430529 0.0038040094
0003a0 05 ba 9b bc a9 9a 0e 3d f4 cd 2f 3c a8 7e b6 bb
       -0.0190096 0.034815464 0.010730255 -0.005569298
0003b0 81 15 da bc 78 4f b0 3c a2 f8 a0 3c 84 1a f1 bc
       -0.026621582 0.021522269 0.019649807 -0.029431589
0003c0 30 b4 f2 bc 15 f1 02 bd a8 93 e6 3b 4b 8a 05 bd
       -0.029626936 -0.031968195 0.007036645 -0.03260259
0003d0 6a 71 94 bc 9c ed 06 bd e0 ac 40 3b 59 5d 8a bc
       -0.018120486 -0.032941446 0.0029399917 -0.016890215
0003e0 14 a5 00 bd 5c a7 89 3c ae af ac 3c 98 ba 90 3c
       -0.03140743 0.016803436 0.021079864 0.0176671
0003f0 9c c3 d9 3c a4 55 f8 bc 5e 6b ea bc 2c 36 8c bc
       0.026582532 -0.030314274 -0.02861565 -0.017115675

model.2.bias f4 [32]
000000 02 35 e1 bc 46 d0 80 3c 40 15 ef 3b e6 ec 61 bc
       -0.027491096 0.015724313 0.0072962344 -0.013789391
000010 c0 fa 4d ba aa 2e 5e bc b0 55 69 bb fe ac 65 bc
       -0.0007857494 -0.01356093 -0.0035604052 -0.014018295
000020 87 a0 02 3d 70 73 6d 3c 60 2a a9 bc a9 dd 8f bc
       0.031891372 0.0144928545 -0.020650089 -0.01756175
000030 bc 00 ab bb 30 95 ed 3b 40 9b 77 3b b6 65 e5 3c
       -0.0052185934 0.0072504506 0.0037781745 0.028002601
000040 e8 19 fc 3b 54 12 d6 3c 2e f3 f9 3c 60 93 26 3b
       0.007693518 0.026131786 0.030511465 0.0025417432
000050 68 c2 a9 3b 38 b1 1e 3c 68 3d 06 3c 58 f6 69 3c
       0.0051806457 0.009685807 0.008193351 0.014279924
000060 d0 55 4a bb bd 62 09 bd c3 ce 02 bd 06 53 b5 3c
       -0.0030873902 -0.03354143 -0.031935465 0.022134315
000070 bb d5 0d bd ac be c7 bb 1c 68 8f bb c6 8c d0 3c
       -0.034627657 -0.006095728 -0.0043764245 0.025457751

model.4.weight f4 [64, 32, 5, 5]
000000 6e e6 e4 3c e5 ac 09 3d 62 93 58 bc f0 28 aa bc
       0.027941909 0.03361215 -0.013218733 -0.020771474
000010 42 98 98 bc fc 04 3d 3c 12 7a e3 3c 67 2f d8 bc
       -0.01862729 0.011536833 0.027768169 -0.02638979
000020 d0 20 32 bb b2 68 e5 bc d4 7c d3 bb c0 1c fa ba
       -0.0027180202 -0.028004024 -0.0064540897 -0.0019082054
000030 38 3f 45 3c 98 d5 92 bc b8 40 f3 3b 59 1d 02 3d
       0.012038998 -0.017924115 0.0074234866 0.03176627
000040 f8 f5 8f 3b 80 30 e0 39 88 5e fa bb 98 bb 83 bc
       0.0043933354 0.00042760745 -0.0076406635 -0.016080663
000050 d0 5d 49 3c dc d5 e9 bb d8 73 81 bc 74 24 23 bc
       0.012290433 -0.0071360897 -0.015802309 -0.009957422
000060 58 6c fc bc d2 d3 a2 3c c4 e8 28 3c 9a 9e d0 bc
       -0.030813381 0.019876394 0.010309402 -0.025466252
000070 88 da d4 3b c0 69 c0 3a e8 33 9b bc a4 ef 40 bc
       0.0064957775 0.0014679953 -0.01894565 -0.011775885
000080 21 96 f6 bc d2 56 0f bd a8 fa 22 3c 9f 46 f9 bc
       -0.030100884 -0.034994908 0.009947456 -0.030429183
000090 60 98 9a ba 8b 42 0c 3d dc 1f 5b bc 7c 6d 85 bc
       -0.0011794679 0.034243148 -0.013374295 -0.016287558
0000a0 90 42 0a 3b 94 8c 77 3c ee 5d da 3c 06 21 f9 bc
       0.0021096803 0.0151092 0.026656117 -0.030411255
0000b0 00 3f c0 39 80 f0 97 39 b5 4a 07 bd 70 d4 00 3b
       0.00036668032 0.0002898015 -0.03303023 0.0019657873
0000c0 9c 05 85 bc 70 03 5c 3b b2 d9 e1 bc c1 31 cd bc
       -0.016238026 0.0033571385 -0.027569626 -0.025048139
0000d0 f8 ba fd bb b2 83 ff 3c be 8c bf bc 4e 3a c6 3c
       -0.0077432357 0.031190727 -0.02338254 0.024197724
0000e0 9a ad a8 bc 2d 32 8e bc 5c f1 1f 3c b8 4a 11 3c
       -0.020590592 -0.01735791 0.009762134 0.008867912
0000f0 56 67 8a 3c 24 35 87 3c a6 ee fa bc 5e 72 32 bc
       0.016894978 0.016504832 -0.030631375 -0.010891525
000100 d4 2f 2f bc 42 7c 77 bc e7 99 02 3d 14 40 ff bc
       -0.010692555 -0.015105309 0.031885054 -0.031158485
000110 0f d2 09 3d 44 be 58 3c 24 0a c1 bc ce 07 e5 3c
       0.033647593 0.013228957 -0.023564406 0.027957823
000120 b8 2e 70 3c a0 69 76 3b 9b b5 0a 3d 40 52 6a 3c
       0.014659576 0.0037599578 0.0338646 0.0143018365
000130 74 9f cf bb 74 bc ad bb 20 54 6f 3b 70 06 00 bc
       -0.006336147 -0.0053020064 0.0036518648 -0.007814035
000140 94 1f a8 bc 68 3c ff 3b 15 01 08 bd 4c ae 58 3c
       -0.02052287 0.0077891834 -0.033204157 0.013225149
000150 00 7f 45 39 a0 24 17 3c 78 d9 9e 3c 66 6a 76 bc
       0.00018834695 0.009225041 0.019390807 -0.015040016
000160 42 e2 f1 3c 4a ed a3 bc b5 d7 0f bd b0 19 07 3c
       0.029526833 -0.02001061 -0.035117824 0.0082458705
000170 5c fa 59 3c 68 b2 d9 3c 98 00 94 3c 9c 81 30 3c
       0.013304319 0.026574329 0.01806669 0.010773089
000180 10 be 00 bd b4 6a 97 bc 55 7f 01 bd 56 8a 2d bc
       -0.031431258 -0.018483497 -0.031615574 -0.010592064
000190 ef 9e 10 3d 48 16 d4 3c 1b 09 01 3d 10 ea f4 3b
       0.03530782 0.02588953 0.031502824 0.0074741915
0001a0 d4 b0 fc bc d0 ea 6f bb a0 22 67 3b e0 45 db 3c
       -0.030846037 -0.0036608465 0.003526844 0.026766717
0001b0 ff 5f c6 bc e6 27 a5 bc 1e a0 3d bc bc f1 15 3c
       -0.024215696 -0.020160627 -0.011573819 0.009151872
0001c0 4a 48 56 bc e8 8c 6f 3c 88 e3 f5 bb 70 5c bf bb
       -0.0130787585 0.014620997 -0.0075039305 -0.005839877
0001d0 dc 3c 76 bc 6a 83 e9 3c 9b 06 a0 bc 14 c6 db bb
       -0.015029158 0.028505046 -0.0195344 -0.0067069624
0001e0 98 77 d6 3b 40 9c 20 3a 30 29 b0 3c 64 0c 8e bc
       0.0065450184 0.00061267987 0.021504015 -0.017339893
0001f0 b8 7b da bb 00 89 d6 3c 36 78 f4 3c 44 e4 1b 3c
       -0.0066675805 0.026188374 0.029842477 0.009514872
000200 6e 04 df 3c 00 c8 0f bb a7 4a 0d 3d 99 99 bc bc
       0.027223792 -0.0021939278 0.034495022 -0.02302246
000210 8c a1 ab 3c 1a 57 35 bc 64 e6 32 3c 46 39 2e bc
       0.020951055 -0.01106813 0.010919187 -0.010633772
000220 5c 33 b1 3c 48 e3 9d bb 14 14 5a bc ae fe c4 bc
       0.021630935 -0.004818354 -0.013310451 -0.024047222
000230 a0 51 1b bc 9a c3 e6 3c 70 51 d4 3c 75 85 03 3d
       -0.00947991 0.028169442 0.025917739 0.032109696
000240 e7 37 f3 bc a6 47 6a bc c0 4d ba ba b8 66 7b 3c
       -0.029689742 -0.014299309 -0.0014213845 0.015344314
000250 86 6a de 3c c8 95 b7 3b 5c 70 44 bc 5a 0c f2 3c
       0.027150404 0.005602572 -0.011989679 0.029546905
000260 b2 df 5f bc 88 39 b0 3b 98 0b 0b bd 00 29 a2 ba
       -0.013664173 0.005377952 -0.033946604 -0.0012371838
000270 99 0c 05 bd 40 4b 80 bb 0a 59 23 bc ca d7 09 bd
       -0.032482717 -0.0039152205 -0.009969959 -0.033653058
000280 f6 78 f0 3c dc 1b 1c bc 74 aa 14 bc c0 00 cb 3c
       0.029354554 -0.009528127 -0.009073842 0.024780631
000290 60 05 61 bc b6 b1 fd bc b8 e6 84 bc 54 01 26 3c
       -0.013734192 -0.030968528 -0.016223297 0.010132153
0002a0 70 70 03 bb 82 8f 77 bc ec 34 c9 bc 00 7c 4b 3c
       -0.0020056032 -0.0151098985 -0.024561368 0.012419701
0002b0 10 e6 a7 3c 00 59 e4 39 6a 61 b4 bc 40 c4 84 3c
       0.020495445 0.0004355386 -0.022019107 0.01620686
0002c0 57 b6 02 3d 23 39 0d bd ae e8 a3 3c 95 3f 07 3d
       0.031912174 -0.034478318 0.020008411 0.03301962
0002d0 99 1c f3 bc b2 ed ee 3c 98 f4 09 bd 96 17 b7 3c
       -0.029676722 0.029166076 -0.03368053 0.022350114
0002e0 d2 74 97 3c 74 e9 82 bc 6a 80 d2 3c 76 63 08 bd
       0.018488321 -0.01598046 0.025695998 -0.03329798
0002f0 98 ad d0 3b ed 0d 87 bc 70 f6 db 3b 00 99 5b b9
       0.0063683502 -0.016486133 0.0067127272 -0.00020942464
000300 60 b9 6e 3c 78 56 c2 3c 3e 67 56 bc 16 53 01 bd
       0.014570564 0.023722872 -0.013086138 -0.031573378
000310 fc 9d d2 3c 24 a8 78 3c fc ae be bc b1 1e ec bc
       0.025710098 0.015176807 -0.023276798 -0.028823229
000320 11 9b cf bc 55 f3 03 3d 28 47 a7 bc 3a 99 ba 3c
       -0.025342496 0.03221448 -0.020419672 0.022778142
000330 06 21 d5 bc 8c e1 32 bc 0a 7a f4 3c 49 44 04 3d
       -0.026016723 -0.010918032 0.029843349 0.032291684
000340 34 d0 71 3c 08 00 ea bc 74 16 4c 3c 54 3f 81 3c
       0.014759112 -0.028564468 0.012456525 0.015777268
000350 5d 94 0d bd 01 d7 05 bd 38 6e 1c bc c0 a0 7e ba
       -0.03456532 -0.032675747 -0.009547763 -0.00097132847
000360 78 54 24 bc ea 9f f6 bc 22 7b e5 3c 40 2c fa ba
       -0.010029905 -0.03010555 0.028012816 -0.0019086674
000370 0f e0 8a bc ac 16 61 3c b0 df cb 3b 58 2a 81 3c
       -0.016952543 0.013738316 0.006221734 0.015767261
000380 4e 98 91 3c f2 35 0f bd 40 15 ba 3b 88 d9 00 3c
       0.01777282 -0.034963556 0.0056788027 0.0078643635
000390 cc a9 4d bc 33 e4 f2 bc ee bd da bc 4c a9 b3 bc
       -0.01255269 -0.02964983 -0.026701894 -0.021931313
0003a0 18 e0 c8 3b 64 c1 ee bb 80 14 23 3b c0 fa 4b bb
       0.0061302297 -0.0072862376 0.0024884045 -0.00311248
0003b0 f4 2b 69 3c b1 54 0d 3d e4 bf 75 bc f6 1f 39 bc
       0.014231671 0.034504596 -0.014999364 -0.011299124
0003c0 a0 b1 10 3b 68 93 be 3b e8 20 ad bc 28 fe ef 3b
       0.002207853 0.005815912 -0.021133855 0.007323999
0003d0 fe 6a db bc 72 90 9d 3c bc 88 c6 3c ef db 05 bd
       -0.026784416 0.019233916 0.024235122 -0.03268045
0003e0 dc 4f 65 3c 44 bd f7 bb c6 3a d3 3c 3c 0b 8c bb
       0.013996091 -0.007560404 0.025784861 -0.0042738
0003f0 a8 a8 d3 3c d0 82 5a 3b fe c0 d1 bc 52 88 71 bc
       0.025837258 0.003334213 -0.025604721 -0.014741974

model.4.bias f4 [64]
000000 a3 e3 8d bc 48 ee 02 bd b4 81 45 3c 72 42 f4 bc
       -0.01732046 -0.031965524 0.012054849 -0.02981684
000010 50 44 2b bb 47 e3 02 3d c1 9f d8 bc 9d 00 d5 bc
       -0.0026133247 0.03195503 -0.026443364 -0.026001269
000020 03 25 09 3d 90 a3 e6 3b c4 2f 82 3c 48 c7 9f bc
       0.033482563 0.007038541 0.015891917 -0.019504204
000030 10 f0 6f 3b 56 cb a5 3c 06 17 d0 bc c4 f2 5d 3c
       0.0036611594 0.02023856 -0.025401603 0.013546649
000040 df 15 08 3d ac 0e d5 3c e0 41 a0 3b 78 c4 80 3b
       0.033223983 0.026007973 0.0048906654 0.003929671
000050 c0 1f 0b 3a 00 22 86 bb a8 5a 6c 3c a2 f7 ec bc
       0.00053071603 -0.0040934086 0.014425911 -0.028926674
000060 78 2c d1 3c 85 40 04 3d 80 3d cb 39 30 66 33 3c
       0.0255339 0.032288093 0.00038764998 0.010949656
000070 40 9e 5c ba 11 49 0e bd ac d5 d7 3c 5e 08 c4 3c
       -0.0008415915 -0.03473765 0.026347004 0.023929771
000080 f7 68 ff bc 7a 24 64 bc 80 0a f0 39 28 8f 12 bc
       -0.03117798 -0.013924712 0.0004578419 -0.008945264
000090 52 28 6e bc 40 b8 72 bb 79 c9 81 bc 45 4e 96 bc
       -0.01453598 -0.003703609 -0.01584314 -0.018347869
0000a0 a8 e1 1c 3c b0 a7 fe 3b a2 a0 08 bc c8 c0 ac 3b
       0.009575285 0.0077714548 -0.008339079 0.0052720048
0000b0 13 a9 9a bc 76 25 86 3c b2 4d 2a bc a6 31 8a bc
       -0.018879449 0.016375285 -0.010394501 -0.016869377
0000c0 86 8a d3 3c cc ed 92 bb c2 6a 0b bd 78 99 59 3c
       0.025822889 -0.004483914 -0.03403736 0.013281219
0000d0 74 31 5d bc e0 9f 6f 3c e0 47 f2 bb d0 66 be bb
       -0.01350056 0.0146255195 -0.007393822 -0.005810596
0000e0 30 fb 49 3b f0 f9 b0 3b 20 05 58 bb c0 0f a2 3b
       0.0030819885 0.0054008886 -0.003296204 0.004945725
0000f0 24 70 11 3c d2 02 fd 3c d9 33 fb bc 08 1c 23 3c
       0.008876834 0.030885134 -0.030664371 0.009955414

model.7.weight f4 [64, 1024]
000000 84 97 37 bc 4c f5 2c bc 48 08 77 3c c0 37 7d bc
       -0.011205558 -0.01055653 0.015077658 -0.015455186
000010 8a 89 dc bc f8 e6 e2 bb 56 b9 85 bc ac 66 cc 3c
       -0.026921052 -0.0069245063 -0.016323727 0.024951302
000020 ac 70 03 bc f0 37 9b bc e0 bf 63 bc 80 33 6a 3a
       -0.008022469 -0.018947572 -0.013900727 0.00089340657
000030 20 32 c8 ba c4 b8 3e bc b4 f0 c2 3c 2a 43 eb 3c
       -0.0015273727 -0.011640731 0.023796417 0.02871855
000040 48 3e 93 bc aa 96 9f bc f8 bb 8a 3c c8 81 3a 3c
       -0.017974034 -0.019481022 0.016935334 0.011383481
000050 4c 69 35 bc 10 60 3b bc 00 0d ae bc 3c 26 09 bc
       -0.011072468 -0.011436477 -0.021246433 -0.008370932
000060 7c 32 9f 3c 4c 72 2a 3c 28 e7 96 3c 3e 60 b2 bc
       0.019433253 0.010403227 0.01842077 -0.021774407
000070 80 ba d9 3a 2e 7e 8f 3c c0 23 2d bb 88 36 f7 3c
       0.0016611367 0.017516222 -0.0026419014 0.03017737
000080 be c7 92 3c 7a eb 88 bc a0 6e 87 3a 08 92 ba bc
       0.01791751 -0.016713846 0.0010332651 -0.022774711
000090 56 f9 c7 3c 78 74 00 3c 08 da d5 bc 28 be fc 3c
       0.024410885 0.007840268 -0.026104942 0.030852392
0000a0 80 d5 de 3a 00 2f 7d ba 30 e4 d2 bc e0 44 9a 3b
       0.0017000884 -0.00096581876 -0.025743574 0.0047079176
0000b0 dc d7 7c bc 7c 1d ff 3c 9a 39 fe bc 30 51 d4 bb
       -0.015432324 0.031141989 -0.031033326 -0.006479405
0000c0 f4 90 f2 bc bc 80 f4 bc 26 a7 c4 bc ac 27 23 3c
       -0.029610135 -0.029846542 -0.024005484 0.009958189
0000d0 44 14 36 3c 6c 43 0a 3c a4 92 13 3c 34 7c 0e 3c
       0.01111323 0.008438926 0.00900713 0.0086966045
0000e0 48 d7 1f 3c ac 29 e8 3c 40 51 f5 3a f8 b8 67 3c
       0.009755917 0.028340183 0.0018716231 0.014143221
0000f0 86 d1 b8 bc fc 7f 75 3c f4 91 c7 bc fc 80 a7 bc
       -0.022560846 0.014984127 -0.024361588 -0.020447247
000100 aa 48 d4 3c 48 25 ec bb 7a f8 85 3c e8 fe ee 3b
       0.025913555 -0.0072065927 0.016353834 0.007293571
000110 c0 1d 5b 3c 60 30 c3 bb f0 3e cc bb d2 44 94 3c
       0.013373792 -0.0059566945 -0.0062330887 0.018099222
000120 ac f8 cb 3c 84 bc aa bc 58 9b d9 bc 84 2a ad bc
       0.02489885 -0.020841844 -0.026563331 -0.021138437
000130 08 ed 9b bc 58 9c a4 3b 78 73 f5 3b 5c f9 4d bc
       -0.019033924 0.0050235204 0.0074905716 -0.012571659
000140 98 99 3c 3c e4 6c 51 bc 58 a9 c4 3c d6 b7 df 3c
       0.011511229 -0.012782309 0.02400653 0.02730934
000150 f6 b8 e9 3c 68 f6 2f 3c ee c9 c9 3c bc 7d a0 bc
       0.028530579 0.0107399 0.02463242 -0.019591205
000160 28 5e ab 3c 68 5c fc bc be d6 cb bc dc 2c 74 bc
       0.02091892 -0.030805781 -0.02488267 -0.014903273
000170 a0 90 7c bc 14 27 b3 bc a0 8b 24 3c e8 a4 2b 3c
       -0.015415341 -0.02186922 0.010043055 0.010476328
000180 7a 7a e0 3c ae 16 e7 3c 10 23 00 bb b4 38 22 bc
       0.027402151 0.028209057 -0.001955215 -0.009901214
000190 fc b4 f0 bc 30 32 09 3b 5c 00 6a 3c 80 14 ee bb
       -0.029383175 0.0020934455 0.014282312 -0.0072656274
0001a0 08 51 d7 bb 84 1f d2 bc c0 5a 43 3c b0 6a 8d 3b
       -0.006570939 -0.025649793 0.011923492 0.0043156967
0001b0 dc 28 78 bc c0 5e d4 bc 8e 61 8f bc ee 5e 82 3c
       -0.01514646 -0.025924087 -0.017502572 0.015914407
0001c0 00 f5 dc bc 22 b8 92 bc 08 f3 97 bc 38 db 8e 3c
       -0.026972294 -0.017910067 -0.018548504 0.017438516
0001d0 3c ef ef 3c 48 50 ac bb 9e 05 84 bc 00 94 45 3b
       0.02928888 -0.0052585937 -0.01611596 0.003014803
0001e0 40 88 ef bc 00 91 31 3a c4 b5 6f 3c 50 41 75 3c
       -0.029239774 0.0006773621 0.014630739 0.014969185
0001f0 94 1d 91 3c 7e c7 df bc 84 90 70 3c 04 b9 e6 bc
       0.0177143 -0.027316805 0.014682893 -0.028164394
000200 cc e7 b4 3c 88 73 86 bc 20 90 a4 ba 28 64 64 3c
       0.022083186 -0.016412511 -0.001255516 0.013939895
000210 16 48 a8 3c fc 87 d0 3c 9c d5 03 bc 90 37 a8 3c
       0.020542186 0.025455467 -0.008046534 0.020534307
000220 40 9b c6 bb a8 93 f1 bb 20 c3 12 3c 80 d6 71 ba
       -0.0060609877 -0.0073723383 0.008957654 -0.00092253834
000230 b0 38 07 3b 68 55 ff 3b d0 c5 42 3b 3c 63 89 3c
       0.0020633154 0.0077921636 0.0029719956 0.016770951
000240 80 05 8d bc ac eb 51 bc 40 dd 14 3b 00 6e f7 3a
       -0.017214537 -0.012812536 0.0022714883 0.0018877387
000250 1c 7b 72 bc 9a 7f f0 3c 44 6a f3 3c f0 ec 56 bb
       -0.014799859 0.02935772 0.029713757 -0.0032795034
000260 50 62 11 3c 00 1a 6f b9 08 66 dc 3b f4 42 ab 3c
       0.008873537 -0.00022802502 0.0067260303 0.02090595
000270 b8 74 39 bc 08 a4 72 3c 30 ab 3c 3c 1c cf df 3c
       -0.011319332 0.014809616 0.011515424 0.027320437
000280 b0 e7 e7 bc c0 62 5d 3a 3e 7f a4 bc 9e fb cc bc
       -0.02830872 0.0008445196 -0.020080205 -0.025022324
000290 ce db ac bc dc 3a f9 3c 4c 20 d4 3c 24 a0 e7 3c
       -0.021100905 0.030423574 0.025894307 0.028274603
0002a0 00 17 61 bc cc 26 a4 3c 2e cb f4 3c f2 b5 93 3c
       -0.013738394 0.020038031 0.02988204 0.018031094
0002b0 62 ce df 3c fa 6b b5 3c ae ea ab 3c 70 4d 01 bc
       0.02732009 0.022146214 0.020985927 -0.007891998
0002c0 d0 6e 46 3b d0 36 29 3b d8 5e 0f 3c 5c 64 23 3c
       0.0030278452 0.0025820024 0.00875064 0.009972658
0002d0 62 43 ea 3c 62 32 c5 3c 50 c4 81 3b 5c e9 ec 3c
       0.028596584 0.024071876 0.00396017 0.028919868
0002e0 9a ec c1 3c 94 8a 9b bc 9a 7c d9 bc cc d7 b7 bc
       0.02367239 -0.018986978 -0.026548672 -0.022441767
0002f0 f4 67 27 bc 80 1e f7 bb b0 3d d7 3c b0 80 da 3c
       -0.010217655 -0.0075414777 0.026274532 0.026672691
000300 30 94 b9 bb e6 4c 8c 3c fc 80 25 bc d4 4a d8 3c
       -0.0056634173 0.017126512 -0.010101553 0.026402868
000310 0a d6 bb bc a4 37 32 3c d4 76 60 bc 10 ff 88 3b
       -0.02292921 0.010877524 -0.013700206 0.0041807964
000320 54 c1 21 3c 44 e5 be 3c 80 7e 8f bb 10 c9 54 3b
       0.009872753 0.023302682 -0.0043790936 0.0032468475
000330 8a 00 ff 3c 50 3d 0d 3b 50 d6 ce 3b f0 f6 77 3b
       0.031128187 0.0021551438 0.006312169 0.0037836395
000340 90 02 31 bb 1c 65 78 3c 80 20 b4 ba 6a 22 ef bc
       -0.0027009584 0.015160825 -0.0013742596 -0.029191215
000350 c8 3d af 3b a8 42 9b 3c 00 ad e3 3b 5a 55 f8 bc
       0.005347941 0.018952683 0.0069481134 -0.030314136
000360 f2 2b bd 3c 46 a0 cc 3c 60 7d bc bb 18 fd 2c 3c
       0.023092244 0.024978768 -0.0057522506 0.010558389
000370 2e cc d4 bc bc 55 c6 3c 9e d7 e7 bc d8 8d 41 bc
       -0.025976267 0.024210803 -0.028301056 -0.011813603
000380 28 b6 d5 bb d6 9f af bc c8 d0 d1 bc 74 14 e4 bc
       -0.006521959 -0.02143852 -0.02561225 -0.027841784
000390 34 4e e7 bc d2 15 ca 3c 10 5a 68 3c 40 ba ba 3a
       -0.028235532 0.024668608 0.014181629 0.0014246181
0003a0 60 66 bb ba 3c 8b 18 3c a0 cc ab bb 00 f6 08 bc
       -0.0014297478 0.00931054 -0.005242899 -0.008359432
0003b0 10 6a aa bb 52 f1 ec 3c fa 59 c4 3c 20 e8 a2 3c
       -0.005200632 0.028923664 0.023968685 0.019886076
0003c0 f8 42 d0 bc 72 0a 9e bc 12 3b cf 3c 5c f7 05 bc
       -0.025422558 -0.01929209 0.025296722 -0.008176651
0003d0 e0 cb f4 bb f4 17 e3 3c 70 b7 0a 3b 38 2e e9 3c
       -0.007470593 0.027721383 0.0021166466 0.028464422
0003e0 c0 e9 e6 ba 20 7e 19 bc 00 75 cd bb b0 73 39 3c
       -0.001761727 -0.009368449 -0.006270051 0.011319086
0003f0 46 d7 8d 3c 30 36 5e bb c4 c1 68 3c f8 5b c7 3c
       0.017314564 -0.003390681 0.014206354 0.024335846

model.7.bias f4 [64]
000000 ba 64 de 3c 20 da 30 3c b8 dc c2 bb 2a cf c4 bc
       0.02714764 0.010794193 -0.005946722 -0.024024565
000010 f4 19 96 bc 24 19 78 3c 92 bf b9 bc f8 33 50 bc
       -0.018322922 0.015142713 -0.022674356 -0.012707703
000020 00 b7 bc 3c 9c ec 9a 3c 84 22 e5 bc 80 bb 24 ba
       0.02303648 0.018911652 -0.02797056 -0.0006284043
000030 00 c9 2a 3c 00 bd 9c 3a a2 4a d0 bc c6 09 8c 3c
       0.010423899 0.0011958182 -0.025426213 0.017094504
000040 58 eb e2 bb fc b8 f2 3c a6 e7 95 bc 00 e5 42 bc
       -0.006925028 0.029629223 -0.018298935 -0.011895418
000050 b4 8e f8 bc f0 0d 32 3b c0 00 dc 3b 00 e2 e0 39
       -0.030341484 0.0027168952 0.0067139566 0.00042892992
000060 ac c3 04 3c a0 d1 b1 3b 78 02 27 3c 38 8f ad 3b
       0.008103292 0.0054266006 0.01019346 0.005296614
000070 3c 7a 98 bc a0 95 f6 bc 80 2c ea bb 58 d5 d4 3c
       -0.018612973 -0.030100644 -0.007146418 0.025980636
000080 80 58 98 3b f2 f2 fe bc 68 61 dd 3c fc 96 5d bc
       0.004649222 -0.031121705 0.027023986 -0.013524767
000090 f0 81 56 3c b4 a7 78 bc e8 ca f1 bb 20 2a 80 3b
       0.013092503 -0.015176702 -0.0073789246 0.0039112717
0000a0 10 11 88 3c 9e 94 a1 bc 60 a4 a5 3a 00 28 7e b9
       0.016609699 -0.019724187 0.0012637489 -0.00024238229
0000b0 b4 67 d3 bc 00 a9 85 bb 2c 69 cf bc fa 80 c7 bc
       -0.025806285 -0.0040789843 -0.025318705 -0.024353493
0000c0 00 53 32 bb 00 ea c1 3b fa ff a0 3c 10 46 83 bb
       -0.0027210116 0.0059177876 0.01965331 -0.004006155
0000d0 60 fb 9d ba 2c a9 d3 3c 38 3e b3 bc ac f1 f7 3c
       -0.0012053065 0.025837503 -0.021880254 0.030266605
0000e0 1a 96 c2 3c bc 69 84 bc 40 d9 61 3a e0 97 cb bc
       0.023753215 -0.0161637 0.00086154416 -0.024852693
0000f0 44 b9 38 bc 6e 1a 8b 3c 16 0f 86 bc 3a e0 af bc
       -0.0112746395 0.016980376 -0.016364615 -0.021469224

model.8.weight f4 [10, 64]
000000 20 66 c5 3c 54 b7 ee 3d a6 f8 c2 3d d2 5b e6 bd
       0.024096549 0.11656061 0.09520082 -0.11247982
000010 30 b7 70 bd 10 19 b3 bd 00 ca 83 ba b4 25 c9 3d
       -0.05876845 -0.08745015 -0.0010054708 0.098216444
000020 58 53 dd 3c 14 3d 6f bd 4e f8 91 bd cc 5a 6e bd
       0.02701728 -0.058407858 -0.071274385 -0.05819206
000030 b4 87 21 3d d4 c4 77 3d b8 e5 37 3d 2a db ce bd
       0.039436057 0.060490444 0.04489681 -0.10100396
000040 00 90 55 38 80 39 72 3b 98 c7 f7 bc e0 a8 a9 3d
       5.0917268e-05 0.0036960542 -0.03024654 0.082841635
000050 30 55 fa 3d 80 0a 71 bb a4 05 07 3d 60 0e b1 3b
       0.122232795 -0.003677994 0.032964364 0.005403325
000060 80 15 32 bc f4 cf cd bd a0 00 f3 3c 20 39 15 bc
       -0.010869384 -0.100494295 0.029663384 -0.009107858
000070 92 64 c8 3d d8 b3 a8 bc 40 11 30 3d 20 e5 e4 3b
       0.09784807 -0.020593569 0.0429852 0.0069853216
000080 12 6b e4 3d d4 61 a1 bd bc 9d 93 3d 0e 11 92 3d
       0.111532345 -0.07879987 0.0720782 0.07132159
000090 38 02 2f 3d b0 cd 9c 3d 30 73 3e bd 66 6d fe 3d
       0.042726725 0.07656419 -0.04649657 0.1242321
0000a0 2c ea ef bd 28 4e 96 3d 86 8b 98 3d e4 31 9d 3d
       -0.117145866 0.07339126 0.07448487 0.076755315
0000b0 30 51 5c bc 76 23 90 bd 00 34 2e ba 10 52 0a 3c
       -0.013447091 -0.07038014 -0.0006645322 0.008442417
0000c0 90 83 c9 3c 00 c8 e4 3b 50 3b b7 3d 38 ae 51 3d
       0.024598867 0.0069818497 0.0894686 0.05119154
0000d0 cc a7 7b 3d 70 ad e1 3c fc c7 5e bd 64 ed f1 3d
       0.06143932 0.027548522 -0.05438994 0.11812857
0000e0 dc 47 c2 3d e6 a0 d2 3d 24 36 8c 3d 28 4d 3a bd
       0.09486362 0.10284595 0.06846264 -0.04548374
0000f0 ec 07 b6 bd 6a 28 83 3d d0 94 b0 bc c0 b5 cf 3d
       -0.0888823 0.06404193 -0.021555334 0.10142088
000100 52 09 e6 3d 80 20 cf 3c 2c 26 44 3d 0c b3 15 3d
       0.112322465 0.025284052 0.047887966 0.036547706
000110 a0 41 58 3c 8a d2 f3 3d bc 57 ca 3d 28 8b 9e bd
       0.01319924 0.119053915 0.09880015 -0.07741386
000120 8c 5c cd 3d b2 78 ce 3d 38 f6 e3 3d d2 98 fd 3d
       0.100274175 0.100816146 0.11130947 0.12382664
000130 e0 58 d1 3c 00 7b ee 3c d2 e1 c6 bd c0 23 a1 bc
       0.025555074 0.029111385 -0.097110406 -0.019670367
000140 c0 e5 d7 bb 2c af fd bd 90 36 ae bc 84 9f 11 bd
       -0.0065886676 -0.12386927 -0.021266252 -0.035552517
000150 74 2d 55 bd 20 57 fc bd e4 c4 1b 3d 00 6b bb ba
       -0.0520453 -0.12321305 0.038029566 -0.0014298856
000160 78 db 00 3d e0 ca de bc 3a 38 dd 3d 08 b5 df bc
       0.0314593 -0.027196348 0.1080174 -0.027308002
000170 80 f4 ac 3c e8 65 83 3d e8 5c 3f 3d c0 6b c0 3b
       0.02111268 0.064159214 0.04671946 0.00587222
000180 02 51 be 3d 1c 39 de 3d c0 a3 a9 bd c0 76 83 3c
       0.09292795 0.108507365 -0.08283186 0.016047835
000190 fe d9 d6 bd 38 8b cf 3d 44 94 7c bd 62 d1 f7 3d
       -0.104907975 0.10133976 -0.061664835 0.121004835
0001a0 60 06 d7 bc 30 93 87 bc cc c4 5f 3d 66 35 c4 3d
       -0.026248157 -0.016549677 0.05463104 0.095804974
0001b0 48 cd 6c 3d 70 3e 83 3d 3a 35 83 3d 6c 44 94 bd
       0.05781296 0.064083934 0.064066365 -0.07239613
0001c0 ac 5d 1b 3d 52 30 e3 3d ae 0e d7 bd a8 15 8b 3c
       0.03793113 0.11093201 -0.10500847 0.0169781
0001d0 7e bc c1 bd 94 7e 20 3d 04 dc c6 3d 1c cf 56 bd
       -0.0945978 0.039183214 0.097099334 -0.05244361
0001e0 a0 5d a4 bc 58 c8 e3 3d d0 fa 84 3d 40 5b e2 3c
       -0.020064175 0.11122197 0.06493151 0.027631402
0001f0 fc c9 b3 3d ce f0 c9 bd 40 ae d9 bb e0 83 77 bd
       0.0877876 -0.09860383 -0.0066430867 -0.0604285
000200 f0 5e d8 3c 74 f5 f9 bd b8 c1 f0 bd c8 e6 a6 3d
       0.026412457 -0.122050196 -0.11755699 0.08149487
000210 a6 08 fb bd 14 81 57 bd 20 f0 dc bc b0 61 fb bc
       -0.12257509 -0.052613333 -0.02696997 -0.03068623
000220 78 99 46 bd 2c e6 ec bd 40 e1 49 bc f2 ec a3 3d
       -0.048486203 -0.11567339 -0.01232177 0.08004178
000230 5c 10 52 bd 04 48 4c bd 94 72 2f 3d e0 3f 5e bd
       -0.051285133 -0.049873367 0.04283388 -0.054260135
000240 b4 71 51 bd d8 e4 b8 3d fc 21 a0 bd 32 46 dd 3d
       -0.051133826 0.090280235 -0.07818982 0.10804404
000250 30 72 f6 3d 8e 57 ee 3d 18 56 cf bd 20 01 2c 3c
       0.12033498 0.116377935 -0.10123843 0.010498315
000260 00 9b 8e bb 60 81 a9 3c 24 8f 07 3d fe 78 c1 3d
       -0.0043519735 0.020691574 0.033095494 0.094469056
000270 c4 b8 81 bd 60 3e eb bb 58 cf 68 bd a2 9b df bd
       -0.06334069 -0.0071790665 -0.056838363 -0.109183565
000280 fc 43 48 3d 98 26 85 3d e8 88 2d 3d 30 af 73 bc
       0.04889296 0.06501502 0.042366892 -0.014873311
000290 8e 86 99 3d 70 77 36 bd 78 cb 66 3d da 7e 80 bd
       0.074963674 -0.0445475 0.056346387 -0.06274195
0002a0 40 88 cf 3c c4 3b ed bd d0 55 fe bd a0 d0 3b 3d
       0.025333524 -0.11583665 -0.12418711 0.045853257
0002b0 de 3f d5 3d 3a d0 ae bd 00 bc ab 3d 20 5a 9d bc
       0.10412572 -0.0853581 0.083854675 -0.019208014
0002c0 26 35 eb bd f4 a2 d9 bd f4 9e 96 bd 40 85 7a bb
       -0.11484747 -0.10626784 -0.07354537 -0.0038226396
0002d0 80 c4 99 3d b4 04 ce bd 06 cf cc bd c0 1a a8 3b
       0.075081825 -0.10059491 -0.10000424 0.005130142
0002e0 00 61 ad ba 28 fb f5 3c b8 6f 25 bd a0 91 f0 bc
       -0.0013227761 0.030026987 -0.040389746 -0.029366314
0002f0 a0 31 6c bd a0 78 ad 3d 5c 9a f9 bd ac 47 35 bd
       -0.057664514 0.08470273 -0.12187645 -0.044257805
000300 9a 6e fd 3d d0 eb 4b bd 60 18 83 bb 54 f5 cc bd
       0.12374611 -0.049785435 -0.0040007085 -0.1000773
000310 6c ff a3 3d 28 dd a8 3c 74 d6 12 3d 14 28 70 bd
       0.08007702 0.020613268 0.03584905 -0.05863197
000320 ac bc ee 3d ca aa ad 3d 5c 0d 47 3d f0 b3 2c 3d
       0.1165708 0.08479841 0.048596725 0.04216379
000330 a0 76 0a 3c 52 40 c2 bd fe 74 b4 3d 76 d8 98 bd
       0.008451134 -0.094849244 0.08811377 -0.07463162
000340 60 a0 a9 3b 64 44 c4 3d ec bf c1 3d 40 5e f9 bc
       0.005176589 0.09583357 0.09460434 -0.03044045
000350 5a a9 c7 bd 78 da ec 3c f8 bb 4b bd d2 78 fa 3d
       -0.09749098 0.028912768 -0.049739808 0.12230076
000360 42 a4 ec bd fe 67 d5 bd 5e 73 ec 3d 7c 44 d5 3d
       -0.11554767 -0.104202256 0.11545442 0.10413453
000370 70 52 fc 3d 6c f5 a1 3d b4 fb 7d 3d 4c 7a 3d bd
       0.12320411 0.07908139 0.06200762 -0.04625921
000380 24 c5 61 3d e4 95 c0 bd 56 c9 bb 3d ea b6 a4 3d
       0.05511965 -0.09403589 0.09169261 0.080427006
000390 2c 89 48 bd ca 4b ba 3d 60 14 7b 3c 30 55 96 bc
       -0.048958942 0.09096487 0.015324682 -0.018351167
0003a0 38 74 bc bc a2 fe fb 3d 1c ae d4 bd 60 b7 e5 bd
       -0.023004636 0.12304427 -0.10384771 -0.11216617
0003b0 b0 28 89 3c 50 ed 91 3d c4 04 18 3d 24 45 c6 bd
       0.016743034 0.07125342 0.03711392 -0.09681156
0003c0 88 34 32 3d c6 3d ff bd 0c 8c 28 3d 28 db bf 3d
       0.04350713 -0.12462954 0.041149184 0.093679726
0003d0 30 8c 40 bc f0 ad b3 bd e2 eb ca bd 50 1d 5b bd
       -0.011752173 -0.0877341 -0.09908272 -0.05349475
0003e0 40 12 4b bb e0 44 1b 3c a2 5d a1 bd 56 ea ba bd
       -0.003098622 0.00947687 -0.07879187 -0.09126727
0003f0 50 fe ea bd c2 50 e7 bd 5e 2e ea bd f8 b1 17 bd
       -0.114742875 -0.112947 -0.11434625 -0.03703496

model.8.bias f4 [10]
000000 c8 94 44 3d 40 46 f7 3b a0 47 87 3d 70 7d 2d 3d
       0.04799345 0.0075462162 0.06605458 0.042355955
000010 10 c2 6d 3c 70 bc fb 3d 96 3a 81 3d f2 64 b2 3d
       0.0145116 0.12291801 0.063100025 0.0871066
000020 b4 55 d5 3d 8e 63 db 3d
       0.10416737 0.10712348
